training/train_output/20230920_scaled_IDQ_softplus_cold/config_13.pt (torch, 81003 bytes, 4 tensors)

weight f4 [24, 24]
000000 eb 1d 36 be b4 fa 2f be 88 15 2f 3e 1a 87 22 3d
       -0.1778485 -0.1718548 0.17098057 0.039679624
000010 7a ee 4b 3d c1 92 e9 3d 9e 79 19 bc f4 85 48 3e
       0.049787976 0.11404944 -0.009367375 0.19582349
000020 64 bb 2d 3e a4 46 4a 3e c1 e2 94 3d 3a de 0c bd
       0.16966015 0.1975351 0.072698124 -0.03439162
000030 a8 f0 3d be e1 cb c6 3d b3 64 4e be 07 c1 3a be
       -0.18548834 0.097068556 -0.20155601 -0.18237697
000040 ea c2 7c 3d 34 4c 71 bd 95 f0 9d bd aa cc 20 3d
       0.061709322 -0.058910564 -0.07711903 0.039257683
000050 f9 3e 34 be 45 7e 42 be 5a 2f 5d 3d 4b 15 01 be
       -0.17602147 -0.1899348 0.054000236 -0.12605779
000060 42 62 53 3d c3 6c 41 be e7 61 49 be 80 17 52 3b
       0.051607378 -0.18889146 -0.19666253 0.0032057464
000070 72 97 2d be ff 4e e8 bc 7d 41 a6 3d 11 f5 9d 3c
       -0.16952303 -0.02835798 0.0811796 0.019281896
000080 94 d6 25 3e 55 21 d5 3d 02 d9 40 bd 91 fc a6 3d
       0.16195136 0.10406748 -0.047081955 0.08153642
000090 4f b0 0f 3e 3a 86 14 3e 08 bb 0a be be d0 3b be
       0.140321 0.14504328 -0.1354791 -0.18341348
0000a0 e9 b0 c7 3d 87 5c a3 3c 77 0d 98 bd bf 99 a7 bd
       0.0975054 0.019941581 -0.07424443 -0.081836216
0000b0 3f f0 07 3e b5 e2 d0 3d 2e ec 07 3e c5 49 8b bd
       0.1327524 0.10199491 0.13273689 -0.0680118
0000c0 46 ae 47 3e 09 26 13 3e cd ed 80 bd 24 70 cb 3b
       0.19500074 0.14369978 -0.06295357 0.0062084366
0000d0 ce 3c 34 be a5 2c 3b 3d 39 b9 33 be 3b 43 05 be
       -0.1760132 0.045696873 -0.17551126 -0.13013928
0000e0 f1 2a be 3d 72 fb 5d 3d 57 60 ba bd ec 70 85 3d
       0.09285534 0.054194875 -0.091004066 0.06515679
0000f0 4e a1 99 3d 3e 44 03 be 8d 02 42 be 07 36 41 3e
       0.075014696 -0.12819001 -0.18946286 0.18868266
000100 4e ee 17 be 64 ae 21 3e b3 0c 94 bd 15 92 36 be
       -0.14837 0.15789181 -0.07228985 -0.17829163
000110 06 86 3f 3e ad 55 f5 bb f2 e7 c0 bd c5 69 2a 3e
       0.1870347 -0.00748702 -0.0941924 0.1664191
000120 33 f3 80 bd 9c 12 08 3e d4 7c 1e 3e e1 2f e1 bd
       -0.062963866 0.13288349 0.15477306 -0.1099546
000130 cd af 9e 3d f3 38 4d 3d d2 dd 8f 3d d4 ac 73 bd
       0.07748375 0.05010314 0.07024731 -0.059490994
000140 fc 04 05 bd 95 18 07 be fb 2b f5 3d c8 c3 4e 3e
       -0.032475457 -0.13192971 0.11971279 0.20191872
000150 63 52 ba 3d af 14 31 3e d5 13 bc bd 30 74 40 be
       0.09097745 0.17293046 -0.0918347 -0.18794322
000160 73 93 d0 3c d1 a3 95 3d 2e 0d 06 be fe a1 4b be
       0.025460934 0.07306636 -0.13090965 -0.19886014
000170 b1 dd 1f be 5e 5c 89 3d 33 53 86 bd cf 03 35 3e
       -0.15611912 0.06707071 -0.06558838 0.17677234
000180 e8 60 f0 3d 9d 45 b8 3d 60 ef 16 3e f0 27 2f 3e
       0.117372334 0.08997653 0.14739752 0.17105079
000190 0a b3 1a be 96 46 79 bc 0f ff d1 bc 6d 62 0c 3e
       -0.1510736 -0.015214583 -0.025634317 0.13709421
0001a0 a2 5d 83 bd 45 db 42 be e4 c6 12 3e 69 c5 9f bd
       -0.064143434 -0.19028957 0.14333683 -0.07801325
0001b0 68 e9 a0 3c 9f ae ea 3d 95 37 38 be e2 64 51 bd
       0.019642547 0.114590876 -0.17989953 -0.0511216
0001c0 70 bd 46 3e 78 37 5b 3d c9 09 ad bd ee 7e 02 bd
       0.19408202 0.053519696 -0.08449132 -0.03185933
0001d0 c9 82 25 3e b3 4c 05 be 7a e5 12 3e d0 8c 20 be
       0.16163172 -0.1301754 0.14345351 -0.15678716
0001e0 c3 cd 23 3e 7a 74 c7 bd 56 7c 2b be 04 c1 39 3e
       0.1599646 -0.09739013 -0.16746649 0.18140036
0001f0 8f 73 30 be 6a 2c 44 3e ed 0c 0d 3d e7 ec 2d be
       -0.17231582 0.19157568 0.034436155 -0.16984902
000200 d8 22 e4 bc 54 5d d7 3d 67 5b be 3d 8b 1d 37 3e
       -0.027848646 0.10515848 0.09294777 0.17882363
000210 3b 6f 44 3e 1e 4a 16 be 0a ec d1 3d 54 c8 1a bc
       0.19183056 -0.14676711 0.10250099 -0.009447176
000220 31 22 01 be 92 15 b6 bd 71 ea 1e be b0 81 b6 bc
       -0.12610699 -0.08890833 -0.1551912 -0.022278637
000230 8b 50 4e be 55 97 00 be 7f ac 23 3e 3b 72 f2 bd
       -0.20147912 -0.12557729 0.15983771 -0.11838194
000240 46 67 2a be c3 14 98 bd 9a fb 53 3d 5d 32 b8 bd
       -0.16640958 -0.07425835 0.051753618 -0.08993981
000250 7c 8a 34 be d2 69 15 3e c3 f3 85 bd 89 e7 2c be
       -0.17630953 0.14591148 -0.065406345 -0.16885199
000260 2a ed 42 3d 20 5f 3b 3e 87 00 b0 bc f0 9f 0b 3e
       0.04758946 0.18298006 -0.021484626 0.1363523
000270 0d cd 83 3d 49 c4 89 bd 59 ae 94 3d da 0f 4b be
       0.06435595 -0.067268915 0.07259817 -0.19830266
000280 38 9f a8 bd 44 28 64 bd b1 f0 1e be 42 ce 30 3d
       -0.082334936 -0.055702463 -0.15521504 0.043165453
000290 63 66 07 3e 4c ed 0e be 29 1b 1b be 06 98 11 3d
       0.13222651 -0.13957709 -0.1514708 0.03554537
0002a0 de 77 3c bd 19 00 55 bd 95 29 e4 3d e7 05 b7 3d
       -0.04601275 -0.052002046 0.11140744 0.08936673
0002b0 bf 67 26 3e c0 27 fc 3d bf cd a8 bd 76 f4 79 3d
       0.16250513 0.12312269 -0.08242368 0.06102415
0002c0 93 f0 0e be d5 a5 c7 bd c4 3c e0 3d fa bd 22 be
       -0.1395896 -0.09748427 0.1094909 -0.15892783
0002d0 2e 9d cc 3d 92 96 1b be 11 4d 67 bd 73 ac 87 bd
       0.09990917 -0.15194157 -0.05646998 -0.06624689
0002e0 a6 b0 cf bd eb b3 0c be 41 e6 07 3e d7 19 21 3e
       -0.10141115 -0.13740508 0.13271429 0.15732513
0002f0 32 fc 1f 3e 4d 2b 2b 3d 8a 0a 47 3e f3 70 9b ba
       0.15623549 0.04178934 0.19437614 -0.0011859223
000300 5a 23 35 be b9 e0 98 3d b8 5b 34 be 4a 20 38 be
       -0.17689267 0.074647374 -0.17613113 -0.17981067
000310 1c ec 75 3d bf 3e ba 3d 19 17 df bd 48 91 1c be
       0.060039625 0.09093999 -0.108930774 -0.15289795
000320 83 68 3d be 5f 65 c3 bd 28 a7 a9 bd 57 45 2d bc
       -0.184969 -0.095408194 -0.08283836 -0.010575614
000330 a4 d8 07 3e 43 72 a4 3a 4d 94 3a be 41 86 c6 bc
       0.13266236 0.001254626 -0.18220635 -0.02423394
000340 be 0f 4a 3e cc c6 e0 3d 66 7b 3b 3e bc de 03 be
       0.19732568 0.109754175 0.18308792 -0.12877935
000350 8f 13 a4 3c 74 c4 41 3e 22 f8 4b be 6f b5 51 bd
       0.020028858 0.18922597 -0.19918874 -0.05119842
000360 11 c0 b3 bd 65 34 22 be f3 b3 da 3d 0f f0 df 3d
       -0.08776868 -0.158403 0.10678854 0.109344594
000370 9c a1 ea 3d ed d1 e9 3d 14 53 2f be 87 b7 52 3d
       0.11456606 0.11416993 -0.17121536 0.051444557
000380 12 2c 39 be 98 65 50 3e ae 42 14 3e 2b c6 87 bd
       -0.18083218 0.20351255 0.14478561 -0.066295944
000390 bd 42 e8 3a 15 02 2a be f2 b5 98 3d d1 1a b2 bc
       0.0017720085 -0.16602357 0.07456578 -0.021741303
0003a0 d9 9f 19 be 61 f7 22 bb 24 86 42 3e e0 11 29 3e
       -0.15002383 -0.0024866688 0.18996483 0.16510725
0003b0 95 a8 16 be 1c b2 8b bb 31 e9 55 3d 3e 7c d6 3d
       -0.14712746 -0.0042631757 0.05222434 0.10472916
0003c0 af 25 4a 3e 8f c7 18 3e 1a 9d 89 3d e0 21 a7 bd
       0.19740938 0.14919876 0.06719418 -0.08160758
0003d0 56 83 f1 bb a5 16 f8 bd 33 4f b9 bd b0 ea 91 3d
       -0.007370393 -0.12113694 -0.09048309 0.07124841
0003e0 49 39 3f 3e 03 c6 8c bd 56 44 44 be ac ec 1a 3e
       0.18674196 -0.06873705 -0.19166693 0.15129346
0003f0 ef b5 d9 bd 42 51 e2 3c 6b 7f 9e 3d d0 fd 07 be
       -0.10630404 0.027626637 0.07739147 -0.13280416

bias f4 [24]
000000 71 5d de bd 0d 3d 3a 3e b8 28 e0 bb b4 ef 7e 3c
       -0.10857666 0.18187352 -0.0068407916 0.015560079
000010 2e c8 26 be d6 a6 b3 3c ec 4d 3f 3e 59 11 a0 bd
       -0.162873 0.02193014 0.18682069 -0.07815809
000020 5a 3a 42 3e bf d0 d2 3c 9a 3b 91 ba 68 fb f2 bd
       0.18967572 0.025734304 -0.0011080385 -0.11864358
000030 b6 87 1f 3d 59 32 2d 3e 21 c1 30 be 7d d4 e6 3c
       0.038947783 0.16913737 -0.17261173 0.028177494
000040 4a cc 3d 3e f1 ef 41 bd df 8d 28 3e 38 41 b0 3d
       0.18534961 -0.047347967 0.1646037 0.086061895
000050 66 7f 71 3d c2 ca 1c be f2 86 41 be 53 51 17 be
       0.058959387 -0.15311721 -0.18899134 -0.14777116

weight f4 [24, 96]
000000 a0 92 fb bc 32 ec a9 bd 12 a3 c3 3d e3 74 76 bd
       -0.030709565 -0.08297004 0.095525876 -0.060170066
000010 d4 00 3b bd 80 70 be 3c ac dd 7f 3d 20 57 11 bd
       -0.045655087 0.023247004 0.062467262 -0.03548348
000020 26 2f c6 3d 6a 87 12 bd 59 75 c4 bd 9d fa 37 bd
       0.096769616 -0.035773672 -0.09592695 -0.044916738
000030 b8 94 63 bc 9c 06 81 3c 87 9d 22 bd 64 5e a2 bc
       -0.013890438 0.015750222 -0.03970101 -0.0198204
000040 22 a8 cf 3d 34 b6 ee bc 0a 98 b6 3d 20 d5 0a 3b
       0.10139491 -0.029139616 0.08915718 0.0021184161
000050 d8 d3 69 3d c3 77 a7 bd a8 b4 d8 3c b0 f0 29 bc
       0.057086796 -0.081771396 0.026453331 -0.010372326
000060 83 bc 83 bd 44 be 91 3d f0 aa 9a 3d 96 ce 01 bd
       -0.0643244 0.071163684 0.07552135 -0.031691156
000070 00 5a 49 3a 7a 88 bb bd c8 1e bd 3c a4 57 bf 3d
       0.00076809525 -0.0915689 0.023085967 0.09342888
000080 fc 97 75 3d e8 c0 6f 3c e0 0d 13 3d 1c df 61 3d
       0.059959397 0.014633395 0.035901904 0.055144414
000090 fe c4 a5 3d 20 75 a1 bd 5c 00 2c bd 38 45 f1 3c
       0.08094214 -0.07883668 -0.04199253 0.029451951
0000a0 b0 47 d4 bc b6 ab 9c bd 84 10 b3 3d 44 b2 32 bd
       -0.02591309 -0.07649939 0.087433845 -0.04362704
0000b0 dc 20 b1 3c 38 1a b6 bd b3 62 2b bd d0 dc d5 3c
       0.021622114 -0.088917196 -0.041842174 0.026106268
0000c0 42 6b b1 3d d8 7f 40 3c 2e 92 09 bd 0d 8d 51 bd
       0.08663036 0.01174923 -0.033586673 -0.051159907
0000d0 eb ef 86 bd b8 96 71 bc 14 0b 6b 3d bc 90 63 3d
       -0.065887295 -0.014745407 0.05738361 0.05555795
0000e0 f0 51 bd bb 82 4d 83 3d 04 21 64 3d ba af 0c bd
       -0.00577759 0.06411268 0.05569555 -0.034347273
0000f0 1e 52 b7 3d 40 d4 bc ba 40 e5 84 3a 2c 61 53 3d
       0.089512095 -0.0014406517 0.0010139123 0.051606342
000100 88 b9 a4 bc 84 f2 8d bc e4 5b 3a 3d 38 30 a0 bd
       -0.020108 -0.017327555 0.04549779 -0.07821697
000110 10 35 81 bd dc 43 38 3d 22 cb ab 3d c8 e9 ce bc
       -0.06308949 0.04498659 0.08388354 -0.02525796
000120 83 7a 95 bd c8 82 4a bc fc c4 ff bc 5c a3 a2 bc
       -0.07298758 -0.012360282 -0.03122186 -0.019853286
000130 e0 e5 6d 3d be a6 40 bd 94 da 6d 3d 90 3e ac bd
       0.058080554 -0.047034018 0.05806978 -0.0841037
000140 50 8d bf 3c 8c 72 a9 bd 80 b1 b4 3a 50 c0 ac bc
       0.023382813 -0.08273801 0.0013785809 -0.021087795
000150 bc 1f 8e bc de 1d 8f bd 94 f7 02 3d 74 9e 98 3d
       -0.017349117 -0.069881186 0.03197439 0.074520975
000160 32 82 b3 bd ad 70 cb bd 60 2b 57 bd 26 cd 88 bd
       -0.08765067 -0.099336006 -0.0525316 -0.06679754
000170 56 2d 9d bd 8a a6 b1 3d e8 0b c3 bc 36 b4 b4 bd
       -0.07674663 0.08674343 -0.023809388 -0.08823435
000180 ad 53 93 bd 2c 4e 77 3d 68 d7 32 3c dc 30 81 3c
       -0.07193694 0.060377285 0.010915615 0.015770368
000190 90 91 5f 3c 50 ad ca bd 64 a4 10 3d 00 ab 80 3a
       0.013645545 -0.09896338 0.035313025 0.0009816587
0001a0 58 81 08 3d a2 ce b8 3d 8c d1 81 3d f4 39 8e bc
       0.033326477 0.09023787 0.06338796 -0.017361619
0001b0 56 6d c5 bd 98 4a 1b bc ac 1c 5e bd c0 f2 53 3c
       -0.09639995 -0.009478234 -0.054226562 0.012936294
0001c0 50 f6 e6 bb 14 34 94 bc c0 f7 a7 bc 64 52 d0 3d
       -0.0070484057 -0.018091239 -0.020503879 0.10171965
0001d0 b8 79 1a 3d 8c 52 26 3d b4 89 31 3d 8d cd ba bd
       0.037713736 0.040606067 0.043344215 -0.09121237
0001e0 dc f0 81 bd d8 3b 99 3c e8 5c 15 3d 6a 48 85 3d
       -0.063447684 0.018705294 0.036465555 0.065079525
0001f0 44 88 04 3d e4 9a aa bc 52 fc b2 3d b0 32 84 bd
       0.032356516 -0.02082581 0.087395325 -0.064549804
000200 c8 db 02 bd 08 93 29 bd e4 bf 8e bd 84 42 95 bc
       -0.03194788 -0.041399986 -0.06970194 -0.018220194
000210 34 41 9b bd f4 c1 87 bc 5c 8f bb bc bf 40 99 bd
       -0.07580796 -0.016571976 -0.022895508 -0.074830525
000220 96 b2 80 3d 65 bb 34 bd a8 45 e3 3c 2c 11 86 3d
       0.062840626 -0.044124026 0.027743176 0.06546244
000230 80 47 46 3b a4 29 83 3d 50 85 e6 bc 20 01 51 3c
       0.003025502 0.06404427 -0.02813974 0.012756616
000240 18 7b 4a 3d bc 2d 98 3d f8 af 8d bd 98 e1 c9 3c
       0.049433798 0.07430598 -0.06918329 0.024643704
000250 06 cf c1 3d d8 5c 41 3d cd 33 5a bd 78 0e 2e 3d
       0.09463315 0.047207683 -0.053272057 0.042494267
000260 00 3c 8f 3d 74 83 92 3c 40 73 03 3b 48 1a 11 bd
       0.06993866 0.017884947 0.0020057708 -0.035425454
000270 4c eb 96 bc 99 09 b7 bd 38 0a aa 3d f8 1a e1 3c
       -0.018422745 -0.089373775 0.0830273 0.02747868
000280 e0 a8 e3 3c 14 09 18 bd 10 05 11 3d 40 18 ba ba
       0.027790487 -0.037118033 0.03540522 -0.0014197901
000290 27 82 ba bd 90 0c c6 3d 1c 83 b3 bd cc d0 67 3d
       -0.09106856 0.09670365 -0.087652415 0.05659561
0002a0 9a bc bb 3d df 0d 7e bd a4 a5 8b 3c a4 f4 91 3c
       0.09166832 -0.062024947 0.017046757 0.017816849
0002b0 a0 a0 c0 bc f4 43 9b 3c 52 08 1e bd 2c f3 0a 3d
       -0.023514092 0.018953301 -0.038582154 0.033923313
0002c0 64 f8 96 3d 88 c1 85 3d 70 a9 97 bc e8 5d 82 3d
       0.073715955 0.06531054 -0.018513411 0.063655674
0002d0 a8 4e 50 3d 8f b2 c9 bd b8 0f ea bc 28 41 a3 3d
       0.050856262 -0.098485105 -0.028571948 0.07971412
0002e0 00 6b 2e 3c 8e 19 20 bd 00 a2 45 3d 8c 7b 81 3c
       0.010645628 -0.03908687 0.0482502 0.015805982
0002f0 c8 a7 25 3d 72 16 d0 3d 20 d6 68 3b c8 99 6d 3c
       0.04044321 0.10160531 0.003552802 0.014501996
000300 61 c2 aa bd 68 c6 2a 3c e4 06 b9 3d a4 63 66 3d
       -0.08337856 0.01042328 0.090345174 0.05624737
000310 0a df 9f bd 7c 69 3d 3d 6c 59 98 bc a1 61 4b bd
       -0.07806213 0.046243176 -0.018597327 -0.049653653
000320 62 f8 12 bd e8 2f 8e 3d 9a 5a cd 3d a8 88 1d bd
       -0.035881408 0.06942731 0.100270465 -0.038460404
000330 90 43 82 3d de 39 9d 3d 14 c2 8d bc ed 40 af bd
       0.06360543 0.07677053 -0.017304458 -0.085573055
000340 82 56 ac bd 80 67 dc bb 84 4b 9e 3c 1e 23 34 bd
       -0.084149376 -0.0067262053 0.019323118 -0.043978803
000350 a0 18 4e bb 20 b9 12 bd 14 1f ac 3d 00 b5 26 3b
       -0.0031447783 -0.03582108 0.08404365 0.0025437474
000360 dc f6 cb bc dc cb 68 3d 20 5c 0c 3b 39 30 6e bd
       -0.024897985 0.05683504 0.0021417215 -0.058151457
000370 9c d3 3e 3d 52 8f 88 bd 78 60 a4 3c e8 f4 51 3d
       0.046588525 -0.06667961 0.020065531 0.05125895
000380 c1 b9 3a bd ec 84 4c 3d da e6 90 3d 50 2e d2 bb
       -0.045587305 0.04993145 0.070752814 -0.0064142123
000390 51 d5 58 bd 40 03 8a bb fa 2a 98 bd 50 e9 aa bb
       -0.05293781 -0.004211813 -0.07430072 -0.0052158013
0003a0 ac 27 4f bd 39 30 72 bd c8 fc 4e bd 5a 9b 92 bd
       -0.050574943 -0.05912802 -0.05053404 -0.07158537
0003b0 78 c9 ec bc 6a 9b 91 3d b6 eb 92 3d cc f5 c7 bc
       -0.028904662 0.07109721 0.071738645 -0.024409197
0003c0 00 b5 4e 3d 20 2e 12 3d b3 c9 6d bd 5a 7d 98 3d
       0.050465584 0.03568852 -0.058053683 0.07445784
0003d0 58 dc 40 3d d0 11 91 3c 90 75 57 bd 88 18 25 bd
       0.047085136 0.017708689 -0.05260235 -0.040306598
0003e0 70 83 a8 3d 6b 94 38 bd a2 c4 c9 bd 9c 8b 81 3d
       0.08228195 -0.045063417 -0.09851958 0.063254565
0003f0 b0 f5 20 3c e8 fc 12 bd ec 30 49 3d 20 9d 1a bb
       0.009824201 -0.03588572 0.04911892 -0.002359219

bias f4 [24]
000000 c4 26 03 3d b0 b5 fa 3c 9c 90 7e 3d f0 c3 6d 3d
       0.03201939 0.030604213 0.06214963 0.05804819
000010 7a 2e 0a bd 08 ba 1c 3c e0 ee 18 bd 70 69 39 bd
       -0.03373573 0.009565838 -0.037337184 -0.04526657
000020 62 48 cd bd 44 a0 cf bc d0 a2 18 bd 5e c6 c6 3d
       -0.100235716 -0.025344975 -0.037264645 0.09705804
000030 24 57 b1 3d 44 ad b0 3d b4 21 4c 3d 9e 9d 41 bd
       0.08659199 0.08626798 0.04983683 -0.047269456
000040 6a 28 2e bd 90 79 d9 bc 4f 94 cf bd 56 76 c7 3d
       -0.04251901 -0.026547223 -0.101357095 0.09739368
000050 96 fd a0 3d f0 39 6b 3d be 38 ce 3d dc ed 4c bd
       0.07860868 0.0574283 0.100694165 -0.050031528
