training/train_output/IDQ_softplus_warm/config_15.pt (torch, 80747 bytes, 4 tensors)

weight f4 [24, 24]
0.6151005 7.3260875e-05 7.3279385e-05 7.343983e-05 7.326259e-05 7.3220246e-05 7.30781e-05 7.306792e-05
7.3433504e-05 7.327853e-05 7.3480616e-05 7.344033e-05 7.335712e-05 7.354341e-05 7.366189e-05 7.393345e-05
7.378114e-05 7.350826e-05 7.36376e-05 7.373325e-05 7.383141e-05 7.391103e-05 7.365017e-05 7.360193e-05
6.0941355e-05 0.6150885 6.10752e-05 6.15466e-05 6.119279e-05 6.1789746e-05 6.177086e-05 6.240144e-05
6.2712665e-05 6.193804e-05 6.148892e-05 6.1030867e-05 6.0828108e-05 6.111324e-05 6.125334e-05 6.142233e-05
6.12318e-05 6.103725e-05 6.0995826e-05 6.104843e-05 6.0759434e-05 6.0805294e-05 6.0920163e-05 5.9637103e-05
7.3460906e-05 7.372732e-05 0.6151011 7.36072e-05 7.366693e-05 7.371902e-05 7.381448e-05 7.321092e-05
7.2654286e-05 7.233603e-05 7.198337e-05 7.2016366e-05 7.2164665e-05 7.200544e-05 7.2060604e-05 7.1751754e-05
7.132339e-05 7.186446e-05 7.1228395e-05 7.1045084e-05 7.061888e-05 7.13452e-05 7.18091e-05 7.311124e-05
-7.842125e-05 -7.849017e-05 -7.849691e-05 0.6149488 -7.847854e-05 -7.8467674e-05 -7.8386525e-05 -7.815822e-05
-7.806494e-05 -7.8030076e-05 -7.8028665e-05 -7.8094476e-05 -7.809576e-05 -7.809206e-05 -7.8146644e-05 -7.817432e-05
-7.806272e-05 -7.8067926e-05 -7.797757e-05 -7.8012104e-05 -7.801296e-05 -7.8156896e-05 -7.813183e-05 -7.840813e-05
-6.2301755e-05 -6.233956e-05 -6.2358245e-05 -6.249272e-05 0.6149649 -6.2679086e-05 -6.2746345e-05 -6.283793e-05
-6.276604e-05 -6.2505664e-05 -6.243644e-05 -6.237125e-05 -6.2391744e-05 -6.243763e-05 -6.2508436e-05 -6.249996e-05
-6.2533385e-05 -6.2538806e-05 -6.254084e-05 -6.2490195e-05 -6.245128e-05 -6.261799e-05 -6.262144e-05 -6.2629115e-05
7.391217e-05 7.387114e-05 7.3853196e-05 7.3902214e-05 7.38574e-05 0.6151012 7.371454e-05 7.3619485e-05
7.3535375e-05 7.362403e-05 7.3559175e-05 7.354416e-05 7.358218e-05 7.3507996e-05 7.347231e-05 7.330591e-05
7.33223e-05 7.330081e-05 7.332988e-05 7.3477e-05 7.369926e-05 7.374339e-05 7.3905874e-05 7.463198e-05
-4.1571093e-05 -4.242198e-05 -4.2575637e-05 -4.3533084e-05 -4.3833264e-05 -4.604998e-05 0.61498356 -4.1581887e-05
-4.0760042e-05 -3.812607e-05 -3.4150005e-05 -3.3105367e-05 -3.0900927e-05 -3.053106e-05 -2.8441555e-05 -2.6504656e-05
-2.4732497e-05 -2.3763807e-05 -2.3013874e-05 -2.5506433e-05 -3.0080273e-05 -3.675886e-05 -3.469526e-05 -4.9052713e-05
7.99139e-05 7.99111e-05 7.991004e-05 7.99058e-05 7.990468e-05 7.989627e-05 7.988357e-05 0.61510736
7.9869955e-05 7.987359e-05 7.988011e-05 7.98863e-05 7.989696e-05 7.9905214e-05 7.990096e-05 7.990745e-05
7.9906735e-05 7.990913e-05 7.991435e-05 7.991724e-05 7.9924415e-05 7.993028e-05 7.9928686e-05 7.99101e-05
-7.792567e-05 -7.791824e-05 -7.78769e-05 -7.7926874e-05 -7.793491e-05 -7.79264e-05 -7.7823555e-05 -7.766225e-05
0.61494976 -7.767258e-05 -7.7668745e-05 -7.766364e-05 -7.766745e-05 -7.765816e-05 -7.766379e-05 -7.768269e-05
-7.759488e-05 -7.7542056e-05 -7.745955e-05 -7.7493845e-05 -7.763922e-05 -7.766838e-05 -7.7762044e-05 -7.786349e-05
7.9039615e-05 7.902864e-05 7.904674e-05 7.907484e-05 7.907419e-05 7.906177e-05 7.9002064e-05 7.896837e-05
7.8970865e-05 0.6151064 7.894947e-05 7.897568e-05 7.8979465e-05 7.897265e-05 7.896244e-05 7.8944344e-05
7.888179e-05 7.88473e-05 7.8855184e-05 7.891627e-05 7.9008e-05 7.904713e-05 7.911291e-05 7.9179415e-05
7.831214e-05 7.835211e-05 7.838002e-05 7.839655e-05 7.840235e-05 7.835888e-05 7.834799e-05 7.8301295e-05
7.826248e-05 7.826823e-05 0.6151057 7.833418e-05 7.8372155e-05 7.83761e-05 7.8393365e-05 7.838763e-05
00000000: 3a77 1d3f a2a3 9938 92ad 9938 b503 9a38
00000010: 8ea4 9938 d28d 9938 8241 9938 0a3c 9938
00000020: 5000 9a38 1cad 9938 9b19 9a38 fa03 9a38
00000030: 4ed7 9938 513b 9a38 ed7a 9a38 b80c 9b38
00000040: f3ba 9a38 7228 9a38 e36d 9a38 3da1 9a38
00000050: f0d5 9a38 af00 9b38 a274 9a38 bc5a 9a38
00000060: 489b 7f38 7176 1d3f 8015 8038 9412 8138
00000070: a154 8038 1e95 8138 fa8a 8138 85dd 8238
00000080: 9b84 8338 bbe4 8138 9df3 8038 65fb 7f38
00000090: af21 7f38 ec29 8038 2375 8038 ddcf 8038
000000a0: 9369 8038 2001 8038 c5d5 7f38 2007 8038
000000b0: f2d7 7e38 3009 7f38 8784 7f38 da22 7a38
000000c0: 060f 9a38 0e9e 9a38 4477 1d3f 915d 9a38
000000d0: a27d 9a38 9999 9a38 d9cc 9a38 d088 9938
000000e0: f95d 9838 1cb3 9738 c7f5 9638 7e07 9738
000000f0: 1c57 9738 a001 9738 3e1f 9738 6e79 9638
00000100: 7493 9538 f0b5 9638 7460 9538 0afe 9438
00000110: 3919 9438 2a9f 9538 3898 9638 4c53 9938
00000120: 1776 a4b8 179b a4b8 b59e a4b8 496d 1d3f
00000130: d894 a4b8 038f a4b8 7263 a4b8 e0e8 a3b8
00000140: ccb6 a3b8 14a4 a3b8 52a3 a3b8 a7c6 a3b8
00000150: 58c7 a3b8 5bc5 a3b8 a9e2 a3b8 85f1 a3b8
00000160: 9bb5 a3b8 66b8 a3b8 e487 a3b8 6e9a a3b8
00000170: e49a a3b8 2ae8 a3b8 b5da a3b8 0b6f a4b8
00000180: 00a8 82b8 4cbc 82b8 54c6 82b8 860e 83b8
00000190: 576e 1d3f 9472 83b8 b096 83b8 dbc7 83b8
000001a0: 43a1 83b8 7915 83b8 4ff0 82b8 4fcd 82b8
000001b0: 50d8 82b8 f3f0 82b8 f616 83b8 6912 83b8
000001c0: 5b24 83b8 4427 83b8 5c28 83b8 2b0d 83b8
000001d0: 47f8 82b8 c751 83b8 a153 83b8 c057 83b8
000001e0: 4b01 9b38 44eb 9a38 a2e1 9a38 f3fb 9a38
000001f0: e4e3 9a38 4677 1d3f 3197 9a38 2964 9a38
00000200: 0137 9a38 9a66 9a38 c843 9a38 b83b 9a38
00000210: 2250 9a38 4e28 9a38 2515 9a38 d0bb 9938
00000220: 9cc4 9938 13b9 9938 aec8 9938 aa17 9a38
00000230: fd8e 9a38 aea6 9a38 eafd 9a38 bd83 9c38
00000240: 9f5c 2eb8 41ee 31b8 3e93 32b8 4b97 36b8
00000250: 9cd9 37b8 ca25 41b8 906f 1d3f 3668 2eb8
00000260: c3f5 2ab8 8ee9 1fb8 4a3c 0fb8 9eda 0ab8
00000270: 9e9b 01b8 7a0e 00b8 c695 eeb7 5156 deb7
00000280: a278 cfb7 6358 c7b7 eb0d c1b7 a6f6 d5b7
00000290: e554 fcb7 862d 1ab8 c085 11b8 f3bd 4db8
000002a0: 7397 a738 f295 a738 6095 a738 1a93 a738
000002b0: 8092 a738 fc8d a738 2a87 a738 ad77 1d3f
000002c0: db7f a738 cf81 a738 4f85 a738 a188 a738
000002d0: 5b8e a738 c992 a738 8090 a738 fc93 a738
000002e0: 9a93 a738 e394 a738 b197 a738 3e99 a738
000002f0: 189d a738 3ea0 a738 639f a738 6995 a738
00000300: 076c a3b8 0968 a3b8 d851 a3b8 ac6c a3b8
00000310: fc70 a3b8 6b6c a3b8 3435 a3b8 9ade a2b8
00000320: 596d 1d3f 26e4 a2b8 17e2 a2b8 59df a2b8
00000330: 65e1 a2b8 68dc a2b8 6edf a2b8 94e9 a2b8
00000340: 6fba a2b8 139e a2b8 c771 a2b8 3184 a2b8
00000350: 3dd2 a2b8 e5e1 a2b8 2e14 a3b8 a54a a3b8
00000360: 12c2 a538 2ebc a538 e5c5 a538 fbd4 a538
00000370: a2d4 a538 f7cd a538 e9ad a538 d29b a538
00000380: 299d a538 9d77 1d3f ad91 a538 bf9f a538
00000390: c7a1 a538 1e9e a538 a398 a538 ec8e a538
000003a0: 576d a538 d25a a538 0e5f a538 da7f a538
000003b0: 19b1 a538 1bc6 a538 6ce9 a538 200d a638
000003c0: 833b a438 f850 a438 f45f a438 d468 a438
000003d0: f16b a438 9a54 a438 c24e a438 b035 a438
000003e0: d920 a438 f023 a438 9177 1d3f 5847 a438
000003f0: bb5b a438 d95d a438 1e67 a438 0a64 a438

bias f4 [24]
-0.84813285 -0.8481431 -0.8481489 -0.84828794 -0.84827274 -0.84813386 -0.8482866 -0.8481293
-0.848287 -0.84813017 -0.8481312 -0.84814453 -0.84824866 -0.84827834 -0.84813803 -0.8481464
-0.84820545 -0.84814197 -0.8481292 -0.8481943 -0.84812915 -0.8482702 -0.8482836 -0.8482868
00000000: 3c1f 59bf e81f 59bf 4920 59bf 6629 59bf
00000010: 6728 59bf 4d1f 59bf 5029 59bf 001f 59bf
00000020: 5629 59bf 0f1f 59bf 201f 59bf 0020 59bf
00000030: d326 59bf c528 59bf 931f 59bf 1f20 59bf
00000040: fe23 59bf d51f 59bf ff1e 59bf 4323 59bf
00000050: fe1e 59bf 3c28 59bf 1d29 59bf 5329 59bf

weight f4 [24, 96]
-0.04680297 -0.020132199 0.039557353 0.06103438 -0.08157964 -0.054384302 -0.030888975 0.055279553
-0.04306705 0.081084445 0.0036474466 0.01306542 0.026710093 0.04659316 0.0227122 0.08853197
-0.059945066 -0.101009384 -0.048288908 -0.08722879 0.030630201 0.045662373 0.08088884 -0.0867211
0.07831672 -0.013049491 -0.06808464 -0.030480392 0.0457239 -0.004005231 0.09407663 -0.012432322
0.005852945 0.083311155 0.016190633 0.03904827 -0.04141633 0.08647172 0.078763455 -0.07859717
0.016253963 -0.043387864 -0.037478656 0.049352422 0.008215815 -0.08970977 0.041172072 -0.044155963
0.045399174 -0.040763117 -0.09270861 0.057075664 -0.019387908 -0.082596876 -0.028969504 -0.073948786
0.036199227 0.07531813 -0.049243644 -0.09852601 0.09812328 0.044943437 -0.08719134 0.055101976
0.0021559 0.07266039 -0.050723206 -0.051452287 0.045263425 0.07565792 0.07726899 -0.07159698
0.089065626 0.10149926 0.026321039 0.049584627 0.054255545 -0.061041243 0.010085881 0.050328165
0.009997189 -0.055512514 -0.02653882 0.032063365 0.0644788 -0.08539754 0.09188898 -0.053542305
-0.026040249 0.0961923 -0.08581355 -0.05462592 0.07713294 0.060936913 0.054828748 -0.011879541
-0.041923095 -0.05877111 0.07056841 0.015577048 0.081924945 0.054146186 0.018547073 -0.0018742383
-0.090412535 -0.0074161887 -0.0488451 0.09001489 -0.052807286 0.09235686 0.094166994 -0.04509768
-0.014210351 -0.043213062 -0.05455183 0.07046157 -0.09526873 0.08693865 0.09455922 0.0075359046
-3.721565e-05 -0.08796756 -0.061127104 -0.07004893 0.054873988 0.036257908 0.055976257 -0.009760119
-0.078309484 -0.045448948 0.081418395 -0.056369126 0.06854738 0.06907469 -0.10075061 0.054529652
0.008448236 0.095496014 -0.05856465 0.07860246 0.07296726 0.06214437 0.05087596 -0.0016731471
-0.06582118 -0.061684083 0.08627105 0.081179336 0.0002926737 0.08802329 -0.012354009 0.086534664
0.013297148 0.0003202036 0.010137737 0.046294898 0.013681918 0.033526927 0.027002811 -0.093461014
-0.015958928 -0.043516185 -0.061047725 0.08122131 -0.018345743 0.0018929392 0.079281196 -0.021908782
-0.005339779 -0.026926145 0.013133079 -0.09041041 0.06700009 0.028820246 0.081532285 0.02182109
0.057131127 -0.06661837 0.08160874 -0.016412526 0.028618276 0.06879993 0.087399945 -0.03883648
0.020540498 0.031917736 0.020498745 -0.037542738 -0.09193593 0.035161003 0.035061926 0.01660312
0.08642484 0.060162976 -0.058805432 0.09477405 -0.04455328 -0.0537446 0.031089053 0.034878105
0.0723619 0.0707812 0.08643229 0.027739838 -0.096499585 -0.095980056 0.015403867 -0.022580378
-0.07601821 0.085675076 0.084159374 -0.061347004 -0.10170076 -0.022700548 -0.03231875 -0.014409192
0.023908526 -0.047316045 0.06909223 -0.058481626 0.057326317 0.06925413 -0.024538003 -0.02084288
0.09589411 0.019788995 -0.060147837 0.08739412 -0.06709062 -0.08006271 0.06501727 0.00032283366
-0.07289321 -0.054259364 0.05952084 0.045843944 0.062323973 -0.08054677 -0.04181211 -0.030114546
0.09716068 0.08295114 0.07266879 0.013334125 0.0556207 0.028413147 0.08136158 -0.07652276
0.028863594 -0.05359338 -0.016799398 0.06243193 0.027390406 0.08298953 0.06472753 0.02535224
00000000: 79b4 3fbd 48ec a4bc e406 223d 30ff 793d
00000010: 3a13 a7bd 13c2 5ebd e00a fdbc d06c 623d
00000020: 1367 30bd 9a0f a63d 000a 6f3b 5810 563c
00000030: 20cf da3c 78d8 3e3d f00e ba3c 4050 b53d
00000040: f588 75bd 02de cebd 97ca 45bd 02a5 b2bd
00000050: 30ec fa3c 7808 3b3d 0ca9 a53d d59a b1bd
00000060: 8464 a03d 88cd 55bc f66f 8bbd 04b2 f9bc
00000070: fc48 3b3d 503e 83bb 40ab c03d f0b0 4bbc
00000080: 10ca bf3b 0a9f aa3d 38a2 843c 14f1 1f3d
00000090: 2ba4 29bd 1618 b13d bc4e a13d 8ef7 a0bd
000000a0: 0827 853c 79b7 31bd 3883 19bd c425 4a3d
000000b0: a09b 063c c2b9 b7bd 0ca4 283d e2dc 34bd
000000c0: 7cf4 393d 3af7 26bd 03de bdbd 2cc8 693d
000000d0: 64d3 9ebc 8d28 a9bd 7451 edbc 7672 97bd
000000e0: a445 143d 6440 9a3d b4b3 49bd 01c8 c9bd
000000f0: dcf4 c83d 9c16 383d 6091 b2bd 9cb2 613d
00000100: 004a 0d3b f8ce 943d 23c3 4fbd a2bf 52bd
00000110: 2466 393d 8af2 9a3d 343f 9e3d 70a1 92bd
00000120: 0a68 b63d d8de cf3d 389f d73c 4019 4b3d
00000130: 103b 5e3d 6206 7abd 403f 253c e824 4e3d
00000140: 40cb 233c 1761 63bd f067 d9bc e054 033d
00000150: 760d 843d e8e4 aebd 4a30 bc3d 2d4f 5bbd
00000160: 5c52 d5bc 7800 c53d 04bf afbd 6ebf 5fbd
00000170: e0f7 9d3d fc98 793d 1c94 603d 68a2 42bc
00000180: 8db7 2bbd fab9 70bd 2c86 903d e036 7f3c
00000190: 44c8 a73d 64c8 5d3d 08f0 973c 00a9 f5ba
000001a0: 352a b9bd 8003 f3bb cd11 48bd ba59 b83d
000001b0: 744c 58bd 9825 bd3d a0da c03d 58b8 38bd
000001c0: 88d2 68bc 2e00 31bd bd71 5fbd 284e 903d
000001d0: 401c c3bd e40c b23d 44a8 c13d c0ef f63b
000001e0: 0018 1cb8 5628 b4bd 6a60 7abd d075 8fbd
000001f0: 8cc3 603d 2c83 143d 5c47 653d e8e8 1fbc
00000200: b960 a0bd ad28 3abd b0be a63d 50e3 66bd
00000210: 9262 8c3d 0877 8d3d 5656 cebd 7c5a 5f3d
00000220: 786a 0a3c 6a93 c33d 7de1 6fbd 54fa a03d
00000230: dc6f 953d 188b 7e3d 5063 503d 804d dbba
00000240: 41cd 86bd 73a8 7cbd e0ae b03d 5a41 a63d
00000250: 0072 9939 8e45 b43d 7868 4abc 1639 b13d
00000260: 48dc 593c 00e1 a739 c018 263c b89f 3d3d
00000270: 202a 603c 8853 093d 0035 dd3c 7d68 bfbd
00000280: 4cbc 82bc 073e 32bd 2e0d 7abd 5c57 a63d
00000290: d049 96bc 801c f83a 2e5e a23d 0c7a b3bc
000002a0: 50f9 aebb 3894 dcbc 202c 573c 1829 b9bd
000002b0: 5837 893d 7018 ec3c 66fa a63d 24c2 b23c
000002c0: 5402 6a3d 366f 88bd 7c22 a73d 9073 86bc
000002d0: e070 ea3c fae6 8c3d befe b23d 0013 1fbd
000002e0: 8c44 a83c 2cbc 023d fcec a73c 6ac6 19bd
000002f0: e848 bcbd fc04 103d 189d 0f3d 4403 883c
00000300: 82ff b03d 746d 763d f7dd 70bd e618 c23d
00000310: 807d 36bd 4c23 5cbd 78ae fe3c 58dc 0e3d
00000320: 7a32 943d bcf5 903d 6a03 b13d a83e e33c
00000330: 93a1 c5bd 3191 c4bd 8060 7c3c 7cfa b8bc
00000340: 6faf 9bbd 6a76 af3d c05b ac3d ff46 7bbd
00000350: 7d48 d0bd 80f6 b9bc aa60 04bd 8814 6cbc
00000360: d0db c33c 78ce 41bd 3a80 8d3d 6e8a 6fbd
00000370: 00cf 6a3d 1cd5 8d3d ec03 c9bc b0be aabc
00000380: 2264 c43d 881c a23c 945d 76bd b0fb b23d
00000390: cf66 89bd ebf7 a3bd c627 853d 0042 a939
000003a0: 0949 95bd 113f 5ebd 20cc 733d dcc6 3b3d
000003b0: 6c47 7f3d b4f5 a4bd 2d43 2bbd c8b2 f6bc
000003c0: 2efc c63d 4ae2 a93d 60d3 943d 6077 5a3c
000003d0: 88d2 633d b0c2 e83c e6a0 a63d f7b7 9cbd
000003e0: 5873 ec3c bb84 5bbd e49e 89bc a0b8 7f3d
000003f0: d861 e03c 6af6 a93d de8f 843d 80af cf3c

bias f4 [24]
-0.09061214 -0.035196207 -0.09498134 0.018680446 0.089402825 0.00809785 -0.04671373 -0.09408833
0.031298026 -0.07973989 0.06282747 -0.064343296 0.012667917 0.025341287 0.055420905 0.051046968
0.02188076 0.027589798 -0.09055915 0.036866486 -0.09760467 0.06863564 0.041610613 -0.086147785
00000000: dc92 b9bd e629 10bd 9485 c2bd bc07 993c
00000010: d418 b73d d8ac 043c e556 3fbd 62b1 c0bd
00000020: 5c32 003d ab4e a3bd b0ab 803d 6bc6 83bd
00000030: 188d 4f3c 8898 cf3c 0801 633d a016 513d
00000040: 483f b33c 0004 e23c 1377 b9bd 5001 173d
00000050: f5e4 c7bd d890 8c3d e46f 2a3d 406e b0bd
