training/train_output/ID_Q_softplus_warm/config_18.pt (torch, 80747 bytes, 4 tensors)

weight f4 [24, 24]
000000 31 92 1d 3f 39 52 ff 39 56 6f ff 39 fe 77 ff 39
       0.61551195 0.0004869865 0.00048720342 0.0004872679
000010 5f 66 ff 39 8c 12 ff 39 22 68 fe 39 55 92 fd 39
       0.00048713663 0.0004865121 0.0004852424 0.00048364946
000020 3f 8a fd 39 3b c2 fd 39 12 09 fe 39 b0 27 fe 39
       0.00048358922 0.00048400633 0.00048453413 0.00048476225
000030 db 50 fe 39 3a 74 fe 39 ca 7d fe 39 0c 8c fe 39
       0.00048506897 0.0004853325 0.00048540375 0.00048550998
000040 61 66 fe 39 00 21 fe 39 4a 4a fe 39 3d 75 fe 39
       0.00048522934 0.00048471242 0.00048502005 0.00048534005
000050 3a d7 fe 39 98 10 ff 39 81 df fe 39 1e a3 ff 39
       0.00048607012 0.00048649753 0.0004861318 0.00048758922
000060 d7 df fe 39 28 92 1d 3f 2d be fe 39 93 a9 fe 39
       0.0004861343 0.6155114 0.00048588347 0.00048572998
000070 b3 94 fe 39 45 8f fe 39 9d 78 fe 39 7c 82 fe 39
       0.00048557445 0.000485534 0.0004853652 0.00048543874
000080 48 a1 fe 39 86 ba fe 39 36 b1 fe 39 32 a0 fe 39
       0.0004856682 0.00048585626 0.00048578688 0.0004856601
000090 be 8e fe 39 55 8a fe 39 ea 76 fe 39 e2 86 fe 39
       0.00048553006 0.0004854972 0.00048535253 0.0004854715
0000a0 8a 80 fe 39 dc 8a fe 39 7a 98 fe 39 1a 98 fe 39
       0.00048542424 0.00048550114 0.0004856026 0.0004855998
0000b0 24 92 fe 39 73 7a fe 39 f8 6d fe 39 ab 71 fe 39
       0.00048555539 0.00048537887 0.00048528588 0.00048531345
0000c0 3c 03 be 39 71 63 c2 39 9c 8a 1d 3f e1 a1 c6 39
       0.00036242034 0.00037076653 0.61539626 0.00037886112
0000d0 e2 94 c6 39 a7 33 ca 39 05 55 cb 39 3d af c9 39
       0.0003787643 0.00038566926 0.00038782522 0.0003846827
0000e0 de 74 c5 39 d5 2f c1 39 65 fc bd 39 54 6e bd 39
       0.0003766184 0.00036847466 0.00036236938 0.0003613109
0000f0 ca 3a bd 39 99 4a bc 39 1b 92 c0 39 af 21 c0 39
       0.0003609269 0.00035913734 0.0003672995 0.0003664619
000100 f9 54 be 39 a9 85 bb 39 e2 5e b4 39 af 5c b0 39
       0.00036302934 0.00035767004 0.0003440297 0.0003363839
000110 ba 6a ab 39 26 d7 b1 39 83 b2 b6 39 89 b7 c2 39
       0.0003269518 0.0003392037 0.00034846747 0.00037139308
000120 a5 b8 eb b9 83 e4 eb b9 4a c1 eb b9 cb 54 1d 3f
       -0.00044960264 -0.00044992947 -0.00044966704 0.6145751
000130 08 a3 eb b9 ab ec ea b9 43 23 e9 b9 9b 38 e8 b9
       -0.0004494416 -0.0004480829 -0.00044467495 -0.00044292663
000140 26 5a e8 b9 ba a4 e8 b9 e4 9f e8 b9 bb 9c e8 b9
       -0.00044317654 -0.0004437322 -0.00044369616 -0.00044367262
000150 9e d0 e8 b9 f1 c7 e8 b9 e6 bc e8 b9 e6 64 e8 b9
       -0.0004440592 -0.00044399456 -0.0004439123 -0.00044325663
000160 81 d9 e7 b9 6e 55 e7 b9 f3 bc e7 b9 b2 f2 e8 b9
       -0.00044221806 -0.00044123403 -0.00044200532 -0.0004443131
000170 50 4b ea b9 5b c4 ea b9 a0 27 eb b9 68 53 eb b9
       -0.0004468807 -0.00044778254 -0.00044852216 -0.00044884835
000180 48 45 ef b9 96 2f ef b9 be 3f ef b9 f0 fd ee b9
       -0.0004563725 -0.00045621087 -0.00045633124 -0.00045584096
000190 6a 54 1d 3f 6a 8e ee b9 6b 32 ee b9 47 a6 ed b9
       0.6145693 -0.00045501004 -0.00045432462 -0.0004532805
0001a0 3b 7f ed b9 25 1b ee b9 14 67 ee b9 d7 b2 ee b9
       -0.00045298957 -0.00045415122 -0.00045471697 -0.00045528144
0001b0 12 e5 ee b9 82 c6 ee b9 87 ae ee b9 92 99 ee b9
       -0.00045565568 -0.00045542797 -0.0004552493 -0.00045509316
0001c0 9c b7 ee b9 cc bc ee b9 b5 e0 ee b9 ea ef ee b9
       -0.00045531697 -0.00045535562 -0.00045562317 -0.00045573647
0001d0 04 33 ef b9 7c 17 ef b9 95 19 ef b9 34 50 ef b9
       -0.00045623642 -0.0004560313 -0.00045604692 -0.00045645388
0001e0 97 26 c6 39 1d 3d c5 39 a7 28 c5 39 6e 50 c5 39
       0.00037794255 0.000376203 0.00037605056 0.00037634693
0001f0 8c 1d c6 39 23 8b 1d 3f 5f 55 c8 39 87 b8 c9 39
       0.00037787517 0.6154043 0.0003821058 0.0003847519
000200 60 81 c9 39 bf 3d c9 39 87 6a c9 39 d4 b5 c9 39
       0.000384341 0.00038383712 0.00038417077 0.0003847318
000210 99 9a c9 39 d7 fa c8 39 7b 14 c9 39 8d 42 c8 39
       0.00038452892 0.00038333863 0.00038352967 0.00038196557
000220 af 3d c9 39 b9 6f c9 39 93 a4 c9 39 8a 93 c9 39
       0.00038383665 0.00038420947 0.00038460325 0.00038447633
000230 5a e1 c9 39 1d 7e ca 39 8e 29 ca 39 62 6d ce 39
       0.00038505608 0.00038622404 0.00038559403 0.00039372878
000240 8c 89 6a b9 fd 3e 59 b9 b7 0d 4c b9 ee cd 40 b9
       -0.00022367219 -0.00020718198 -0.00019460065 -0.00018387262
000250 23 26 43 b9 fc b5 53 b9 ea 64 1d 3f 8e c9 49 b9
       -0.00018610856 -0.00020190323 0.6148211 -0.00019243939
000260 a0 1b 42 b9 9c 30 39 b9 fe 02 19 b9 6c 01 1f b9
       -0.00018511573 -0.00017661083 -0.00014592332 -0.00015163951
000270 f7 1a 09 b9 4a 84 f8 b8 13 64 d5 b8 63 e8 d3 b8
       -0.00013075383 -0.00011850202 -0.00010175272 -0.000101045494
000280 66 76 d3 b8 86 cc e1 b8 88 5b 03 b9 ea 47 ed b8
       -0.000100833175 -0.000107669315 -0.00012527232 -0.00011314436
000290 3d 99 f1 b8 0b 87 13 b9 9a 9c f3 b8 ea f8 40 b9
       -0.000115203184 -0.0001406932 -0.00011616312 -0.00018403275
0002a0 46 58 f2 b9 56 55 f2 b9 6f 20 f2 b9 81 f8 f1 b9
       -0.00046223606 -0.00046221417 -0.00046182002 -0.00046152252
0002b0 04 34 f2 b9 c4 57 f2 b9 9f 0a f3 b9 ce 53 1d 3f
       -0.00046196592 -0.00046223227 -0.00046356485 0.61456
0002c0 19 25 f4 b9 a0 26 f4 b9 b2 4d f4 b9 b1 ff f3 b9
       -0.00046566947 -0.00046568085 -0.00046597194 -0.00046539077
0002d0 c4 c7 f3 b9 a2 8b f3 b9 12 8a f3 b9 e6 92 f3 b9
       -0.0004649741 -0.00046452606 -0.00046451442 -0.0004645802
0002e0 98 20 f4 b9 5d 6a f4 b9 2b 6e f4 b9 e9 8f f4 b9
       -0.0004656359 -0.00046618553 -0.00046621388 -0.00046646528
0002f0 f5 37 f4 b9 70 71 f3 b9 70 45 f3 b9 4e 58 f1 b9
       -0.00046580998 -0.0004643309 -0.00046400307 -0.00046032894
000300 77 8a 12 b9 e9 d5 08 b9 a5 8b 08 b9 87 ea f1 b8
       -0.00013975227 -0.00013049658 -0.00013021992 -0.000115354596
000310 ec 6c fb b8 66 f4 de b8 c5 40 fe b8 c4 44 13 b9
       -0.00011988901 -0.00010631308 -0.00012123728 -0.0001404463
000320 a2 67 1d 3f 10 eb 2f b9 93 4a 2e b9 e5 09 28 b9
       0.61486256 -0.00016776868 -0.00016621714 -0.00016025415
000330 86 3a 24 b9 8d ae 29 b9 bf 71 21 b9 66 97 2a b9
       -0.0001566206 -0.00016182121 -0.0001539653 -0.00016268864
000340 f3 b2 2e b9 a1 67 32 b9 a5 4f 35 b9 19 31 2c b9
       -0.00016660597 -0.00017014008 -0.00017291175 -0.00016421489
000350 50 ef 27 b9 c3 6a 0c b9 28 b1 07 b9 1c 56 2b b9
       -0.00016015512 -0.00013391212 -0.00012940599 -0.00016339909
000360 1a f9 ff 39 3f cf ff 39 d9 cc ff 39 5d ad ff 39
       0.00048822985 0.000487918 0.00048790014 0.00048766556
000370 f1 a7 ff 39 a8 5d ff 39 3e c5 fe 39 6b 78 fe 39
       0.00048762516 0.0004870717 0.00048593612 0.00048536374
000380 40 7a fe 39 28 92 1d 3f ae e8 fe 39 29 28 ff 39
       0.0004853774 0.6155114 0.00048620015 0.00048667312
000390 77 43 ff 39 7f 31 ff 39 46 e8 fe 39 76 8c fe 39
       0.00048687655 0.00048674268 0.00048619712 0.00048551307
0003a0 6c 7a fe 39 78 68 fe 39 ae cd fe 39 cd 2a ff 39
       0.00048537867 0.0004852449 0.000485999 0.0004866928
0003b0 e7 ab ff 39 bc e3 ff 39 ae 02 00 3a 6c 5a ff 39
       0.00048765467 0.00048807065 0.0004883212 0.0004870476
0003c0 5a 79 a2 b8 ae 89 a2 b8 30 00 98 b8 3e c4 81 b8
       -7.7473655e-05 -7.750407e-05 -7.24796e-05 -6.187752e-05
0003d0 86 61 33 b8 0b bb 23 b8 03 dc c9 b8 ce f5 0d b9
       -4.276775e-05 -3.9036426e-05 -9.625407e-05 -0.00013538377
0003e0 da c0 16 b9 f7 ba 28 b9 a0 66 1d 3f 39 14 3d b9
       -0.00014376958 -0.00016091378 0.6148472 -0.00018031978
0003f0 5e 3f 3d b9 d2 98 3f b9 a0 21 42 b9 4a a8 55 b9
       -0.0001804805 -0.0001827211 -0.00018513808 -0.00020375956

bias f4 [24]
000000 f5 03 59 bf 18 04 59 bf 09 0f 59 bf e0 42 59 bf
       -0.8477166 -0.8477187 -0.84788567 -0.8486767
000010 9a 41 59 bf 27 0a 59 bf df 3a 59 bf 12 42 59 bf
       -0.84865725 -0.84781116 -0.84855455 -0.8486644
000020 00 24 59 bf be 03 59 bf 16 14 59 bf a2 1e 59 bf
       -0.84820557 -0.84771335 -0.84796274 -0.84812367
000030 4a 3c 59 bf 53 44 59 bf 5a 03 59 bf da 05 59 bf
       -0.8485762 -0.8486988 -0.8477074 -0.84774554
000040 c3 06 59 bf 2f 04 59 bf 46 07 59 bf fc 16 59 bf
       -0.8477594 -0.8477201 -0.84776723 -0.84800696
000050 ea 13 59 bf 80 1f 59 bf 16 44 59 bf fc 42 59 bf
       -0.8479601 -0.8481369 -0.84869516 -0.84867835

weight f4 [24, 96]
000000 f4 7f 59 bd 7a 28 9e bd 74 50 be bc 78 90 ae 3c
       -0.05310054 -0.07722564 -0.023231722 0.021309122
000010 22 0e 18 bd e0 23 91 3d 00 6b e2 bb 2e 0c 8b bd
       -0.037122853 0.07086921 -0.006909728 -0.067894325
000020 f7 4e 6f bd b1 3b 87 bd 43 52 6d bd 7c dc 67 bd
       -0.058424916 -0.06603182 -0.05793978 -0.056606755
000030 32 0a a2 3d 7e 80 a9 3d af 60 74 bd 65 1a c4 bd
       0.07912101 0.08276461 -0.059662517 -0.09575347
000040 ad 5b 3c bd b2 b0 9c 3d c0 bc 55 3c 20 bd 38 3b
       -0.045985866 0.076508895 0.01304549 0.00281889
000050 c7 34 bb bd 34 2a d0 bc a8 61 8b bd 64 25 83 3c
       -0.09140926 -0.025410749 -0.06805736 0.01600904
000060 67 4b b7 bd b0 9e 7c 3d 6a af 8b 3d ba 40 ae bd
       -0.08949929 0.061674774 0.06820567 -0.08508439
000070 d4 00 7c 3d b9 a6 d0 bd 2e 0d 20 bd cc ec 37 bd
       0.061524227 -0.1018805 -0.03907507 -0.04490356
000080 94 dd d8 bc 7e 9d 86 3d 8e a6 b7 3d 0c e4 64 bd
       -0.026472844 0.06573008 0.08967315 -0.055881545
000090 72 46 a3 bd 27 a0 9a bd 00 d9 9f bd 84 2f 46 3d
       -0.07972421 -0.07550078 -0.07805061 0.04838516
0000a0 04 2f b0 3d fc 97 48 3d b2 39 96 3d c0 27 34 3b
       0.086027175 0.04897307 0.07335223 0.0027489513
0000b0 66 ae 69 bd b2 67 b7 3d dc f3 01 3d c0 5d 42 3d
       -0.057051085 0.08955325 0.031726703 0.04745269
0000c0 d0 22 fa 3c 68 fc 30 3c 3a 07 11 bd c7 71 81 bd
       0.030534178 0.010802366 -0.035407282 -0.063205294
0000d0 ca 46 61 bd 30 39 4f 3d b4 e3 ca 3d e4 0f 39 bd
       -0.05499915 0.050591648 0.09906712 -0.04518117
0000e0 fe c1 ca bd 80 41 fb 3c dc 54 2f bd 9c 5e a7 bd
       -0.09900282 0.030670881 -0.042805538 -0.08172342
0000f0 f0 7a 85 bd 0a 21 25 bd 64 dc 1b 3d ca 13 b4 bd
       -0.06517589 -0.04031471 0.038051978 -0.08792837
000100 30 46 ab bb fc 1f 1c 3d 28 1a 5e 3c 01 4d 2a bd
       -0.005226873 0.03811644 0.013556041 -0.041577343
000110 f0 61 3f bc 2c cc 81 3c 20 12 95 bd d9 96 64 bd
       -0.011681065 0.015844427 -0.07278848 -0.055807922
000120 18 e1 81 bd 0c a1 66 bd ca 04 cc bd f0 01 e0 3c
       -0.06341761 -0.05630593 -0.09961851 0.027344674
000130 58 b0 c3 3c f0 37 ad 3b b0 27 dc bb 68 5f f9 3c
       0.023887798 0.0052862093 -0.0067185983 0.030441001
000140 60 b8 89 bc 00 47 0a 3b d7 92 93 bd 28 c9 08 bd
       -0.01681155 0.0021099448 -0.07205742 -0.033394963
000150 6a dc 9f 3d b8 8c 3c bc 10 ea ba 3d 24 af a2 3d
       0.078057125 -0.011508159 0.09126675 0.07943562
000160 10 2a e8 3c a4 d9 c2 bd c0 37 41 3b 20 3d 04 3d
       0.02834037 -0.09514168 0.0029482692 0.032284856
000170 ed f1 64 bd 34 9a 4b 3d 1c 91 cb 3d a3 8a 4e bd
       -0.05589478 0.049707606 0.09939787 -0.050425183
000180 4a 29 8d 3d f8 16 c3 bd 78 86 16 bc a0 66 87 bc
       0.06892641 -0.09525865 -0.009187333 -0.016528428
000190 fa 8c a3 bd 38 3d ef 3c f8 5e b8 3d 0c cf 7e 3d
       -0.079858735 0.029203996 0.09002489 0.062209174
0001a0 f0 7b 80 bb 38 58 a6 3d 20 f6 04 bb 0e c3 8c 3d
       -0.0039210245 0.08122295 -0.0020288303 0.06873141
0001b0 99 c9 b7 bd b0 b6 9e 3c 88 43 aa 3d e4 91 3d 3d
       -0.089739986 0.019374222 0.08313662 0.04628171
0001c0 34 66 9e 3d 18 66 48 3d 50 8e d2 3c 32 02 aa 3d
       0.077343374 0.04892549 0.025702626 0.083012
0001d0 08 46 d4 3c 10 3a 35 3c d8 ed 29 3d ac 8e 25 3d
       0.0259123 0.011061206 0.04148659 0.040419266
0001e0 08 68 54 bc 28 34 bf 3d 30 cc 98 3d 90 86 05 3d
       -0.012964256 0.0933612 0.07460821 0.032599032
0001f0 54 e9 98 bd 54 07 92 3d 28 3e 58 3d 1e 44 b0 bd
       -0.07466379 0.07130304 0.05279365 -0.08606742
000200 a8 ca f1 3c 69 d1 5a bd ac d0 fe bc d2 db 15 bd
       0.02951558 -0.053422365 -0.031105362 -0.03658659
000210 82 67 8b 3d 88 6d 9a 3d b0 81 30 3d d8 cf 74 3d
       0.06806852 0.07540423 0.04309243 0.059768528
000220 00 3c 25 bb d0 0d 1a 3c ec 1c 3f 3d b0 7d a5 bc
       -0.0025212765 0.009402707 0.04665844 -0.020201534
000230 88 e8 ab 3c 10 27 49 3c a4 fa ae 3d 9f 33 7e bd
       0.020984903 0.01227738 0.085439 -0.06206095
000240 10 fb 90 3d 0a 5e aa 3d dc 93 c5 bd f8 de b4 bc
       0.07079136 0.08318718 -0.096473426 -0.022078976
000250 7e 3d bb 3d 34 34 39 3d e0 38 0b 3d ea 16 a7 3d
       0.09142588 0.0452158 0.033989787 0.081586674
000260 d6 20 a9 bd f0 9c f9 bc f0 29 9e 3b c8 01 c8 3c
       -0.08258216 -0.030470341 0.0048267767 0.024414912
000270 94 a8 10 3d 42 83 c4 bd e0 5e 27 3c b4 a3 b5 bd
       0.03531702 -0.09595348 0.010215491 -0.088691145
000280 40 b0 95 3d c0 66 a0 3b 20 43 4a 3d fa 02 af bd
       0.07309008 0.0048950613 0.04938042 -0.085454896
000290 78 62 05 3d bc f4 81 bc 60 51 7a 3d 0b c1 bb bd
       0.03256461 -0.015863769 0.06111276 -0.091676794
0002a0 60 be 48 bd 28 a0 d4 3c 24 a1 86 bc ca e7 81 3d
       -0.04900968 0.025955275 -0.01643426 0.063430384
0002b0 c0 fa 6e bd fd 88 91 bd c8 4e bb bd 6c 34 86 bd
       -0.058344603 -0.071062066 -0.09145886 -0.065529674
0002c0 2c 61 02 3d a0 8a 32 bd 97 b1 91 bd 93 f0 9d bd
       0.03183095 -0.043589234 -0.07113951 -0.077119015
0002d0 57 e1 97 bd 50 af fc 3c 30 a7 d5 bc c0 f0 d5 3c
       -0.07416027 0.030845314 -0.026080698 0.026115775
0002e0 28 57 b0 3d 70 2a db 3c 44 2f 8e bc 58 50 28 3d
       0.08610374 0.026753634 -0.017356522 0.041092247
0002f0 70 5a d4 bb b8 24 62 3c e8 61 23 bd fd 73 b4 bd
       -0.0064805076 0.0138027 -0.039888293 -0.088111855
000300 1c 64 b3 bc 70 bf a6 bc 6c 23 88 3d 76 5e ad bd
       -0.021898322 -0.020354956 0.06647381 -0.084652826
000310 ea c8 af 3d 94 9f d2 bc 20 ef 99 bd cc 79 8d bc
       0.08583243 -0.025710858 -0.075163126 -0.017269991
000320 68 ce df bc 4e f7 2f bd 8a ef 52 bd 58 c6 58 3d
       -0.027320102 -0.042960458 -0.051497974 0.05292353
000330 82 cf 36 bd 04 de 49 3d e8 a5 a3 bd b4 eb 6e 3d
       -0.04463149 0.049283996 -0.079906285 0.058330253
000340 1d a0 91 bd 54 b8 2c 3d f6 54 2b bd 22 f6 d0 bd
       -0.07110617 0.042167976 -0.041829072 -0.10203196
000350 44 ea cf bc 0e 4f c4 bd 5c 43 a2 bc 64 cd 9b 3d
       -0.025380261 -0.09585391 -0.01980751 0.076075345
000360 a3 6d 98 bd 74 de b6 3d ac 8f dc bc 54 de c9 bd
       -0.074427865 0.08929148 -0.026923977 -0.09856859
000370 78 9c 63 bc 6c 78 c1 bd 68 41 95 3c 30 4e aa bb
       -0.0138922855 -0.09446797 0.018219665 -0.005197309
000380 70 35 be 3d 5c 36 aa bc 55 3d 42 bd 3c 1f 86 bd
       0.09287536 -0.020777874 -0.047421772 -0.06548926
000390 94 e9 98 3d b6 54 2e bd 72 4f 8c 3d cc 61 0d 3d
       0.074664265 -0.042561255 0.068510905 0.034517094
0003a0 60 22 7d bc 08 69 37 bd 07 a2 9a bd a8 76 3e 3d
       -0.01545009 -0.0447779 -0.075504355 0.04649988
0003b0 f8 a0 a1 bd 28 7b 66 bd 34 19 56 3d 70 05 a8 bb
       -0.078920305 -0.056269795 0.05227013 -0.0051276013
0003c0 4e 41 c6 3d e0 25 a8 3d ac b6 21 bd e0 a5 bb 3b
       0.09680425 0.08210349 -0.03948085 0.005726561
0003d0 51 ca 51 bd f8 22 04 bd d0 75 cc 3d b0 44 4b 3d
       -0.051218335 -0.03225991 0.099834085 0.049626052
0003e0 94 f7 5c 3d a4 5a 49 3d 54 6f 62 3d 4e f9 a0 3d
       0.053947046 0.049158707 0.055281952 0.07860051
0003f0 68 51 6e bc 24 e2 11 3d e0 d1 de bc 4a 1d b8 bd
       -0.014545776 0.035616055 -0.027199686 -0.089899614

bias f4 [24]
000000 78 da c9 3d c8 d9 ad bd 68 9e 7e 3c c0 75 2c 3d
       0.09856123 -0.08488804 0.015540697 0.042104483
000010 ac 3a ae bd ee e8 b9 3d 7c f2 01 3d bc 2a 95 bd
       -0.085072845 0.09077631 0.03172539 -0.072835416
000020 fd a9 7e bd 00 16 64 3d 3f dd cb bd ea e8 c7 3d
       -0.062173832 0.055685043 -0.09954309 0.09761222
000030 3a 38 b8 3d 18 9f 30 3d 6c 7c cd bd f4 78 65 3d
       0.08995099 0.043120474 -0.10033497 0.056023553
000040 b5 b0 60 bd d9 ef 3f bd 10 8e 4c 3c 29 59 6f bd
       -0.05485602 -0.046859596 0.012485042 -0.05843464
000050 50 b8 0f 3c 6c 4d c3 3d ca 06 0e bd b8 6a 94 bc
       0.008771971 0.095362514 -0.034674443 -0.018117294
