training/train_output/IDQ_linear_cold/config_30.pt (torch, 77679 bytes, 2 tensors)

weight f4 [24, 96]
00000000: 33c7 b3bd 7006 c63d 7de1 8b3d 2908 9dbd
00000010: 02c2 9d3d d073 bdbd beff 843d d782 8b3d
00000020: d78d 7a3d 84d7 243d 0620 71bd 5d32 27bd
00000030: 4010 9b3c 73ca 183d ec2f b13d 0069 d03a
00000040: 2f10 203d f5d0 97bd 198b 91bc 2886 6c3d
00000050: 39a8 b03b c532 9f3d 29af a1bd 376e 85bd
00000060: 20ad ee3c 4ec0 acba af8e acbd 674a 263d
00000070: d4a2 a43a c706 b23c f891 9f3c 6a16 8abd
00000080: 7d2b 86bd 9832 a1bd b9c8 913d 5065 59bd
00000090: 5e20 b63d 87d5 f2bc 0ae8 a03c 5e98 c13d
000000a0: 8e42 54bd 1c36 c0bd 2fd7 403c d4c0 90bd
000000b0: 3f44 5a3d 0d1e 1a3d 0368 913d 17bc fabb
000000c0: 3785 82bd be94 babd d9f6 80bd be23 b43d
000000d0: eed1 9abc 8422 7fb7 373b 99bc 095d 49bd
000000e0: 4612 a53d 0473 c0bc b9ce 3ebd 0e16 bb3d
000000f0: ef20 6e3d 5ab7 523d ebbf 8f3d 9e64 7dbd
00000100: 901b f83c bb87 d0bc fe3b 373a 00d6 383d
00000110: 935f fdbc 020e c73d f2cd 4e36 35cc 643d
00000120: b915 d33b 556b c3bd 20f1 6dbd d021 a8bd
00000130: 1224 143c e32d 86bd 662f a0bd 0917 9b3c
00000140: 0eed b0bd 1766 57bd 2f2d 81bd c8f9 3f3d
00000150: 1a9a b93d 0a2f 063d 97e1 5dbd 962b 983d
00000160: c4f8 bb3d 255e cabc 3132 943d 1d35 bb3c
00000170: 835a 8bbd 9534 c2bc 16a9 a0bd 201b e43c
00000180: bc16 5b3d 138c c7bd 0ec7 1ebd 45f0 c5b7
00000190: 8b54 a13d c7b3 57bd 6288 47bb 2dc0 6138
000001a0: 4925 46bd cc4a 2fbd d58a c7bc 67a9 e1bc
000001b0: 47f5 f4bc c618 df3b 7bef b6bb 745e 3fbd
000001c0: 2413 713d 5c7e 8f3d d9cf 55bc 9da9 85bc
000001d0: 29ae c5bd c0c4 92bd 90a5 deba 853b 87bc
000001e0: 3771 dc3c ccdf 43bd 3102 95bc ffb4 493c
000001f0: 5722 c73d b769 9e3d 9c74 83bd 25e1 b5bb
00000200: 5a72 61bc 28ac a3b9 c411 223d 7a16 1cbd
00000210: 410f 9abc 4204 c9bd 1b6d 08bd 60f6 c6bd
00000220: 1ce8 073d 2bdb 9abd 637e 42bd 2f89 91bd
00000230: 45e7 983d 0646 ddbc 379a af3d b6a5 43bd
00000240: d132 983d a43a 8cbc abfa 96bd 47c1 a83d
00000250: 3929 88bd babf 69bd e201 593d eb8a d7bb
00000260: ee90 fc37 dc37 c93d 12d6 9fbd 7ae9 0abd
00000270: 88fb 1d3d 98d3 88bc 34d8 ea36 963f 01bd
00000280: 64b8 52bc b8cd a03d ef3f 83bc 770b 1c3d
00000290: ebaa 973d 71c6 9b3d 4022 3a3d 92a2 893d
000002a0: 4db6 c0bc 4601 aa3b cb3d 27bd 02ad c4bd
000002b0: 4bd5 a93d 1bca c1bd de61 7bbd 6ae9 08bd
000002c0: d328 b9bd 8c2a 9cbd 7f96 4ebd 228a 153c
000002d0: eab6 b0bd 0b35 90bd db49 68bd a823 97bd
000002e0: 3f13 ac3c d9f9 033a 074f 9f3c ee86 b63d
000002f0: 7ff5 2abd 8ea6 10bd ec8e f23c ea47 b13d
00000300: 5ab2 f23c 420a bebb e169 f73c 27d9 c7bd
00000310: 48ef 88bd 97b3 23bd d12c b7bd 6fd2 97bd
00000320: ecb5 9abd d4da d73c 0524 e53c 337f 1739
00000330: 8512 a9bc b97f 14b9 e986 703d bf59 97bd
00000340: 3076 8e3d 26bd 293d 5fd6 05bd 409c 8c3d
00000350: b064 ab34 af7e 33bd b853 b63d d1f0 de3c
00000360: 1cb4 973d 3db9 cabc 1a13 adbd 5594 a13d
00000370: 05b1 413b 9571 3a3d 2c8f c0bc cba2 393d
00000380: 4c1d 9fbd b8cc 293a 9baa 983d 385c c8bc
00000390: 567d ad3d 8ca4 0d3d d8fd 413d 657e c83d
000003a0: 1541 b3bc dd7f aabc acca 7a3d ea7b 47bd
000003b0: 9d12 94bd 4b3f 823d 5956 b0bd 43e9 39bd
000003c0: 366f b23c 68e0 453c fa5a 71bd 715e bbbc
000003d0: 6622 803d 2967 81bd 16b4 633d 40c3 02bc
000003e0: 338d 09bd e813 c1bd 9724 c3bc 86d4 a53d
000003f0: faed 58bd fcd9 9fbd 144c a4bb 1021 8e3d
-0.087782286 0.096691966 0.06830118 -0.07667572 0.0770302 -0.09250605 0.064940915 0.06812065
0.061170425 0.040244594 -0.05886843 -0.040819515 0.018928647 0.037302446 0.086517185 0.0015900433
0.039077934 -0.07412902 -0.017766522 0.05774513 0.0053911475 0.077733554 -0.07894737 -0.065151624
0.029135287 -0.001317987 -0.08425652 0.0405983 0.0012560734 0.021731747 0.019478783 -0.067425564
-0.065512635 -0.07870978 0.07118363 -0.053075135 0.08892892 -0.029642833 0.019641895 0.0945289
-0.051821284 -0.093853205 0.011770054 -0.07068029 0.05328774 0.037626315 0.07099917 -0.0076518166
-0.06373065 -0.091104016 -0.062970825 0.0879588 -0.01889893 -1.5207221e-05 -0.018704994 -0.04916099
0.08060126 -0.023492344 -0.046583865 0.09135066 0.058136877 0.05144439 0.07019027 -0.061863534
0.03028658 -0.025455346 0.00069898355 0.04512596 -0.030929362 0.09719469 3.0816268e-06 0.05585881
0.0064417985 -0.09541956 -0.058091283 -0.08209574 0.009041803 -0.06551721 -0.078215405 0.018931882
-0.086389646 -0.052587595 -0.06307446 0.04686907 0.09062596 0.032759704 -0.054170217 0.07430188
0.09178308 -0.024703095 0.07236136 0.022852475 -0.06804373 -0.023706714 -0.078447506 0.027844965
0.053488478 -0.09743514 -0.038764052 -2.3596114e-05 0.078774534 -0.052661683 -0.003044628 5.3823158e-05
-0.0483754 -0.04279594 -0.024358192 -0.027546598 -0.029902114 0.006808373 -0.0055827475 -0.046720937
0.058856145 0.07006523 -0.013050043 -0.01631623 -0.09652359 -0.07166433 -0.0016986597 -0.016507873
0.026909454 -0.04782085 -0.018189522 0.012311219 0.09723347 0.07735007 -0.06418726 -0.005550521
-0.013760174 -0.0003121805 0.039567724 -0.038107373 -0.018806102 -0.09815265 -0.033307176 -0.09714961
0.03318034 -0.07561334 -0.047483813 -0.07106244 0.07465986 -0.027010929 0.08574336 -0.047765456
0.074315675 -0.017117806 -0.0737203 0.0823999 -0.066484876 -0.05706761 0.05298031 -0.0065778396
3.010823e-05 0.098251075 -0.078045025 -0.033914067 0.038569957 -0.016702458 6.998913e-06 -0.03155478
-0.012861345 0.07851738 -0.016021697 0.03809687 0.07405647 0.07606209 0.04544282 0.06720461
-0.023524428 0.00518814 -0.040830415 -0.09603311 0.082926355 -0.09462377 -0.06137263 -0.033425726
-0.0904099 -0.07625303 -0.050436493 0.009127172 -0.08628638 -0.07041367 -0.05671106 -0.07379848
0.021005271 0.00050344836 0.019446863 0.089124545 -0.04173803 -0.03531509 0.029609166 0.08656295
0.02962606 -0.0057995627 0.030201854 -0.097582154 -0.06686264 -0.039966192 -0.08944095 -0.07413184
-0.0755423 0.026349463 0.027971277 0.00014447868 -0.020638714 -0.0001416196 0.05872241 -0.073901646
0.06956136 0.04144015 -0.032675143 0.0686574 3.1924492e-07 -0.043821987 0.08902687 0.02721444
0.074074 -0.024746532 -0.08450909 0.0788962 0.0029554975 0.045518477 -0.02350577 0.045321267
-0.0776926 0.0006477344 0.074544154 -0.024458036 0.084711716 0.034580752 0.047361225 0.09789733
-0.02188162 -0.020812923 0.06122844 -0.048702158 -0.07230113 0.063597284 -0.086102195 -0.04538847
0.021781545 0.012077428 -0.058924653 -0.022872182 0.06256561 -0.06318504 0.055591665 -0.007981122
-0.033581924 -0.09427625 -0.023821158 0.08097176 -0.052961327 -0.07805249 -0.005013952 0.069399

bias f4 [24]
00000000: da28 ce3d aa6d ca3d 3fe3 9bbd 942c 993b
00000010: cfef a9bd cb11 ea3b f81d 363c 8af9 3bbd
00000020: e6d4 073d 9356 edbc f9d8 763d f249 823b
00000030: 0b64 963d eab8 8c3d 7e47 d23c 0c7f b73c
00000040: 616f 41bd 7d00 84bd cafa 923d d32b 903d
00000050: 2307 9b3c 005c a93d 77f3 503d bfee 823d
0.100663856 0.09884198 -0.07611703 0.0046745036 -0.08297693 0.0071432344 0.011115544 -0.045892276
0.03316202 -0.028971946 0.060265515 0.0039761 0.073433004 0.06871207 0.025668856 0.022399448
-0.04722536 -0.06445406 0.071767405 0.07039609 0.018924301 0.08269501 0.051013436 0.063931935
