training/train_output/IDQ_linear_warm/config_12.pt (torch, 77423 bytes, 2 tensors)

weight f4 [24, 96]
1.5370635e-05 0.00018205094 2.6067576e-06 1.0003206 1.5370635e-05 6.950133e-05 -0.00039702212 0.00033245436
1.5370635e-05 3.0115532e-05 -0.0003364738 0.00033946516 1.5370635e-05 -0.0003531767 -0.00027907445 0.00033023374
1.5370635e-05 -0.0004460152 -0.00016157626 0.0003226927 1.5370635e-05 -0.00039629472 -0.00031204495 0.00029939084
1.5370635e-05 6.059418e-05 0.00034397712 0.00028890674 1.5370635e-05 0.00015765867 2.2569666e-06 0.00027465005
1.5370635e-05 0.00019233291 2.6393102e-06 0.00026430193 1.5370635e-05 0.00020707023 -1.1569969e-05 0.00028306458
1.5370635e-05 0.00021428408 -9.599916e-05 0.00027722708 1.5370635e-05 0.00021565398 -0.000114028386 0.00029039624
1.5370635e-05 0.00022430357 -0.00014809483 0.00030848154 1.5370635e-05 0.00020329462 -0.00019792026 0.00029373844
1.5370635e-05 0.0001881964 -0.00023635347 0.0002909495 1.5370635e-05 0.00017977192 -0.00023846299 0.00028191027
1.5370635e-05 0.00016116472 -0.00019467087 0.00028479347 1.5370635e-05 0.00018856215 -1.1673873e-05 0.0002942207
1.5370635e-05 0.00022804091 9.74347e-05 0.00028737466 1.5370635e-05 0.00024979503 4.1407733e-05 0.0002909438
1.5370635e-05 0.00024408531 9.916329e-05 0.00030150553 1.5370635e-05 0.00022886033 0.00035235283 0.00029725395
1.5370635e-05 0.00020560576 0.00023717139 0.00032918598 1.5370635e-05 0.00021894844 0.00046404736 0.00027994846
0.0001652934 -0.00010519482 0.00014933512 -0.00017346273 0.0001652934 -8.3929626e-05 0.0003173805 0.9998177
0.0001652934 -8.311476e-05 0.00017694628 -0.00016742025 0.0001652934 0.00035923734 0.00034406537 -0.000161745
0.0001652934 0.0003867647 0.00045088204 -0.00015565398 0.0001652934 0.00033508468 0.00044444145 -0.00016444632
0.0001652934 -0.0001226916 0.00011075807 -0.00018799248 0.0001652934 -0.00014212575 -5.1995063e-05 -0.00021177215
0.0001652934 -0.00014157106 -4.61663e-05 -0.00022345224 0.0001652934 -0.00013906628 -2.631186e-05 -0.00022479381
0.0001652934 -0.00013529322 -7.4393065e-05 -0.00023004037 0.0001652934 -0.00013667988 -6.050835e-05 -0.00022816625
0.0001652934 -0.0001395184 -5.5371365e-05 -0.00022549334 0.0001652934 -0.00014129271 -7.458038e-05 -0.00023389292
0.0001652934 -0.00014327353 -7.90613e-05 -0.00023448178 0.0001652934 -0.00014809739 -7.2038245e-05 -0.00023924172
0.0001652934 -0.00014704978 -4.82854e-05 -0.00024523438 0.0001652934 -0.00015474684 -6.864777e-05 -0.00024405966
0.0001652934 -0.00015084379 8.380757e-06 -0.00024302803 0.0001652934 -0.000152616 1.8348203e-05 -0.00023982736
0.0001652934 -0.00014619064 5.9713017e-05 -0.0002284225 0.0001652934 -0.00014178565 0.00019841667 -0.00021857634
0.0001652934 -0.00013868428 0.00020539176 -0.00021858349 0.0001652934 -0.00014300454 0.00015417377 -0.00019483692
-0.0002252082 -5.0253933e-05 -0.00029576517 0.00022565578 -0.0002252082 -9.583965e-05 -0.0004137158 0.00024683945
-0.0002252082 -0.00010585301 -0.00049378804 1.0002474 -0.0002252082 -0.00024521668 -0.000523376 0.0002515107
-0.0002252082 -0.00027990574 -8.235215e-05 0.00025958222 -0.0002252082 -0.00021852396 -2.9570714e-05 0.00025345013
-0.0002252082 -4.8424656e-05 -0.00016190024 0.0002349864 -0.0002252082 1.9120302e-05 -2.802221e-05 0.00016839041
-0.0002252082 4.6471152e-05 -2.2657716e-05 0.00013951467 -0.0002252082 4.599759e-05 1.09056145e-05 0.00013227531
-0.0002252082 4.3381664e-05 8.5675696e-05 0.00013157762 -0.0002252082 4.046882e-05 -4.663282e-05 0.0001504331
-0.0002252082 4.307782e-05 -4.551543e-06 0.00015243483 -0.0002252082 4.5954926e-05 3.20367e-05 0.00014594174
-0.0002252082 6.555277e-05 6.4155895e-05 0.00015835071 -0.0002252082 6.468347e-05 6.676984e-05 0.00016121789
00000000: 30f0 8037 ede4 3e39 c1ef 2e36 810a 803f
00000010: 30f0 8037 3ec1 9138 6827 d0b9 454d ae39
00000020: 30f0 8037 9da0 fc37 c068 b0b9 3efa b139
00000030: 30f0 8037 932a b9b9 bd50 92b9 3923 ad39
00000040: 30f0 8037 26d7 e9b9 cc6c 29b9 152f a939
00000050: 30f0 8037 c7c5 cfb9 f799 a3b9 8ff7 9c39
00000060: 30f0 8037 8126 7e38 d457 b439 6878 9739
00000070: 30f0 8037 2d51 2539 6476 1736 e8fe 8f39
00000080: 30f0 8037 f9ac 4939 011f 3136 0192 8a39
00000090: 30f0 8037 fe20 5939 a31c 42b7 4968 9439
000000a0: 30f0 8037 72b1 6039 2853 c9b8 ca58 9139
000000b0: 30f0 8037 2d21 6239 8622 efb8 5340 9839
000000c0: 30f0 8037 0833 6b39 e749 1bb9 b1bb a139
000000d0: 30f0 8037 7c2b 5539 d188 4fb9 e800 9a39
000000e0: 30f0 8037 9656 4539 a7d5 77b9 958a 9839
000000f0: 30f0 8037 2881 3c39 ec0b 7ab9 5bcd 9339
00000100: 30f0 8037 53fe 2839 9020 4cb9 5550 9539
00000110: 30f0 8037 c4b8 4539 e7da 43b7 a241 9a39
00000120: 30f0 8037 441e 6f39 db55 cc38 c6aa 9639
00000130: 30f0 8037 ecf6 8239 37ad 2d38 d189 9839
00000140: 30f0 8037 27f1 7f39 e3f5 cf38 6313 9e39
00000150: 30f0 8037 3afa 6f39 ffbb b839 c0d8 9b39
00000160: 30f0 8037 e097 5739 36b1 7839 9896 ac39
00000170: 30f0 8037 8695 6539 624b f339 0cc6 9239
00000180: 9c52 2d39 0a9c dcb8 d796 1c39 8ce3 35b9
00000190: 9c52 2d39 6003 b0b8 1766 a639 0ef4 7f3f
000001a0: 9c52 2d39 e64d aeb8 a88a 3939 888d 2fb9
000001b0: 9c52 2d39 0558 bc39 ac63 b439 189a 29b9
000001c0: 9c52 2d39 aec6 ca39 5d64 ec39 0c37 23b9
000001d0: 9c52 2d39 4eae af39 ec03 e939 396f 2cb9
000001e0: 9c52 2d39 c7a6 00b9 c946 e838 d91f 45b9
000001f0: 9c52 2d39 9707 15b9 4615 5ab8 270f 5eb9
00000200: 9c52 2d39 b172 14b9 b0a2 41b8 814e 6ab9
00000210: 9c52 2d39 52d2 11b9 4ab8 dcb7 a1b6 6bb9
00000220: 9c52 2d39 7fdd 0db9 7903 9cb8 fe36 71b9
00000230: 9c52 2d39 ba51 0fb9 59ca 7db8 e93f 6fb9
00000240: 9c52 2d39 af4b 12b9 8d3e 68b8 6872 6cb9
00000250: 9c52 2d39 f927 14b9 0968 9cb8 2741 75b9
00000260: 9c52 2d39 b23b 16b9 b6cd a5b8 39df 75b9
00000270: 9c52 2d39 974a 1bb9 3d13 97b8 f6dc 7ab9
00000280: 9c52 2d39 6031 1ab9 0e86 4ab8 cd92 80b9
00000290: 9c52 2d39 8a43 22b9 fef6 8fb8 44ea 7fb9
000002a0: 9c52 2d39 d22b 1eb9 149b 0c37 57d5 7eb9
000002b0: 9c52 2d39 8c07 20b9 77ea 9937 2b7a 7bb9
000002c0: 9c52 2d39 c04a 19b9 5d74 7a38 b384 6fb9
000002d0: 9c52 2d39 4cac 14b9 120e 5039 a431 65b9
000002e0: 9c52 2d39 c76b 11b9 6e5e 5739 8f33 65b9
000002f0: 9c52 2d39 7df3 15b9 b5a9 2139 234d 4cb9
00000300: de25 6cb9 c0c7 52b8 ee10 9bb9 039e 6c39
00000310: de25 6cb9 85fd c8b8 ffe7 d8b9 3b6a 8139
00000320: de25 6cb9 67fd ddb8 8e71 01ba 1b08 803f
00000330: de25 6cb9 6d90 80b9 2b33 09ba 32dd 8339
00000340: de25 6cb9 50c0 92b9 79b4 acb8 8918 8839
00000350: de25 6cb9 9423 65b9 a00e f8b7 80e1 8439
00000360: de25 6cb9 941b 4bb8 c4c3 29b9 ae66 7639
00000370: de25 6cb9 8964 a037 3d11 ebb7 f591 3039
00000380: de25 6cb9 05ea 4238 1311 beb7 af4a 1239
00000390: de25 6cb9 89ed 4038 42f7 3637 62b3 0a39
000003a0: de25 6cb9 b5f4 3538 caac b338 19f8 0939
000003b0: de25 6cb9 11bd 2938 9c97 43b8 94bd 1d39
000003c0: de25 6cb9 75ae 3438 75b9 98b6 ead6 1f39
000003d0: de25 6cb9 babf 4038 255f 0638 f007 1939
000003e0: de25 6cb9 6079 8938 6f8b 8638 f20a 2639
000003f0: de25 6cb9 aca6 8738 c906 8c38 990c 2939

bias f4 [24]
0.0003429892 -0.00016530298 0.00022260501 -0.00017111287 8.582066e-05 -0.0003034871 -0.00029162574 -0.0002481006
0.00033461364 8.7545755e-05 0.00019817222 -6.7130844e-05 -0.00010319306 -0.000750664 0.00015874968 0.0003370783
0.0003090887 0.00025255044 0.00039520583 0.0008057685 -1.9222547e-05 0.0005226486 4.0570512e-07 -0.00040075846
00000000: 3bd3 b339 2e55 2db9 146b 6939 c36c 33b9
00000010: 9efa b338 591d 9fb9 58e5 98b9 8013 82b9
00000020: 156f af39 c598 b738 73cc 4f39 99c8 8cb8
00000030: 5a69 d8b8 35c8 44ba 0b76 2639 e2b9 b039
00000040: 2f0d a239 bf68 8439 a133 cf39 353a 533a
00000050: 1b40 a1b7 5b02 093a b0cf d934 e41c d2b9
