training/train_output/IDQ_linear_warm/config_19.pt (torch, 77423 bytes, 2 tensors)

weight f4 [24, 96]
2.5000074e-05 2.4999974e-05 -2.4999987e-05 1.0000244 2.5000074e-05 2.4999961e-05 -2.4999987e-05 2.4999974e-05
2.5000074e-05 2.4999954e-05 -2.4999987e-05 2.4999972e-05 2.5000074e-05 -2.5000034e-05 -2.4999983e-05 2.499997e-05
2.5000074e-05 -2.5000005e-05 -2.4999972e-05 2.4999968e-05 2.5000074e-05 -2.5000034e-05 -2.4999981e-05 2.4999968e-05
2.5000074e-05 2.4999936e-05 2.5000045e-05 2.4999968e-05 2.5000074e-05 2.4999965e-05 2.4999965e-05 2.4999965e-05
2.5000074e-05 2.4999972e-05 2.4999974e-05 2.4999965e-05 2.5000074e-05 2.4999972e-05 2.4999972e-05 2.4999968e-05
2.5000074e-05 2.4999974e-05 2.499997e-05 2.4999968e-05 2.5000074e-05 2.4999974e-05 2.4999976e-05 2.499997e-05
2.5000074e-05 2.4999976e-05 2.4999965e-05 2.4999972e-05 2.5000074e-05 2.4999972e-05 2.4999983e-05 2.499997e-05
2.5000074e-05 2.4999972e-05 2.4999998e-05 2.4999968e-05 2.5000074e-05 2.4999974e-05 2.499999e-05 2.4999968e-05
2.5000074e-05 2.4999972e-05 2.4999996e-05 2.4999967e-05 2.5000074e-05 2.4999974e-05 2.4999976e-05 2.4999968e-05
2.5000074e-05 2.4999976e-05 2.4999978e-05 2.4999972e-05 2.5000074e-05 2.499998e-05 2.4999978e-05 2.4999972e-05
2.5000074e-05 2.4999976e-05 2.4999987e-05 2.4999978e-05 2.5000074e-05 2.4999976e-05 2.5e-05 2.4999976e-05
2.5000074e-05 2.4999974e-05 2.4999998e-05 2.4999972e-05 2.5000074e-05 2.4999976e-05 2.5000001e-05 2.4999968e-05
2.5065423e-05 2.4896037e-05 -2.5054134e-05 2.4845795e-05 2.5065423e-05 2.4893237e-05 -2.503335e-05 1.0000242
2.5065423e-05 2.4889874e-05 -2.5026748e-05 2.4826762e-05 2.5065423e-05 2.4871899e-05 -2.5004761e-05 2.4806977e-05
2.5065423e-05 2.484957e-05 -2.5022231e-05 2.4809646e-05 2.5065423e-05 2.4825951e-05 -2.5076153e-05 2.4787498e-05
2.5065423e-05 2.4830144e-05 1.8027784e-05 2.478437e-05 2.5065423e-05 2.483202e-05 2.3744746e-05 2.479298e-05
2.5065423e-05 2.4841807e-05 2.4606223e-05 2.480305e-05 2.5065423e-05 2.4857924e-05 2.4632587e-05 2.4817278e-05
2.5065423e-05 2.4872827e-05 2.4596737e-05 2.4819776e-05 2.5065423e-05 2.4876816e-05 2.444574e-05 2.4823054e-05
2.5065423e-05 2.4879475e-05 2.3248433e-05 2.4826717e-05 2.5065423e-05 2.487308e-05 2.39341e-05 2.4824025e-05
2.5065423e-05 2.4853332e-05 2.418095e-05 2.4805471e-05 2.5065423e-05 2.4846337e-05 2.386629e-05 2.4787234e-05
2.5065423e-05 2.4837951e-05 2.3564115e-05 2.4800354e-05 2.5065423e-05 2.4844077e-05 2.4721478e-05 2.4820569e-05
2.5065423e-05 2.4858839e-05 2.4738894e-05 2.4842357e-05 2.5065423e-05 2.486549e-05 2.4748837e-05 2.4856614e-05
2.5065423e-05 2.4864006e-05 2.4659243e-05 2.4867106e-05 2.5065423e-05 2.4856756e-05 2.4561328e-05 2.4864454e-05
2.5065423e-05 2.4850746e-05 2.2929455e-05 2.4862862e-05 2.5065423e-05 2.4861158e-05 2.4276782e-05 2.4796922e-05
2.4938934e-05 2.5047173e-05 -2.488055e-05 2.5042822e-05 2.4938934e-05 2.505351e-05 -2.49711e-05 2.5044086e-05
2.4938934e-05 2.505647e-05 -2.4980824e-05 1.0000244 2.4938934e-05 2.5074607e-05 -2.4997258e-05 2.5046727e-05
2.4938934e-05 2.475237e-05 -2.4980753e-05 2.5047453e-05 2.4938934e-05 2.5067271e-05 -2.450564e-05 2.504804e-05
2.4938934e-05 2.506489e-05 2.5061023e-05 2.5047495e-05 2.4938934e-05 2.5054938e-05 2.5067253e-05 2.5046504e-05
2.4938934e-05 2.5050864e-05 2.5048701e-05 2.5046187e-05 2.4938934e-05 2.5048248e-05 2.505603e-05 2.5045847e-05
2.4938934e-05 2.5046256e-05 2.5055884e-05 2.5046435e-05 2.4938934e-05 2.5046e-05 2.5061756e-05 2.504675e-05
2.4938934e-05 2.5045101e-05 2.5063826e-05 2.5047051e-05 2.4938934e-05 2.5046305e-05 2.5071467e-05 2.5048163e-05
2.4938934e-05 2.5048612e-05 2.5066172e-05 2.5049418e-05 2.4938934e-05 2.5048657e-05 2.5075718e-05 2.504992e-05
00000000: 40b7 d137 09b7 d137 10b7 d1b7 cd00 803f
00000010: 40b7 d137 02b7 d137 10b7 d1b7 09b7 d137
00000020: 40b7 d137 feb6 d137 10b7 d1b7 08b7 d137
00000030: 40b7 d137 2ab7 d1b7 0eb7 d1b7 07b7 d137
00000040: 40b7 d137 1ab7 d1b7 08b7 d1b7 06b7 d137
00000050: 40b7 d137 2ab7 d1b7 0db7 d1b7 06b7 d137
00000060: 40b7 d137 f4b6 d137 30b7 d137 06b7 d137
00000070: 40b7 d137 04b7 d137 04b7 d137 04b7 d137
00000080: 40b7 d137 08b7 d137 09b7 d137 04b7 d137
00000090: 40b7 d137 08b7 d137 08b7 d137 06b7 d137
000000a0: 40b7 d137 09b7 d137 07b7 d137 06b7 d137
000000b0: 40b7 d137 09b7 d137 0ab7 d137 07b7 d137
000000c0: 40b7 d137 0ab7 d137 04b7 d137 08b7 d137
000000d0: 40b7 d137 08b7 d137 0eb7 d137 07b7 d137
000000e0: 40b7 d137 08b7 d137 16b7 d137 06b7 d137
000000f0: 40b7 d137 09b7 d137 12b7 d137 06b7 d137
00000100: 40b7 d137 08b7 d137 15b7 d137 05b7 d137
00000110: 40b7 d137 09b7 d137 0ab7 d137 06b7 d137
00000120: 40b7 d137 0ab7 d137 0bb7 d137 08b7 d137
00000130: 40b7 d137 0cb7 d137 0bb7 d137 08b7 d137
00000140: 40b7 d137 0ab7 d137 10b7 d137 0bb7 d137
00000150: 40b7 d137 0ab7 d137 17b7 d137 0ab7 d137
00000160: 40b7 d137 09b7 d137 16b7 d137 08b7 d137
00000170: 40b7 d137 0ab7 d137 18b7 d137 06b7 d137
00000180: 9643 d237 d5d7 d037 582b d2b7 f06b d037
00000190: 9643 d237 d2d1 d037 b6fe d1b7 cb00 803f
000001a0: 9643 d237 99ca d037 88f0 d1b7 1143 d037
000001b0: 9643 d237 ffa3 d037 51c1 d1b7 9418 d037
000001c0: 9643 d237 0c74 d037 d5e6 d1b7 4f1e d037
000001d0: 9643 d237 5341 d037 a15a d2b7 bfee cf37
000001e0: 9643 d237 544a d037 5f3a 9737 08e8 cf37
000001f0: 9643 d237 5b4e d037 742f c737 85fa cf37
00000200: 9643 d237 6063 d037 7669 ce37 2510 d037
00000210: 9643 d237 fc85 d037 14a2 ce37 b32e d037
00000220: 9643 d237 fda5 d037 1755 ce37 1034 d037
00000230: 9643 d237 8eae d037 d410 cd37 1a3b d037
00000240: 9643 d237 44b4 d037 a105 c337 f842 d037
00000250: 9643 d237 88a6 d037 17c6 c837 303d d037
00000260: 9643 d237 207c d037 32d8 ca37 5815 d037
00000270: 9643 d237 1a6d d037 7834 c837 2eee cf37
00000280: 9643 d237 185b d037 8dab c537 5b0a d037
00000290: 9643 d237 4068 d037 f860 cf37 c435 d037
000002a0: 9643 d237 f387 d037 5f86 cf37 8e64 d037
000002b0: 9643 d237 3c96 d037 b99b cf37 2c83 d037
000002c0: 9643 d237 0c93 d037 52db ce37 b499 d037
000002d0: 9643 d237 7a83 d037 0d09 ce37 0294 d037
000002e0: 9643 d237 9276 d037 a158 c037 9790 d037
000002f0: 9643 d237 ee8c d037 fea5 cb37 fc02 d037
00000300: f433 d137 651c d237 93b6 d0b7 0d13 d237
00000310: f433 d137 012a d237 0779 d1b7 c415 d237
00000320: f433 d137 5c30 d237 e98d d1b7 cd00 803f
00000330: f433 d137 4f57 d237 34b1 d1b7 701b d237
00000340: f433 d137 4fa3 cf37 c28d d1b7 ff1c d237
00000350: f433 d137 8e47 d237 7691 cdb7 421e d237
00000360: f433 d137 7142 d237 233a d237 161d d237
00000370: f433 d137 122d d237 8447 d237 f51a d237
00000380: f433 d137 5224 d237 ad1f d237 471a d237
00000390: f433 d137 b41e d237 6a2f d237 8c19 d237
000003a0: f433 d137 6d1a d237 1a2f d237 cf1a d237
000003b0: f433 d137 e019 d237 b63b d237 7c1b d237
000003c0: f433 d137 f217 d237 2840 d237 221c d237
000003d0: f433 d137 881a d237 9150 d237 851e d237
000003e0: f433 d137 7c1f d237 3245 d237 3721 d237
000003f0: f433 d137 951f d237 b259 d237 4b22 d237

bias f4 [24]
2.4999985e-05 2.4913594e-05 2.5031582e-05 -2.4992307e-05 -2.4993671e-05 2.5028126e-05 -2.5000054e-05 -2.500817e-05
2.4979894e-05 2.498852e-05 2.501229e-05 2.4999816e-05 -2.5000067e-05 -2.5001453e-05 2.4987494e-05 2.4973277e-05
-2.4761923e-05 2.5000863e-05 2.49967e-05 2.5021951e-05 -2.4997193e-05 -2.5081876e-05 -2.5002184e-05 -2.5000905e-05
00000000: 0fb7 d137 89fd d037 eafa d137 92a6 d1b7
00000010: 80a9 d1b7 7ef3 d137 35b7 d1b7 a3c8 d1b7
00000020: ea8b d137 709e d137 7cd1 d137 b2b6 d137
00000030: 3cb7 d1b7 36ba d1b7 3c9c d137 b47d d137
00000040: d3b7 cfb7 f2b8 d137 01b0 d137 3be6 d137
00000050: 10b1 d1b7 eb66 d2b7 c8bb d1b7 09b9 d1b7
