training/train_output_old/20230922_scaled_IDQ_softplus_warm/config_35.pt (torch, 80747 bytes, 4 tensors)

weight f4 [24, 24]
00000000: a178 1d3f cf87 c438 1a7c c438 0802 c538
00000010: ecf0 c338 2e78 c338 4120 c338 73eb c338
00000020: 6f50 c638 c6c7 c538 2dce c638 929c c638
00000030: 5517 c638 f7d2 c638 3f64 c738 f60f c938
00000040: 698a c838 1e91 c738 a681 c838 bc08 c938
00000050: 5214 c938 a5f3 c838 1041 c738 6eb8 c638
00000060: f4a1 7e38 7576 1d3f 92ff 7b38 45ea 7b38
00000070: e9a7 7738 3a7b 7838 ae34 7d38 5ca0 8538
00000080: 510d 8a38 0e79 8838 12c8 8638 cbd3 8338
00000090: ac5d 8238 67c8 8238 47e1 8238 ed24 8538
000000a0: bf32 8538 dd98 8638 16e1 8738 3828 8838
000000b0: 84c0 8438 6fc3 8038 2a36 8038 3723 6f38
000000c0: c17e a838 db8a aa38 e477 1d3f 661b a738
000000d0: 16b1 a738 608a a938 3446 af38 cf03 af38
000000e0: 4acd ab38 0983 a838 18d7 a338 142c a238
000000f0: 3aff a238 1633 a038 c1b8 9f38 230f 9c38
00000100: cb26 9a38 49d2 a238 d354 9e38 e233 9b38
00000110: cc22 9238 d5e5 9438 28be 9a38 1fe1 a338
00000120: 4ef2 ddb8 3532 deb8 b21c deb8 5e6b 1d3f
00000130: 0af1 ddb8 0bf1 ddb8 8eca ddb8 0741 ddb8
00000140: 9019 ddb8 94f8 dcb8 91e8 dcb8 5a11 ddb8
00000150: cdfc dcb8 d6f5 dcb8 2f2a ddb8 755e ddb8
00000160: 3603 ddb8 e317 ddb8 b9d2 dcb8 31e6 dcb8
00000170: f2ae dcb8 9414 ddb8 92ec dcb8 6dd6 ddb8
00000180: aca2 96b8 2b7b 96b8 0348 96b8 053d 96b8
00000190: 056d 1d3f 5a91 96b8 2089 97b8 22b4 98b8
000001a0: b2ca 98b8 eb4f 98b8 8435 98b8 8708 98b8
000001b0: 651b 98b8 22e9 97b8 9b0e 98b8 8343 98b8
000001c0: 9dd5 98b8 dd80 99b8 33db 99b8 8397 99b8
000001d0: c3ea 98b8 cbb9 98b8 7271 98b8 d232 98b8
000001e0: e1d9 c538 9932 c538 31ac c438 26ba c438
000001f0: 6f79 c438 a978 1d3f 9e00 c538 092e c638
00000200: af51 c638 e7ef c638 2c83 c638 8632 c638
00000210: 162c c638 278e c538 b641 c538 b889 c438
00000220: 1d3d c538 658b c538 f512 c638 0499 c638
00000230: 8e14 c738 866d c638 3d01 c738 3c6e ca38
00000240: 145d efb5 fd8c 0cb6 8a0e f7b5 6d2b f0b5
00000250: 93f2 0bb6 de43 bab4 136b 1d3f c080 4d35
00000260: c270 9f35 8842 b2b5 4db1 eeb5 28b8 5cb5
00000270: 3b58 5db5 30d7 ed33 74d2 e1b4 940c 39b5
00000280: b3b2 51b6 9022 10b6 c0d6 7334 6174 05b5
00000290: 0eb6 7cb5 7299 c333 3fce 0d35 35c4 bcb6
000002a0: 4525 9135 3702 05b5 3a3f 06b6 e4a2 44b5
000002b0: bede 61b5 fa25 98b5 5ad5 31b5 316b 1d3f
000002c0: 9c56 14b5 0834 d634 5ea4 1835 aa51 fb34
000002d0: c00e 6835 8db1 9735 2af1 f934 0843 6635
000002e0: 1c06 9635 006f 15b6 a797 c234 de59 4c35
000002f0: fba0 8335 db2c 9fb4 e8ae dcb5 7e53 8a35
00000300: 497b dcb8 e743 dcb8 4ee9 dbb8 ce14 dcb8
00000310: 150d dcb8 0223 dcb8 a9fa dbb8 dc83 dbb8
00000320: 7a6b 1d3f dfc4 dbb8 5eb2 dbb8 d8ae dbb8
00000330: 419a dbb8 fe6d dbb8 da6e dbb8 da9c dbb8
00000340: df4c dbb8 0d42 dbb8 4fdc dab8 2607 dbb8
00000350: 7b93 dbb8 097f dbb8 f7ec dbb8 a11a dcb8
00000360: 41a8 e038 8f92 e038 baa2 e038 d9b5 e038
00000370: 07b5 e038 31ac e038 cd97 e038 93b1 e038
00000380: bad3 e038 7879 1d3f 40b6 e038 82c7 e038
00000390: 4dc2 e038 aeb5 e038 59a7 e038 70a2 e038
000003a0: cc59 e038 9d49 e038 e461 e038 7497 e038
000003b0: fdd9 e038 d1d6 e038 9012 e138 fa65 e138
000003c0: 8f88 dc38 d7ad dc38 8dbd dc38 d1cd dc38
000003d0: b5d1 dc38 eaa6 dc38 61c9 dc38 e9be dc38
000003e0: 6e91 dc38 559f dc38 5d79 1d3f 77e3 dc38
000003f0: fe0c dd38 88e3 dc38 a9e9 dc38 03d8 dc38
0.6151219 9.3713046e-05 9.369124e-05 9.3940704e-05 9.3432e-05 9.32071e-05 9.304332e-05 9.3421804e-05
9.456358e-05 9.430903e-05 9.479779e-05 9.470539e-05 9.445722e-05 9.480671e-05 9.507732e-05 9.5874e-05
9.562524e-05 9.5160896e-05 9.560892e-05 9.586054e-05 9.588212e-05 9.5821255e-05 9.501178e-05 9.4757284e-05
6.070915e-05 0.61508876 6.008108e-05 6.0061244e-05 5.9045768e-05 5.924257e-05 6.0368962e-05 6.3718035e-05
6.582833e-05 6.5075335e-05 6.426884e-05 6.286016e-05 6.216331e-05 6.236211e-05 6.240844e-05 6.348812e-05
6.3513864e-05 6.418091e-05 6.479227e-05 6.492477e-05 6.330109e-05 6.139918e-05 6.1136045e-05 5.7014837e-05
8.034474e-05 8.1320955e-05 0.61511064 7.968284e-05 7.9961654e-05 8.084322e-05 8.3577266e-05 8.34536e-05
8.1921535e-05 8.0352715e-05 7.81251e-05 7.732972e-05 7.7723016e-05 7.63891e-05 7.616124e-05 7.441479e-05
7.350518e-05 7.7639306e-05 7.549827e-05 7.40064e-05 6.968304e-05 7.0999995e-05 7.3787116e-05 7.814378e-05
-0.00010583234 -0.00010595137 -0.0001059113 0.61491954 -0.00010582998 -0.00010582999 -0.0001057583 -0.000105502135
-0.000105428626 -0.00010536719 -0.00010533736 -0.00010541333 -0.00010537505 -0.00010536208 -0.000105459585 -0.00010555695
-0.00010538699 -0.000105425504 -0.000105296676 -0.00010533294 -0.000105230036 -0.00010541934 -0.00010534482 -0.00010578041
-7.1828574e-05 -7.175499e-05 -7.1659706e-05 -7.163923e-05 0.61494476 -7.179631e-05 -7.2257826e-05 -7.281477e-05
-7.28568e-05 -7.262811e-05 -7.257893e-05 -7.249513e-05 -7.2530274e-05 -7.2436655e-05 -7.250645e-05 -7.2605e-05
-7.2877134e-05 -7.319611e-05 -7.3364376e-05 -7.32383e-05 -7.2916526e-05 -7.2825314e-05 -7.269056e-05 -7.257391e-05
9.434275e-05 9.4031166e-05 9.3780814e-05 9.380681e-05 9.368627e-05 0.6151224 9.393807e-05 9.4499504e-05
9.4565905e-05 9.486061e-05 9.4658084e-05 9.4507865e-05 9.4495874e-05 9.42017e-05 9.4059316e-05 9.3716604e-05
9.405075e-05 9.419656e-05 9.444907e-05 9.469877e-05 9.492888e-05 9.461776e-05 9.48929e-05 9.652643e-05
-1.7833977e-06 -2.0943692e-06 -1.8407165e-06 -1.7894032e-06 -2.085381e-06 -3.469458e-07 0.6149151 7.6555807e-07
1.187924e-06 -1.3281397e-06 -1.7783983e-06 -8.222437e-07 -8.245731e-07 1.1075315e-07 -4.206264e-07 -6.8936174e-07
-3.1247444e-06 -2.147779e-06 2.2709264e-07 -4.9715715e-07 -9.414224e-07 9.1083066e-08 5.282672e-07 -5.625678e-06
1.0814189e-06 -4.9549584e-07 -2.0004359e-06 -7.3252727e-07 -8.4143164e-07 -1.1335935e-06 -6.6248106e-07 0.61491686
-5.526033e-07 3.9898464e-07 5.68636e-07 4.6811812e-07 8.64482e-07 1.1302051e-06 4.6555334e-07 8.577922e-07
1.1177649e-06 -2.226734e-06 3.6245657e-07 7.6126696e-07 9.807112e-07 -2.9648695e-07 -1.6442182e-06 1.0306101e-06
-0.00010513381 -0.00010503065 -0.0001048619 -0.00010494293 -0.00010492854 -0.00010496938 -0.00010489423 -0.000104672945
0.6149212 -0.00010479404 -0.00010475957 -0.00010475301 -0.00010471466 -0.000104632214 -0.000104633815 -0.0001047195
-0.00010457052 -0.00010455037 -0.00010436086 -0.00010444065 -0.00010470204 -0.00010466396 -0.00010486872 -0.000104953775
0.00010712492 0.00010708451 0.000107114625 0.00010715024 0.00010714871 0.000107132255 0.000107094274 0.00010714228
0.000107205895 0.6151347 0.00010715099 0.000107183136 0.00010717344 0.00010714993 0.00010712323 0.00010711409
0.00010697878 0.00010694864 0.00010699386 0.00010709363 0.00010721756 0.00010721165 0.000107322936 0.00010747831
0.000105158535 0.00010522798 0.00010525724 0.00010528754 0.000105294785 0.00010521508 0.00010527927 0.00010525977
0.00010517506 0.000105200954 0.6151331 0.00010532786 0.00010540521 0.000105327985 0.0001053394 0.00010530653

bias f4 [24]
00000000: 611d 59bf 801e 59bf 4020 59bf 3f2b 59bf
00000010: 6e29 59bf 911d 59bf 4e2b 59bf 011d 59bf
00000020: 2a2b 59bf 1d1d 59bf 411d 59bf fe1e 59bf
00000030: f427 59bf 322a 59bf b51d 59bf 9b1f 59bf
00000040: 3b22 59bf 101e 59bf 011d 59bf 2722 59bf
00000050: 021d 59bf 4629 59bf 822a 59bf 192b 59bf
-0.84810454 -0.84812164 -0.84814835 -0.84831613 -0.8482884 -0.8481074 -0.848317 -0.8480988
-0.8483149 -0.8481005 -0.8481026 -0.84812915 -0.8482659 -0.8483001 -0.84810954 -0.8481385
-0.84817857 -0.84811497 -0.8480988 -0.8481774 -0.8480989 -0.84828603 -0.84830487 -0.84831387

weight f4 [24, 96]
00000000: dc98 95bc ea30 a9bd b048 b7bb 0058 bc39
00000010: fce8 eabc a8c4 90bc baea 9b3d 80f4 6fbc
00000020: 485d 51bc 0c24 113d a2d2 813d 50cd 863c
00000030: 90b3 3a3c 357c 6abd c6cb 58bd 68e5 6abc
00000040: ec03 363d de80 49bd 1447 babd 5a5f 88bd
00000050: fac4 9cbd c8b6 51bd 5838 7f3d 4213 21bd
00000060: 1e58 823d 7c0b b6bc 2086 a93b 58fe 053d
00000070: aca3 3abd a2a0 bfbd 8cac a0bd 8cb7 063d
00000080: 5461 983d 6e21 983d 36b1 30bd 0109 60bd
00000090: 20e6 e43b 803c adbc c478 90bd 70e2 a2bc
000000a0: b435 15bd 408f 0c3c 803a 003a 434e a4bd
000000b0: e0ed d3bc 22e1 8abd 760c 00bd 5202 a7bd
000000c0: 30e0 ae3d 0054 8438 f048 4a3d 6a05 be3d
000000d0: 60a7 75bb 305f 413d 2622 ce3d 366f 28bd
000000e0: 2af1 a8bd 983d 083d 003c c3bb fe3f bdbd
000000f0: a0c8 de3c fcd7 0abd 7858 a4bd f401 98bc
00000100: c05f 263d fcf1 1cbd dbfc c5bd 72c3 9ebd
00000110: 1cb1 bdbd ee08 843d 100f 9a3c 3c27 503d
00000120: d864 173c 487c 0b3d 65ca 5ebd 1403 b73d
00000130: 1484 8c3d 9ab5 74bd 4967 64bd 0567 68bd
00000140: d00f dc3b 0ecd 09bd 3045 e73c a8c9 a93d
00000150: f23f 943d 045f 1a3d f5a9 a3bd 3047 c73c
00000160: 11a8 34bd daf8 aebd 0cb4 8c3d 4019 b53d
00000170: d40b 4a3d c0f8 93bc 80ab 73bb a408 293d
00000180: 28ff 0c3c 10de a2bd 70ac 513c d82f 6f3c
00000190: bb47 66bd ec7e 26bd 80ba debb d04b f73c
000001a0: 4c3e 9e3c f718 acbd 28e9 4f3d 5082 f93c
000001b0: f6e0 a83d 3c28 78bd 940f 8c3c 8ec2 af3d
000001c0: 7a59 8a3d e0b6 cfbc 1de2 cfbd d090 a9bb
000001d0: 44bb 123d 9c17 ac3d 08c0 a3bd f6b0 77bd
000001e0: 16ea bbbd dc2b ac3c 4ec6 bf3d 41de cbbd
000001f0: 52f9 38bd 95f1 5fbd e092 0cbd 10fe 8f3b
00000200: 38b2 4b3c ac12 543d f067 ed3c f2dd 93bd
00000210: 4848 b0bc f438 b63c 50b8 b73d ac9b d2bc
00000220: f8cb d0bc b897 533d 20fb 5f3c e836 513d
00000230: c14b 64bd 0010 eabc 98ae 4fbc 6e00 cc3d
00000240: d476 c73d 5ed1 9a3d f6eb 8dbd 94d6 493d
00000250: fce3 92bc f0b8 e0bb 28da 9f3d 51ea 39bd
00000260: 707a 613d b20a 8f3d 382d 693d 30c2 643c
00000270: fa16 b33d c066 593d 6812 b13d 1242 8d3d
00000280: 7a05 a9bd 5a1d ae3d c8ce 683d e4eb b03c
00000290: e63a b3bd 5883 ed3c a33c 32bd 5060 ca3b
000002a0: 528c b53d 73b8 91bd 789e b83c d05a 663c
000002b0: 7043 023d 0cf7 1abd 38a2 ff3c 603e 7a3b
000002c0: 1689 81bd 02b4 c1bd 2a72 41bd 60db 623c
000002d0: a2bb 8c3d ded8 ccbd 2a9c bdbd e464 89bc
000002e0: 90ca 493d 039a abbd eeea c53d 50af 4fbd
000002f0: ff75 c2bd 2cc9 4c3d c8f9 1d3d c5c7 c8bd
00000300: 20fe 1dbc 883c 0d3d 3e3f cd3d 0c4e 453d
00000310: 5285 b73d 4764 8dbd 16db c0bd 842a 0d3d
00000320: d71d cbbd e8f1 e4bc ae16 b93d 68d6 f83c
00000330: 2666 89bd e989 a9bd f409 5fbd 30e7 4e3d
00000340: dc95 cdbc 7a01 20bd 0442 d0bd 98f0 1dbc
00000350: 7033 813b 58fc af3d c05b 583d 56dc 91bd
00000360: 182b 1e3c a02d 0cbd eba7 bdbd 87a1 68bd
00000370: 64c3 08bd f455 8b3d 4885 d03d 40d5 26bb
00000380: ecc0 24bd 6017 3ebb 903a 143c 12d8 07bd
00000390: 9ead 06bd e8cb 96bc 8040 e63c 466e 90bd
000003a0: 449a ecbc 2dee 44bd 507d 283c b719 4fbd
000003b0: 9d46 60bd 9ee2 a33d a039 84bd b0c0 363d
000003c0: 5c3a 3e3d 713b cebd b077 043d 7d06 96bd
000003d0: ecbc 1c3d c468 923d f262 a4bd b097 f53c
000003e0: a8e7 42bc 42ce 9b3d b63d 86bd 983f 583d
000003f0: f92e 3bbd 187c 003d 80b3 a7bd 90d8 0f3c
-0.018261366 -0.08261283 -0.005593382 0.0003592372 -0.028675549 -0.017671898 0.0761313 -0.014645696
-0.012778588 0.035434768 0.06339003 0.016455323 0.01139535 -0.05724736 -0.05292871 -0.014336921
0.044437334 -0.049195163 -0.09095588 -0.06658812 -0.07654758 -0.051199704 0.062309593 -0.039325006
0.06364463 -0.022222273 0.0051734596 0.032713264 -0.045566246 -0.0935681 -0.07845411 0.032889888
0.07440439 0.07428251 -0.04313775 -0.054696087 0.006985441 -0.021147013 -0.07054284 -0.019883364
-0.03642817 0.008579075 0.00048915297 -0.0802274 -0.025870264 -0.06781222 -0.031261884 -0.081547394
0.08538854 6.309897e-05 0.049385965 0.092783764 -0.0037483796 0.04720992 0.10065107 -0.041121684
-0.082491234 0.033261865 -0.0059580803 -0.09240721 0.027195275 -0.033897385 -0.080246866 -0.018555619
0.040618658 -0.03831671 -0.09667369 -0.07752122 -0.092622966 0.06447016 0.01880601 0.050818667
0.009240352 0.03405407 -0.054392237 0.08936134 0.068611294 -0.0597435 -0.055762563 -0.056738872
0.006715752 -0.03364282 0.028231233 0.08290416 0.07238759 0.03768827 -0.07991401 0.024325937
-0.044105593 -0.085435584 0.06870279 0.08842707 0.049327686 -0.01806295 -0.003718108 0.041268006
0.008605756 -0.07952511 0.01279746 0.014598809 -0.05622075 -0.040648386 -0.006797135 0.030187517
0.019316815 -0.08403199 0.050759465 0.030457646 0.08246033 -0.060585245 0.017097272 0.0858203
0.067553475 -0.025355756 -0.101505496 -0.0051747337 0.03582312 0.08402941 -0.079956114 -0.060471497
-0.09175508 0.021017008 0.093639955 -0.09954501 -0.045159645 -0.05467375 -0.03431976 0.0043943003
0.012432627 0.05177562 0.028980225 -0.07220067 -0.021518841 0.022243954 0.08970702 -0.025708996
-0.025487885 0.051658362 0.013670713 0.051077753 -0.055736307 -0.028572083 -0.012675904 0.099610195
0.097394615 0.07559465 -0.069297716 0.049276903 -0.017930977 -0.006857984 0.07805282 -0.045389477
0.055048406 0.06984462 0.05692789 0.0139623135 0.08744617 0.053076506 0.08646089 0.068973675
-0.08252998 0.08501692 0.056837827 0.021596856 -0.08751468 0.028993294 -0.04351486 0.006176032
0.088646546 -0.07115259 0.022536501 0.014059737 0.031802595 -0.03783326 0.031205282 0.003818415
-0.06324975 -0.09458162 -0.047228016 0.013846248 0.068717256 -0.10002302 -0.092583016 -0.016771741
0.049265444 -0.08378985 0.0966395 -0.0507043 -0.09495162 0.04999654 0.038568288 -0.09803728
-0.009643108 0.034481555 0.10021828 0.048170134 0.08960976 -0.06903892 -0.09416787 0.034464374
-0.09917801 -0.027947381 0.09037529 0.030375674 -0.067089364 -0.082782574 -0.05445285 0.050513446
-0.025095873 -0.03906391 -0.101688415 -0.009639882 0.0039428994 0.085930526 0.052821875 -0.07122104
0.009653829 -0.0342232 -0.092605434 -0.05679467 -0.033389464 0.06803504 0.101816714 -0.0025456697
-0.040223047 -0.0029005632 0.0090471655 -0.033165045 -0.032880418 -0.018407777 0.028106928 -0.07052283
-0.028882153 -0.048078705 0.010283783 -0.050561633 -0.054754842 0.08002208 -0.064563036 0.044617355
0.046442375 -0.10069931 0.032340705 -0.07325456 0.038266107 0.07148889 -0.08026685 0.029979557
-0.0118960515 0.076077 -0.06554739 0.052795023 -0.045699093 0.031368345 -0.08188534 0.00877966

bias f4 [24]
00000000: d09a 49bc a0b7 73bb a94f 96bd b976 aebd
00000010: 5ef2 8fbd e437 a9bc 8c65 1cbd e8e7 7f3c
00000020: c0e5 303c 20cd 0f3c 5056 0fbd 32b7 4bbd
00000030: 8810 28bc 98f3 4bbc eeee cc3d 5614 973d
00000040: 5633 b03d 68ef 9c3d e3f2 5ebd 282a be3d
00000050: 834b 40bd 73dd b2bd ad51 c1bd ac54 87bc
-0.012304977 -0.0037188306 -0.07339413 -0.08518738 -0.0702865 -0.020656534 -0.03818278 0.015619256
0.010796964 0.008776933 -0.034994423 -0.049735256 -0.010257848 -0.012448214 0.1000651 0.07376926
0.086035416 0.076628506 -0.054430854 0.092853844 -0.046947014 -0.08733644 -0.094394065 -0.016519867
