training/train_output_old/20230922_scaled_IDQ_softplus_warm/config_30.pt (torch, 80747 bytes, 4 tensors)

weight f4 [24, 24]
0.6038189 7.94008e-06 3.72138e-05 5.3427757e-06 1.431767e-06 3.6113437e-05 -2.2311451e-07 2.8585944e-05
1.1257821e-06 4.625078e-06 4.9235965e-05 1.6218639e-05 1.7544546e-05 -9.0870535e-06 1.0594865e-05 1.6178232e-05
7.4809122e-06 -1.4064426e-06 1.8911769e-06 4.201128e-05 -2.536328e-06 3.6074578e-06 5.135329e-05 2.2431097e-05
9.248081e-06 0.60398 3.5116896e-06 1.1574612e-05 6.147709e-06 2.7710219e-05 1.0727432e-05 2.0852636e-05
3.0364152e-05 2.8722074e-05 1.3625635e-05 1.4310005e-05 -1.6424478e-06 2.95359e-05 -1.0665876e-06 7.4593336e-06
2.1605263e-05 1.328252e-06 2.4309316e-05 1.4078336e-05 1.9805573e-05 4.202042e-06 1.9638712e-05 -3.598998e-07
-8.327104e-06 -5.1520165e-06 0.6031217 5.114817e-06 -8.458918e-06 -2.140041e-07 8.935296e-06 4.4212466e-06
-4.882925e-06 -1.5929845e-06 1.6899838e-05 -1.1333981e-05 2.5363353e-05 1.2104033e-07 8.0382315e-06 4.033359e-06
-4.539242e-06 -2.3868142e-06 5.099066e-06 -2.278166e-07 -3.0533738e-07 2.2181848e-05 3.2427838e-06 -4.040093e-06
4.491599e-06 7.4033424e-06 -1.5280231e-05 0.60278404 -1.0957692e-05 -2.4925164e-05 -8.923342e-06 -1.3115632e-06
-1.3155877e-05 -0.00010071165 1.4752077e-06 5.1452544e-06 3.6461759e-06 -3.1955104e-05 -4.4021224e-05 -1.3954705e-05
-2.1689124e-05 -4.4670564e-05 -6.784637e-05 2.0835614e-07 -0.00013336852 -4.4791203e-05 -4.856124e-06 1.330492e-05
1.078454e-06 -4.094205e-06 -3.1454103e-05 -2.5927164e-05 0.60293144 4.2992788e-06 -7.314272e-06 -1.5134231e-05
8.146826e-07 -0.00018566455 -0.0001504899 -1.4943277e-05 -3.5176996e-05 -2.6131374e-06 -7.1464914e-05 -1.2736092e-05
-2.4845991e-05 -0.0006915972 -0.0017119122 -0.0016289619 -2.2708296e-05 -1.4941607e-05 -3.0348892e-05 -6.605105e-05
-1.1524937e-05 -9.981219e-06 -4.616607e-06 7.9504e-06 -1.8211716e-05 0.6036931 -6.90212e-06 5.0054437e-06
-1.2330511e-05 1.6611057e-05 -1.2872393e-05 -1.0938763e-05 -1.8531662e-06 -8.934175e-06 -1.29737755e-05 -8.422527e-06
5.343698e-06 -1.5283767e-05 4.9352355e-05 -1.5851001e-06 -3.1853747e-06 5.3585222e-06 5.082416e-06 -9.376601e-06
-1.4551813e-06 -5.6331824e-06 -2.3040561e-06 -7.1478958e-06 -8.980912e-06 -1.8092698e-05 0.60318017 -2.0012605e-05
3.80635e-06 8.202611e-06 2.0086234e-06 7.04119e-07 7.224573e-06 -1.1075255e-05 2.4336568e-06 3.0873139e-06
-8.954637e-06 -3.8822845e-06 -2.2559998e-06 -8.894831e-06 -1.8903958e-05 -1.7058728e-06 -2.4972242e-05 -2.0098669e-05
-4.368788e-06 -6.400718e-06 -1.0104792e-05 -1.3222363e-05 -1.0971366e-05 -1.5005638e-05 -1.3557406e-05 0.6033877
-1.8127248e-05 -1.7540426e-05 -2.2141156e-05 -1.0863427e-05 -5.032636e-06 -4.942245e-06 -1.1335115e-05 -2.0949306e-05
-2.4102758e-06 -2.1443746e-05 -8.883514e-06 -2.4649462e-05 -6.400384e-06 3.5179955e-06 -2.3398938e-05 1.7304142e-06
5.0094377e-07 2.0720736e-06 1.6982813e-05 -1.699862e-06 -3.0194558e-06 -4.1018836e-07 1.4066138e-05 7.690755e-06
0.60496885 1.0131462e-05 3.194828e-05 -6.76688e-06 1.1264589e-05 7.1675986e-06 2.2967273e-05 6.1414653e-07
-4.9005002e-06 5.3199697e-06 3.5626243e-05 -2.18904e-06 7.331418e-07 9.641643e-06 5.3390736e-06 -2.8992395e-06
3.216792e-05 4.3027732e-05 1.2151676e-05 2.5245208e-05 3.1750977e-05 3.641215e-05 1.4011184e-05 1.7216142e-05
4.5899767e-05 0.6078892 -9.583528e-07 3.4912373e-05 1.8011579e-05 3.9571423e-05 3.5393597e-05 2.9940547e-05
2.98937e-05 4.570435e-05 -6.590922e-06 1.7308632e-05 2.897468e-05 4.8017886e-05 4.163048e-05 5.1155992e-05
-8.958976e-06 1.4856121e-06 -2.2608592e-06 -9.383563e-06 -1.2477882e-05 1.1926204e-07 -1.7499298e-05 -1.3714378e-05
-9.781421e-06 -8.0528225e-06 0.6047255 -1.6396742e-05 -4.9596374e-06 -2.8671293e-05 1.9685382e-07 -9.330599e-06
00000000: e093 1a3f 6236 0537 0316 1c38 1846 b336
00000010: 242b c035 8278 1738 4091 6fb4 d9cb ef37
00000020: 9419 9735 1e31 9b36 b782 4e38 430d 8837
00000030: a02c 9337 9974 18b7 99c0 3137 7db6 8737
00000040: 8c04 fb36 00c5 bcb5 58d4 fd35 4535 3038
00000050: c935 2ab6 a717 7236 2d64 5738 6a2a bc37
00000060: 3528 1b37 6f9e 1a3f 5eaa 6b36 9430 4237
00000070: 6b48 ce36 3e73 e837 f8f9 3337 b2ec ae37
00000080: 85b6 fe37 2ff0 f037 a899 6437 0115 7037
00000090: 1472 dcb5 ddc3 f737 ac27 8fb5 304b fa36
000000a0: f33c b537 6446 b235 dceb cb37 fe31 6c37
000000b0: 2524 a637 44ff 8c36 d0bd a437 4038 c1b4
000000c0: a4b4 0bb7 7cdf acb6 2f66 1a3f f29f ab36
000000d0: c7ea 0db7 00c9 65b4 cee8 1537 385a 9436
000000e0: 02d8 a3b6 88ce d5b5 20c4 8d37 1427 3eb7
000000f0: 63c3 d437 50f7 0134 f1db 0637 4a56 8736
00000100: cb4f 98b6 282d 20b6 a518 ab36 c09d 74b4
00000110: 40ed a3b4 2813 ba37 9a9e 5936 2290 87b6
00000120: 8bb6 9636 3a6a f836 0c2e 80b7 0e50 1a3f
00000130: eed6 37b7 6216 d1b7 76b5 15b7 f808 b0b5
00000140: 10b8 5cb7 2835 d3b8 c0ff c535 66a5 ac36
00000150: d3b0 7436 8807 06b8 6ea3 38b8 001f 6ab7
00000160: 0af1 b5b7 a75c 3bb8 be48 8eb8 80b8 5f34
00000170: d7d8 0bb9 30de 3bb8 caf1 a2b6 3238 5f37
00000180: 66bf 9035 f460 89b6 96ed 03b8 297e d9b7
00000190: b759 1a3f 8642 9036 1e6d f5b6 07e9 7db7
000001a0: 90b0 5a35 f3ae 42b9 d3cc 1db9 e3b4 7ab7
000001b0: 038b 13b8 5c5d 2fb6 6fdf 95b8 19ad 55b7
000001c0: 5c6c d0b7 4d4c 35ba 3e62 e0ba e482 d5ba
000001d0: b27d beb7 b7ad 7ab7 c095 feb7 e384 8ab8
000001e0: 3a5b 41b7 0275 27b7 5ae8 9ab6 b562 0537
000001f0: 5dc5 98b7 a28b 1a3f c298 e7b6 6ff4 a736
00000200: 24df 4eb7 f957 8b37 82f6 57b7 a185 37b7
00000210: 4eba f8b5 fde3 15b7 f1a9 59b7 7a4e 0db7
00000220: 044e b336 a435 80b7 b0ff 4e38 a0bf d4b5
00000230: 52c4 55b6 5bcd b336 9f89 aa36 3250 1db7
00000240: a64f c3b5 ab04 bdb6 629f 1ab6 f5d7 efb6
00000250: b9ac 16b7 c6c5 97b7 046a 1a3f bee0 a7b7
00000260: 9870 7f36 f29d 0937 e3cb 0636 b002 3d35
00000270: 9c6a f236 dccf 39b7 e851 2336 a62f 4f36
00000280: e03b 16b7 9244 82b6 c865 17b6 023b 15b7
00000290: f193 9eb7 58f5 e4b5 7b7b d1b7 9099 a8b7
000002a0: 9a97 92b6 c0c5 d6b6 c087 29b7 9ed5 5db7
000002b0: a811 38b7 b9c0 7bb7 9e74 63b7 9e77 1a3f
000002c0: f80f 98b7 c723 93b7 c5bb b9b7 1042 36b7
000002d0: 04de a8b6 90d5 a5b6 f32b 3eb7 4bbc afb7
000002e0: 39c0 21b6 18e2 b3b7 670a 15b7 51c6 ceb7
000002f0: e1c2 d6b6 b416 6c36 d648 c4b7 9440 e835
00000300: 9878 0635 f40d 0b36 5076 8e37 d026 e4b5
00000310: dba1 4ab6 dc37 dcb4 9afd 6b37 8b07 0137
00000320: 3ddf 1a3f 4cfa 2937 3400 0638 0e0f e3b6
00000330: 0bfd 3c37 3481 f036 d8a9 c037 d4db 2435
00000340: fa6e a4b6 3182 b236 636d 1538 6ce7 12b6
00000350: 1fcd 4435 8bc2 2137 4b26 b336 8e90 42b6
00000360: 0bec 0638 ad78 3438 0ddf 4b37 acc5 d337
00000370: 5a2c 0538 40b9 1838 9411 6b37 626b 9037
00000380: 8084 4038 a09e 1b3f c0a0 80b5 e06e 1238
00000390: 9217 9737 7ef9 2538 9673 1438 d628 fb37
000003a0: 3bc4 fa37 acb2 3f38 9727 ddb6 0132 9137
000003b0: a70e f337 d066 4938 639c 2e38 5490 5638
000003c0: 824e 16b7 3e65 c735 44b9 17b6 196e 1db7
000003d0: 1858 51b7 800e 0034 75cb 92b7 ce16 66b7
000003e0: e21a 24b7 9c1a 07b7 4acf 1a3f bc8b 89b7
000003f0: f66a a6b6 2283 f0b7 c45e 5334 9e8a 1cb7

bias f4 [24]
-0.83832514 -0.8397396 -0.83953947 -0.85969657 -0.8595407 -0.8419779 -0.85083646 -0.8556107
-0.84309155 -0.84046525 -0.8471787 -0.8486882 -0.85123134 -0.85654974 -0.84287375 -0.846047
-0.8520351 -0.83774465 -0.8372263 -0.8392167 -0.84886783 -0.8483918 -0.8590282 -0.8586728
00000000: 7a9c 56bf 2df9 56bf 0fec 56bf 1315 5cbf
00000010: dc0a 5cbf dd8b 57bf 6bd0 59bf 4e09 5bbf
00000020: d9d4 57bf bb28 57bf b4e0 58bf a143 59bf
00000030: 4cea 59bf d846 5bbf 93c6 57bf 8996 58bf
00000040: f91e 5abf 6f76 56bf 7654 56bf e8d6 56bf
00000050: 674f 59bf 3430 59bf 46e9 5bbf fbd1 5bbf

weight f4 [24, 96]
0.044558316 0.08861275 -0.00088397413 -0.053724658 -0.036107868 0.05535552 0.08848372 -0.07180256
0.098718315 -0.035504833 0.0711433 0.041441143 -0.079937026 -0.009692594 -0.095662996 0.017730907
-0.0032703876 0.028439194 -0.0785934 0.03635247 0.053244784 0.05981697 -0.08635108 0.08742583
0.065382496 0.014041014 -0.037679538 -0.022656798 -0.088751614 -0.07340885 -0.10094347 -0.013144031
-0.094205596 0.101124525 -0.06211442 0.09512024 -0.035970844 -0.078713834 0.0028947592 -0.087836474
-0.08836371 -0.09558334 -0.052859906 0.09820607 0.020486854 -0.015630186 0.07163094 0.075336754
0.05398713 -0.0030782595 -0.04989671 8.545816e-05 -0.08036123 -0.019457623 0.08986911 0.029815257
0.07032345 -0.096428216 0.088774696 -0.060884096 0.0068270043 0.018695414 0.032727823 0.02698788
-0.10175802 0.023086578 -0.09965491 -0.012610532 0.061027154 -0.04788991 0.048428953 0.057098463
-0.06413543 -0.009045027 -0.08322145 0.07405679 0.03669089 -0.03451649 0.049940497 0.0046155676
0.046186537 0.061364025 -0.09082715 -0.0018971264 -0.008161627 0.0020028874 0.0063639656 0.05334778
0.06807388 -0.037830643 -0.09850837 0.057074085 0.074571624 -0.060301457 -0.03693012 0.08342075
-0.09111193 -0.0045127794 -0.074707784 -0.07513155 -0.10064318 0.014097169 0.012022927 0.10187176
0.071633145 -0.068168625 0.041513264 -0.043215863 -0.04280616 0.07836993 -0.0034900531 0.033740968
-0.034417078 0.068905845 0.08411911 0.036346436 -0.009620585 -0.0067723766 0.023429379 0.002487734
0.054657415 -0.055371184 0.07181457 0.08729033 0.05371408 -0.0074134693 -0.08690585 0.07845457
0.06333041 0.01091104 0.06422329 -0.08825108 0.015769757 0.094947904 -0.09854703 -0.011076257
-0.017636076 0.008589022 0.022245899 0.029086068 0.08708727 0.0072088838 0.078695685 -0.002157934
-0.08600251 0.060190514 -0.07799057 -0.08443498 -0.09529383 -0.09495514 0.010481387 0.021394193
-0.067178324 -0.08075431 -0.0017266199 0.04313822 0.06262095 -0.0796631 0.057377398 -0.07782267
0.06375049 -0.0984242 -0.037373252 -0.05617779 -0.0054894313 0.06884475 0.015736997 -0.034326814
0.03810589 0.07914591 0.04864876 0.09239961 -0.07686321 -0.045467075 0.029015645 0.044688433
-0.062035996 -0.060669485 -0.073373854 -0.0829121 -0.09890966 -0.002515182 -0.0031787604 -0.019666635
0.05051829 -0.021517389 -0.038580596 0.06562537 -0.0785553 0.080176696 0.011756837 -0.03397765
0.09079781 0.03201072 -0.08346252 -0.037783466 -0.08952278 0.074925974 0.0508821 -0.042834215
-0.003146708 0.052100733 0.061385155 -0.0031343848 0.053890705 -0.07008291 0.021245249 0.07000488
0.032036424 -0.0009779483 0.079622805 -0.09536454 0.059743404 0.0154766515 -0.09131425 0.027341232
-0.026592873 -0.09333777 -0.055906765 -0.0140815005 0.055302605 -0.09799588 -0.06840457 0.058166742
-0.040237393 0.0774142 0.07765427 -0.015517496 0.0038794428 -0.06090365 -0.012045033 -0.026291125
-0.019250177 -0.034238137 0.062173545 0.09419717 -0.03725706 -0.050180204 0.09116924 -0.064951524
0.05450268 -0.07131584 0.0009783432 -0.06379 -0.07013005 0.07505068 -0.08211215 -0.07903967
-0.0005026683 0.003661275 -0.053041447 0.03050664 -0.009925477 0.058173627 0.015636459 -0.0068357512
00000000: c882 363d 9a7a b53d 80ba 67ba 630e 5cbd
00000010: d8e5 13bd 78bc 623d f436 b53d 380d 93bd
00000020: d42c ca3d 846d 11bd 94b3 913d 30be 293d
00000030: 06b6 a3bd b0cd 1ebc f6ea c3bd 6840 913c
00000040: 0054 56bb 50f9 e83c 94f5 a0bd 54e6 143d
00000050: 3417 5a3d a402 753d d6d8 b0bd 500c b33d
00000060: 42e7 853d 480c 663c dc55 1abd c09a b9bc
00000070: 68c3 b5bd 6157 96bd 73bb cebd 105a 57bc
00000080: ddee c0bd 601a cf3d b16b 7ebd 66ce c23d
00000090: 2a56 13bd b834 a1bd 00b6 3d3b 9ce3 b3bd
000000a0: 08f8 b4bd 33c1 c3bd a183 58bd 4420 c93d
000000b0: 0cd4 a73c e00a 80bc 3eb3 923d 284a 9a3d
000000c0: 9c21 5d3d a0bc 49bb 7e60 4cbd 0038 b338
000000d0: 6e94 a4bd 9865 9fbc 4c0d b83d 203f f43c
000000e0: be05 903d 287c c5bd 82cf b53d 9a61 79bd
000000f0: 10b5 df3b 2027 993c 9c0d 063d b015 dd3c
00000100: 8266 d0bd 1020 bd3c e017 ccbd 689c 4ebc
00000110: 9cf7 793d 3628 44bd 705d 463d 14e0 693d
00000120: 7059 83bd 9831 14bc 0270 aabd 16ab 973d
00000130: 3049 163d 2a61 0dbd 688e 4c3d 303e 973b
00000140: 182e 3d3d d858 7b3d 9603 babd 00a9 f8ba
00000150: 58b8 05bc e042 033b d088 d03b 3483 5a3d
00000160: 526a 8b3d 4ef4 1abd c2be c9bd 84c6 693d
00000170: 02b9 983d a9fe 76bd 0a44 17bd 80d8 aa3d
00000180: e498 babd f0df 93bb 6500 99bd 92de 99bd
00000190: 031e cebd d0f7 663c d0fb 443c 24a2 d03d
000001a0: 66b4 923d fe9b 8bbd d009 2a3d 1e03 31bd
000001b0: 8355 2fbd 6a80 a03d 60b9 64bb f833 0a3d
000001c0: ecf8 0cbd 821e 8d3d a446 ac3d 00e0 143d
000001d0: a89f 1dbc d0ea ddbb f8ee bf3c 4009 233b
000001e0: 74e0 5f3d e5cc 62bd 8413 933d 46c5 b23d
000001f0: 4c03 5c3d b0ec f2bb b2fb b1bd caac a03d
00000200: 60b3 813d 38c4 323c 8087 833d fbbc b4bd
00000210: 942f 813c 0c74 c23d 06d3 c9bd 3079 35bc
00000220: 8879 90bc f8b8 0c3c 083d b63c e845 ee3c
00000230: d05a b23d 8038 ec3b 342b a13d 206c 0dbb
00000240: 1522 b0bd 548a 763d 85b9 9fbd 3fec acbd
00000250: 6929 c3bd d777 c2bd 20ba 2b3c e042 af3c
00000260: ca94 89bd 8462 a5bd c04f e2ba b4b1 303d
00000270: 6a3f 803d 6826 a3bd 9004 6b3d 7e61 9fbd
00000280: 9e8f 823d a192 c9bd b214 19bd af1a 66bd
00000290: b0e0 b3bb 7afe 8c3d e0ea 803c 469a 0cbd
000002a0: ec14 1c3d 4017 a23d ec43 473d 023c bd3d
000002b0: 756a 9dbd af3b 3abd 38b2 ed3c 380b 373d
000002c0: 7519 7ebd 9180 78bd 0845 96bd d2cd a9bd
000002d0: 2691 cabd c0d5 24bb c052 50bb ec1b a1bc
000002e0: 44ec 4e3d 3c45 b0bc b006 1ebd 9866 863d
000002f0: 9ae1 a0bd ae33 a43d c09f 403c 262c 0bbd
00000300: 34f4 b93d ac1d 033d 66ee aabd d6c2 1abd
00000310: b857 b7bd ca72 993d c069 503d ee72 2fbd
00000320: 0039 4ebb 9467 553d 006f 7b3d 406a 4dbb
00000330: 80bc 5c3d a187 8fbd 840a ae3c b85e 8f3d
00000340: a038 033d 802e 80ba 4811 a33d 7c4e c3bd
00000350: 80b5 743d c891 7d3c f702 bbbd b8fa df3c
00000360: 4cd9 d9bc df27 bfbd 7efe 64bd 18b6 66bc
00000370: fc84 623d 10b2 c8bd b217 8cbd 4040 6e3d
00000380: f7cf 24bd 568b 9e3d 3409 9f3d 183d 7ebc
00000390: 403e 7e3b 1b76 79bd 8858 45bc 7c60 d7bc
000003a0: 8cb2 9dbc 4a3d 0cbd b0a9 7e3d 72ea c03d
000003b0: dc9a 18bd c289 4dbd f0b6 ba3d 4e05 85bd
000003c0: 343e 5f3d 0a0e 92bd c03b 803a 55a4 82bd
000003d0: 58a0 8fbd 2cb4 993d 6a2a a8bd 8ddf a1bd
000003e0: 80c5 03ba 00f2 6f3b fd41 59bd 10e9 f93c
000003f0: 789e 22bc 7847 6e3d 0818 803c 70fe dfbb

bias f4 [24]
-0.09783356 -0.025635995 -0.0128604695 0.06962472 0.09065957 0.061331198 0.046599165 0.04320219
-0.06997618 -0.057415564 0.0830829 -0.0021592826 0.028887048 0.0014265031 -0.040970195 -0.01050102
0.090064585 0.019504733 -0.06292868 -0.026024707 -0.086221226 -0.09824908 0.060613707 0.07616003
00000000: f65c c8bd 9402 d2bc b8b4 52bc 6897 8e3d
00000010: baab b93d 6c36 7b3d c4de 3e3d c8f4 303d
00000020: ac4f 8fbd 952c 6bbd 5e27 aa3d c082 0dbb
00000030: 88a4 ec3c 80f9 ba3a 5dd0 27bd 780c 2cbc
00000040: c873 b83d 64c8 9f3c c0e0 80bd c431 d5bc
00000050: c194 b0bd d036 c9bd 1446 783d caf9 9b3d
