training/train_output_old/20230922_scaled_IDQ_softplus_warm/config_16.pt (torch, 80747 bytes, 4 tensors)

weight f4 [24, 24]
000000 c1 75 1d 3f 17 b7 51 38 16 b7 51 38 16 b7 51 38
       0.61507803 5e-05 4.9999995e-05 4.9999995e-05
000010 17 b7 51 38 17 b7 51 38 17 b7 51 38 17 b7 51 38
       5e-05 5e-05 5e-05 5e-05
000020 17 b7 51 38 17 b7 51 38 17 b7 51 38 18 b7 51 38
       5e-05 5e-05 5e-05 5.0000002e-05
000030 17 b7 51 38 18 b7 51 38 18 b7 51 38 17 b7 51 38
       5e-05 5.0000002e-05 5.0000002e-05 5e-05
000040 17 b7 51 38 16 b7 51 38 17 b7 51 38 17 b7 51 38
       5e-05 4.9999995e-05 5e-05 5e-05
000050 17 b7 51 38 17 b7 51 38 16 b7 51 38 18 b7 51 38
       5e-05 5e-05 4.9999995e-05 5.0000002e-05
000060 19 b7 51 38 c1 75 1d 3f 17 b7 51 38 17 b7 51 38
       5.0000006e-05 0.61507803 5e-05 5e-05
000070 16 b7 51 38 17 b7 51 38 18 b7 51 38 16 b7 51 38
       4.9999995e-05 5e-05 5.0000002e-05 4.9999995e-05
000080 17 b7 51 38 18 b7 51 38 17 b7 51 38 16 b7 51 38
       5e-05 5.0000002e-05 5e-05 4.9999995e-05
000090 17 b7 51 38 18 b7 51 38 18 b7 51 38 18 b7 51 38
       5e-05 5.0000002e-05 5.0000002e-05 5.0000002e-05
0000a0 18 b7 51 38 19 b7 51 38 18 b7 51 38 19 b7 51 38
       5.0000002e-05 5.0000006e-05 5.0000002e-05 5.0000006e-05
0000b0 17 b7 51 38 18 b7 51 38 18 b7 51 38 18 b7 51 38
       5e-05 5.0000002e-05 5.0000002e-05 5.0000002e-05
0000c0 18 b7 51 38 18 b7 51 38 c1 75 1d 3f 17 b7 51 38
       5.0000002e-05 5.0000002e-05 0.61507803 5e-05
0000d0 18 b7 51 38 18 b7 51 38 18 b7 51 38 16 b7 51 38
       5.0000002e-05 5.0000002e-05 5.0000002e-05 4.9999995e-05
0000e0 18 b7 51 38 17 b7 51 38 19 b7 51 38 17 b7 51 38
       5.0000002e-05 5e-05 5.0000006e-05 5e-05
0000f0 17 b7 51 38 18 b7 51 38 17 b7 51 38 17 b7 51 38
       5e-05 5.0000002e-05 5e-05 5e-05
000100 17 b7 51 38 17 b7 51 38 17 b7 51 38 16 b7 51 38
       5e-05 5e-05 5e-05 4.9999995e-05
000110 16 b7 51 38 17 b7 51 38 16 b7 51 38 19 b7 51 38
       4.9999995e-05 5e-05 4.9999995e-05 5.0000006e-05
000120 16 b7 51 b8 17 b7 51 b8 17 b7 51 b8 33 6f 1d 3f
       -4.9999995e-05 -5e-05 -5e-05 0.614978
000130 18 b7 51 b8 17 b7 51 b8 17 b7 51 b8 17 b7 51 b8
       -5.0000002e-05 -5e-05 -5e-05 -5e-05
000140 17 b7 51 b8 18 b7 51 b8 17 b7 51 b8 16 b7 51 b8
       -5e-05 -5.0000002e-05 -5e-05 -4.9999995e-05
000150 18 b7 51 b8 16 b7 51 b8 18 b7 51 b8 18 b7 51 b8
       -5.0000002e-05 -4.9999995e-05 -5.0000002e-05 -5.0000002e-05
000160 17 b7 51 b8 18 b7 51 b8 17 b7 51 b8 17 b7 51 b8
       -5e-05 -5.0000002e-05 -5e-05 -5e-05
000170 16 b7 51 b8 16 b7 51 b8 18 b7 51 b8 17 b7 51 b8
       -4.9999995e-05 -4.9999995e-05 -5.0000002e-05 -5e-05
000180 17 b7 51 b8 17 b7 51 b8 19 b7 51 b8 18 b7 51 b8
       -5e-05 -5e-05 -5.0000006e-05 -5.0000002e-05
000190 33 6f 1d 3f 16 b7 51 b8 17 b7 51 b8 17 b7 51 b8
       0.614978 -4.9999995e-05 -5e-05 -5e-05
0001a0 17 b7 51 b8 17 b7 51 b8 17 b7 51 b8 17 b7 51 b8
       -5e-05 -5e-05 -5e-05 -5e-05
0001b0 17 b7 51 b8 17 b7 51 b8 16 b7 51 b8 18 b7 51 b8
       -5e-05 -5e-05 -4.9999995e-05 -5.0000002e-05
0001c0 17 b7 51 b8 16 b7 51 b8 16 b7 51 b8 16 b7 51 b8
       -5e-05 -4.9999995e-05 -4.9999995e-05 -4.9999995e-05
0001d0 18 b7 51 b8 18 b7 51 b8 17 b7 51 b8 17 b7 51 b8
       -5.0000002e-05 -5.0000002e-05 -5e-05 -5e-05
0001e0 16 b7 51 38 17 b7 51 38 17 b7 51 38 17 b7 51 38
       4.9999995e-05 5e-05 5e-05 5e-05
0001f0 17 b7 51 38 c1 75 1d 3f 18 b7 51 38 17 b7 51 38
       5e-05 0.61507803 5.0000002e-05 5e-05
000200 16 b7 51 38 16 b7 51 38 18 b7 51 38 16 b7 51 38
       4.9999995e-05 4.9999995e-05 5.0000002e-05 4.9999995e-05
000210 18 b7 51 38 18 b7 51 38 17 b7 51 38 18 b7 51 38
       5.0000002e-05 5.0000002e-05 5e-05 5.0000002e-05
000220 17 b7 51 38 16 b7 51 38 16 b7 51 38 17 b7 51 38
       5e-05 4.9999995e-05 4.9999995e-05 5e-05
000230 17 b7 51 38 18 b7 51 38 17 b7 51 38 17 b7 51 38
       5e-05 5.0000002e-05 5e-05 5e-05
000240 11 b7 51 38 0f b7 51 38 0f b7 51 38 0f b7 51 38
       4.9999977e-05 4.999997e-05 4.999997e-05 4.999997e-05
000250 0d b7 51 38 0c b7 51 38 c1 75 1d 3f 0f b7 51 38
       4.9999962e-05 4.999996e-05 0.61507803 4.999997e-05
000260 10 b7 51 38 11 b7 51 38 12 b7 51 38 12 b7 51 38
       4.9999973e-05 4.9999977e-05 4.999998e-05 4.999998e-05
000270 12 b7 51 38 12 b7 51 38 13 b7 51 38 13 b7 51 38
       4.999998e-05 4.999998e-05 4.9999984e-05 4.9999984e-05
000280 13 b7 51 38 13 b7 51 38 14 b7 51 38 13 b7 51 38
       4.9999984e-05 4.9999984e-05 4.9999988e-05 4.9999984e-05
000290 13 b7 51 38 12 b7 51 38 13 b7 51 38 0a b7 51 38
       4.9999984e-05 4.999998e-05 4.9999984e-05 4.999995e-05
0002a0 0d b7 51 38 0b b7 51 38 0a b7 51 38 0b b7 51 38
       4.9999962e-05 4.9999955e-05 4.999995e-05 4.9999955e-05
0002b0 0a b7 51 38 0b b7 51 38 0b b7 51 38 c1 75 1d 3f
       4.999995e-05 4.9999955e-05 4.9999955e-05 0.61507803
0002c0 0c b7 51 38 0d b7 51 38 0c b7 51 38 0c b7 51 38
       4.999996e-05 4.9999962e-05 4.999996e-05 4.999996e-05
0002d0 0d b7 51 38 0d b7 51 38 0c b7 51 38 0d b7 51 38
       4.9999962e-05 4.9999962e-05 4.999996e-05 4.9999962e-05
0002e0 0e b7 51 38 0f b7 51 38 10 b7 51 38 0f b7 51 38
       4.9999966e-05 4.999997e-05 4.9999973e-05 4.999997e-05
0002f0 0f b7 51 38 10 b7 51 38 0f b7 51 38 0f b7 51 38
       4.999997e-05 4.9999973e-05 4.999997e-05 4.999997e-05
000300 17 b7 51 b8 18 b7 51 b8 17 b7 51 b8 16 b7 51 b8
       -5e-05 -5.0000002e-05 -5e-05 -4.9999995e-05
000310 16 b7 51 b8 16 b7 51 b8 16 b7 51 b8 17 b7 51 b8
       -4.9999995e-05 -4.9999995e-05 -4.9999995e-05 -5e-05
000320 33 6f 1d 3f 18 b7 51 b8 18 b7 51 b8 16 b7 51 b8
       0.614978 -5.0000002e-05 -5.0000002e-05 -4.9999995e-05
000330 18 b7 51 b8 18 b7 51 b8 17 b7 51 b8 18 b7 51 b8
       -5.0000002e-05 -5.0000002e-05 -5e-05 -5.0000002e-05
000340 18 b7 51 b8 17 b7 51 b8 16 b7 51 b8 17 b7 51 b8
       -5.0000002e-05 -5e-05 -4.9999995e-05 -5e-05
000350 17 b7 51 b8 17 b7 51 b8 17 b7 51 b8 17 b7 51 b8
       -5e-05 -5e-05 -5e-05 -5e-05
000360 17 b7 51 38 18 b7 51 38 17 b7 51 38 18 b7 51 38
       5e-05 5.0000002e-05 5e-05 5.0000002e-05
000370 18 b7 51 38 17 b7 51 38 18 b7 51 38 18 b7 51 38
       5.0000002e-05 5e-05 5.0000002e-05 5.0000002e-05
000380 18 b7 51 38 c1 75 1d 3f 17 b7 51 38 16 b7 51 38
       5.0000002e-05 0.61507803 5e-05 4.9999995e-05
000390 18 b7 51 38 18 b7 51 38 17 b7 51 38 15 b7 51 38
       5.0000002e-05 5.0000002e-05 5e-05 4.999999e-05
0003a0 16 b7 51 38 18 b7 51 38 18 b7 51 38 18 b7 51 38
       4.9999995e-05 5.0000002e-05 5.0000002e-05 5.0000002e-05
0003b0 18 b7 51 38 19 b7 51 38 16 b7 51 38 16 b7 51 38
       5.0000002e-05 5.0000006e-05 4.9999995e-05 4.9999995e-05
0003c0 17 b7 51 38 19 b7 51 38 17 b7 51 38 18 b7 51 38
       5e-05 5.0000006e-05 5e-05 5.0000002e-05
0003d0 17 b7 51 38 17 b7 51 38 18 b7 51 38 17 b7 51 38
       5e-05 5e-05 5.0000002e-05 5e-05
0003e0 17 b7 51 38 18 b7 51 38 c1 75 1d 3f 17 b7 51 38
       5e-05 5.0000002e-05 0.61507803 5e-05
0003f0 17 b7 51 38 17 b7 51 38 18 b7 51 38 17 b7 51 38
       5e-05 5e-05 5.0000002e-05 5e-05

bias f4 [24]
000000 01 21 59 bf 01 21 59 bf 01 21 59 bf 8f 27 59 bf
       -0.84815985 -0.84815985 -0.84815985 -0.84825987
000010 8f 27 59 bf 01 21 59 bf 8f 27 59 bf 01 21 59 bf
       -0.84825987 -0.84815985 -0.84825987 -0.84815985
000020 8f 27 59 bf 01 21 59 bf 01 21 59 bf 01 21 59 bf
       -0.84825987 -0.84815985 -0.84815985 -0.84815985
000030 8f 27 59 bf 8f 27 59 bf 01 21 59 bf 01 21 59 bf
       -0.84825987 -0.84825987 -0.84815985 -0.84815985
000040 01 21 59 bf 01 21 59 bf 01 21 59 bf 01 21 59 bf
       -0.84815985 -0.84815985 -0.84815985 -0.84815985
000050 01 21 59 bf 8f 27 59 bf 8f 27 59 bf 8f 27 59 bf
       -0.84815985 -0.84825987 -0.84825987 -0.84825987

weight f4 [24, 96]
000000 69 d7 bd bd cc 53 bf bc 20 37 65 bd 50 35 6d 3d
       -0.09269602 -0.023355387 -0.055960774 0.05791217
000010 46 7f 76 bd c6 ef 82 bd 0e 2b a8 3d b2 ce cd 3d
       -0.06017997 -0.063933894 0.08211337 0.100491896
000020 38 82 09 bc 2c 67 49 3d f8 7c 12 bc d4 1f c4 bc
       -0.008392863 0.049170658 -0.008940928 -0.023940958
000030 4c ec 74 3d 88 0e 72 bd 50 d2 8a 3b 03 b0 cd bd
       0.059795663 -0.05909589 0.004236497 -0.10043337
000040 10 f6 36 bc 9b 8b c0 bd cc c8 6a 3d 6c e1 5e 3d
       -0.011167064 -0.09401628 0.0573204 0.054414198
000050 3e 77 80 3d 0c 5a a2 3d 16 49 98 3d 60 5a d0 bc
       0.06272744 0.07927331 0.07435815 -0.02543372
000060 60 e7 57 3d 94 cb cf 3d 04 77 25 3d d7 a6 a9 bd
       0.05271089 0.10146251 0.040396705 -0.08283775
000070 7c f7 b5 bd e0 2c 40 3d f2 4a 03 bd 08 bd 96 bc
       -0.088850945 0.046917796 -0.032053895 -0.018400684
000080 ee 2b 35 bd ee 0b b3 3d 20 f5 9b 3d a8 fe e6 3c
       -0.044231348 0.0874251 0.07615113 0.028197601
000090 00 c0 96 ba d9 1b 38 bd 48 f1 9f bd 46 fd 1a bd
       -0.0011501312 -0.044948433 -0.078096926 -0.037839197
0000a0 dc f2 33 3d cc e1 4e 3d f2 2f 05 bd a5 e7 55 bd
       0.04393278 0.050508305 -0.032516427 -0.052222867
0000b0 7d 2a c5 bd 2d 08 9a bd f8 7f a8 bc 48 00 b4 bd
       -0.096272446 -0.07521091 -0.020568833 -0.08789116
0000c0 00 68 a0 ba 10 c2 e5 3c 14 d9 6b 3d d0 b3 b9 bb
       -0.0012238026 0.028046638 0.05758007 -0.0056671873
0000d0 ab c4 af bd a0 85 1d 3d 50 57 ab bb 20 55 3f 3c
       -0.08582433 0.038457513 -0.0052289143 0.01167801
0000e0 76 53 a3 3d f0 33 1a 3d 9c a9 46 3d 20 43 e7 3b
       0.07974903 0.037647188 0.048501596 0.0070575625
0000f0 de 67 81 bd 94 db 02 bd 80 3a 7a bc c6 88 8d bd
       -0.06318639 -0.031947687 -0.015272737 -0.06910853
000100 51 e3 c9 bd 50 13 b0 bc 1e 56 1e bd 80 68 c8 ba
       -0.0985781 -0.021493584 -0.038656346 -0.0015289932
000110 d0 be ab bd 54 53 bb 3d 00 e2 84 ba 07 c0 a7 bd
       -0.08386004 0.09146753 -0.0010138154 -0.08190923
000120 a0 f3 a8 3d 10 08 19 3c 4d 33 cd bd 9b 92 59 bd
       0.08249593 0.009340301 -0.100195505 -0.05311833
000130 2a c5 8e 3d 0e 56 ac bd f8 5d b1 bc 34 5c 9f bd
       0.069712 -0.08414851 -0.021651253 -0.07781258
000140 30 b6 25 3d fd 61 c1 bd f2 de 88 bd 00 0a 3e 3a
       0.04045695 -0.09442518 -0.066831484 0.0007249415
000150 6e 65 6b bd 2a 32 84 bd 6c 04 6a 3d 82 65 b8 3d
       -0.057469778 -0.064548805 0.057133123 0.09003736
000160 38 28 d4 3c e4 8f 13 3d 08 c1 3a 3d aa 8d cb 3d
       0.025898084 0.036025897 0.045594245 0.0993913
000170 60 ba c3 3c 7c ea a7 bd ec 2c 53 3d 84 8e 8e bc
       0.023892581 -0.08199021 0.051556513 -0.017401941
000180 c3 4e c6 bd f5 14 8a bd df 48 9e bd 3a 01 9d 3d
       -0.09682991 -0.067422785 -0.07728743 0.076662496
000190 20 f6 b6 3b 80 9f e1 bc 50 83 d9 bb e4 3d 50 3d
       0.0055835396 -0.027541876 -0.006637968 0.050840273
0001a0 27 f0 a4 bd 10 5f e0 3c 0c 88 cf 3d 48 9f 0c bc
       -0.08053618 0.02738908 0.10133371 -0.0085828975
0001b0 60 70 69 3d 40 84 ac bc 00 fa 81 bc 54 b4 b4 3d
       0.056991935 -0.021059155 -0.01586628 0.08823457
0001c0 8e f3 4e bd e0 ea e5 3b a0 a2 9e 3d 10 cd be 3c
       -0.05052524 0.0070165247 0.07745862 0.02329114
0001d0 ec ed cc bd 96 2c a3 bd e6 a4 98 bd cc 96 f5 bc
       -0.100063175 -0.079674885 -0.07453327 -0.029979132
0001e0 66 9b 90 bd 0c c9 97 3d 1c 5d 89 bc 54 53 af 3c
       -0.0706089 0.074113935 -0.01676803 0.021402039
0001f0 4c 99 76 bd 94 68 88 bd 7a 54 62 bd 29 b2 2a bd
       -0.06020479 -0.06660572 -0.055256344 -0.041673813
000200 40 8f 05 3c 84 b7 9b bd c0 7d 47 3d 57 7d bb bd
       0.008151829 -0.07603362 0.04870391 -0.09154766
000210 ef 75 b4 bd 50 a1 ac 3c 78 46 61 bc 83 40 86 bd
       -0.088115565 0.021073014 -0.013749711 -0.065552734
000220 26 e5 2f bd ec 72 98 3d f7 75 5d bd d4 d6 c5 3d
       -0.042943142 0.074437946 -0.05406758 0.09660116
000230 10 ef 30 bc 48 af b4 bd e0 b2 d6 bc 40 96 51 3d
       -0.010799184 -0.08822495 -0.026208341 0.05116868
000240 d0 85 22 bc 5b 4c 9d bd f4 73 ce 3d f8 d5 c7 3c
       -0.009919599 -0.07680579 0.1008071 0.02439402
000250 58 60 8c 3c c8 c7 0d 3d f8 eb 1b bc 78 b7 8d bd
       0.017135784 0.034614354 -0.009516709 -0.069197595
000260 fe 9f 04 bd e8 19 81 3d 1a fd b2 bd 14 4d 35 3d
       -0.032379143 0.06303769 -0.087396815 0.04426296
000270 8c 04 b3 3d fe b7 03 bd 70 9d 1c 3d c0 cf 8e ba
       0.087411016 -0.03215789 0.03823608 -0.0010895655
000280 e0 ff 1c 3d cf 85 b5 bd 94 6d a7 3d 78 00 11 3d
       0.03832996 -0.088634126 0.08175197 0.035400838
000290 52 a8 8d bd b0 d0 56 3d 84 88 24 3d 79 b2 c5 bd
       -0.0691687 0.052445114 0.040169254 -0.096531816
0002a0 12 5e cb 3d 9c 5d 61 3d ac 37 35 3d 74 12 c4 bc
       0.09930052 0.055020913 0.044242546 -0.02393458
0002b0 b4 f6 a2 3d 7c 6b a7 bd cc b8 bb 3d b6 a5 8c 3d
       0.07957211 -0.08174798 0.091661066 0.06867544
0002c0 ba 5c bc 3d 34 7e d0 bc 86 2d 3a bd 6c ab 7c 3d
       0.09197374 -0.025450803 -0.04545357 0.06168692
0002d0 d4 d4 32 3d a0 17 3c bc e9 a1 b6 bd 00 7f 84 b9
       0.04366 -0.011480242 -0.08917601 -0.00025271624
0002e0 d0 7c f4 3c 72 32 b6 3d 80 eb d1 3c 0c 09 1f bd
       0.029844671 0.088963404 0.02562499 -0.038826987
0002f0 e4 17 5c 3d 52 87 b3 bd 44 50 bf 3d d2 5a 72 bd
       0.05373372 -0.08766045 0.09341481 -0.059168644
000300 1c 91 b9 3d 7a 25 98 3d 1c 94 f2 bc 28 61 03 bd
       0.090608805 0.07429023 -0.02961164 -0.032075077
000310 68 d9 6c 3d 7c 12 8f 3d b2 5d 91 bd 10 f0 a9 3c
       0.057824522 0.069859475 -0.07097949 0.020744354
000320 f2 bb a5 3d 59 1e 8a bd 66 d5 87 bd 8f 8e 70 bd
       0.08092488 -0.067440696 -0.066324994 -0.058729704
000330 77 3b 5a bd 80 30 cb 3a 25 72 b1 bd 08 5d d7 3c
       -0.053279366 0.0015502125 -0.086643495 0.026289478
000340 b8 c1 6c bd ae ed a2 3d e0 cc 4e bd d4 3d ac 3d
       -0.057801932 0.0795549 -0.050488353 0.0841023
000350 14 74 8a bd c5 bd ac bd 5c a9 a9 bd 00 e0 06 3d
       -0.067604214 -0.08434633 -0.08284256 0.032928467
000360 b8 c6 1f 3d 76 91 89 bd d0 ab 77 bc 98 e7 87 3d
       0.039007872 -0.067171976 -0.015116647 0.0663597
000370 39 d8 23 bd 4c 62 34 3d 8a 80 cb bd 2e ad 99 bd
       -0.040001128 0.044039056 -0.09936626 -0.075037345
000380 64 77 c4 3d 10 18 bc 3d d0 18 66 bc ce 68 ce 3d
       0.095930845 0.09184277 -0.014044002 0.10078584
000390 0c 8b bc bc 16 2c 1c bd e9 15 74 bd c0 eb c7 3a
       -0.023015521 -0.03812798 -0.059591208 0.0015252754
0003a0 d0 6b 8d bd 28 b8 b0 bc 38 db 07 3d 80 e6 2b 3a
       -0.06905329 -0.021572188 0.033168048 0.00065574795
0003b0 d4 a4 a1 bd cb 60 44 bd 60 76 60 3b c8 ca 7c bd
       -0.078927666 -0.04794387 0.0034250244 -0.061716825
0003c0 82 19 93 bd 70 da 87 bd 38 39 f0 3c 88 a8 b0 bd
       -0.071825996 -0.066334605 0.029324159 -0.08625895
0003d0 94 ce 2b 3d 70 6f f2 3b 80 8f d5 bb 63 25 46 bd
       0.041945055 0.0073985383 -0.0065173507 -0.0483755
0003e0 ab 84 96 bd 74 5c 75 3d 1c 8b a5 3d c2 4a 13 bd
       -0.07349523 0.059902623 0.08083174 -0.035959966
0003f0 3b 48 91 bd 48 ab b4 bd ac d6 98 bc 88 6c ce 3d
       -0.07093855 -0.08821732 -0.018657051 0.100792944

bias f4 [24]
000000 62 32 7f bd ba 61 cf 3d 3c 20 73 bd 00 0c e5 3a
       -0.06230391 0.10126062 -0.059356913 0.001747489
000010 f8 f9 83 3c e4 be 85 3c 0e bd 94 3d 90 5f 8f bc
       0.016110405 0.016326375 0.07262622 -0.017501622
000020 5e 6c ce bd 10 26 b0 3b 24 1d 54 3d 32 df c0 3d
       -0.10079263 0.005375631 0.051785603 0.09417571
000030 c8 85 aa bd e8 9b 59 bd 13 0f a2 bd b8 7e 17 3d
       -0.08326298 -0.0531272 -0.079130314 0.036986083
000040 e0 73 2e bc e8 6c ba 3d 58 38 a1 3d ca fa 8c 3d
       -0.010647744 0.091028035 0.07872075 0.06883772
000050 c4 91 4c 3d 28 82 0f bc c5 63 71 bd 3a 2e 4c bd
       0.0499437 -0.008759059 -0.05893304 -0.049848773
