training/train_output/20230922_scaled_IDQ_linear_warm/config_6.pt (torch, 77355 bytes, 2 tensors)

weight f4 [24, 96]
-3.6203426e-05 -9.5601106e-05 -0.000113962975 1.000005 -3.6203426e-05 -0.00026689534 -0.000422218 2.3404915e-05
-3.6203426e-05 -0.00028582383 -0.0004389648 2.0179927e-05 -3.6203426e-05 -0.0003723716 -0.00039285742 2.1625008e-05
-3.6203426e-05 -0.0003918442 -0.00034369229 2.3499224e-06 -3.6203426e-05 -0.00039998707 -0.00042469797 -1.1646296e-05
-3.6203426e-05 -0.00014891943 -0.00022438589 3.5313788e-06 -3.6203426e-05 0.00013091331 -0.00026823717 2.2165048e-05
-3.6203426e-05 0.00020608632 -0.0001862408 4.688688e-05 -3.6203426e-05 0.0002221349 -0.00015841157 5.3713542e-05
-3.6203426e-05 0.0002400557 -0.00034901462 6.941671e-05 -3.6203426e-05 0.00024745695 -0.00018575873 7.239541e-05
-3.6203426e-05 0.0002558307 -0.00011266757 7.407505e-05 -3.6203426e-05 0.00023119696 -0.000206317 6.9296744e-05
-3.6203426e-05 0.00022304026 -0.0002907208 7.8601806e-05 -3.6203426e-05 0.00021558172 -0.0003905034 0.000101646925
-3.6203426e-05 0.00021666875 -0.00049527205 0.00010266015 -3.6203426e-05 0.0002588843 3.655351e-05 9.835425e-05
-3.6203426e-05 0.00030548807 0.0002061425 0.000112587484 -3.6203426e-05 0.00032175222 0.00030758278 0.00012481277
-3.6203426e-05 0.00030142465 -9.800575e-05 0.00013287464 -3.6203426e-05 0.0002505752 -0.00010933384 0.00011314871
-3.6203426e-05 0.00018656005 1.3005545e-05 8.7512344e-05 -3.6203426e-05 0.00022056277 -6.3735315e-05 4.988132e-05
0.00017457272 0.00031172682 6.795993e-05 0.00017736641 0.00017457272 0.00033140922 -0.0005273378 1.0001585
0.00017457272 0.0003043841 -0.00046257873 0.00019418822 0.00017457272 0.00025213038 -0.00031030911 0.00013568831
0.00017457272 0.00024200698 -0.00032192588 0.00014266907 0.00017457272 0.00021737859 -0.0006835305 0.00013303827
0.00017457272 0.0001560742 -0.0002765967 0.00013722846 0.00017457272 0.00011774735 -0.00028710533 8.298044e-05
0.00017457272 0.0001220726 -7.5550495e-05 8.225996e-05 0.00017457272 0.00015229828 -4.650193e-05 9.805505e-05
0.00017457272 0.0001702713 7.49383e-05 0.00011634131 0.00017457272 0.00018788807 8.5650216e-05 0.00013531171
0.00017457272 0.00020614498 4.9140483e-05 0.00015530147 0.00017457272 0.00021843068 7.677374e-06 0.00016159419
0.00017457272 0.00019092031 -1.7375189e-06 0.00019155686 0.00017457272 0.00017980066 -9.65718e-06 0.0002350472
0.00017457272 0.00017635316 0.00011668606 0.00015424208 0.00017457272 0.00018274346 1.3320484e-05 0.00013307437
0.00017457272 0.00019380426 0.00011027801 0.00013438165 0.00017457272 0.00020426585 0.00010830492 0.00013313403
0.00017457272 0.00022142522 0.00012781651 0.00016402951 0.00017457272 0.00024862052 0.00024174387 0.00018886919
0.00017457272 0.00019401977 9.226412e-05 0.00018443454 0.00017457272 0.0001187461 0.00024923784 -3.3866057e-05
0.00020053207 0.00033451602 0.00033062976 0.00034322316 0.00020053207 0.0003340024 0.0004186749 0.0003778839
0.00020053207 0.00035198845 0.0002805736 1.0003765 0.00020053207 0.00050059427 0.00031552967 0.00040198732
0.00020053207 0.0005843157 0.0002937777 0.00041226012 0.00020053207 0.0005167374 0.0005579918 0.00039513604
0.00020053207 0.0004183257 0.00028963838 0.00034287805 0.00020053207 0.00023459643 0.00017113761 0.0002810679
0.00020053207 0.00015274127 0.00021284747 0.0002534815 0.00020053207 0.0001323855 0.00024242967 0.00024170507
0.00020053207 0.000117239535 0.00036941585 0.0002302369 0.00020053207 0.00010943671 0.00039304723 0.00022981138
0.00020053207 0.0001001683 0.00037716897 0.00023601037 0.00020053207 0.00012809916 0.00032458958 0.0002529266
0.00020053207 0.00013554838 0.0002713101 0.00025025997 0.00020053207 0.00012887307 0.00015745127 0.00023086162
00000000: 22d9 17b8 747d c8b8 68ff eeb8 2a00 803f
00000010: 22d9 17b8 16ee 8bb9 245d ddb9 ac55 c437
00000020: 22d9 17b8 a0da 95b9 dc24 e6b9 1048 a937
00000030: 22d9 17b8 df3a c3b9 6ef8 cdb9 5a67 b537
00000040: 22d9 17b8 7070 cdb9 9931 b4b9 5cb3 1d36
00000050: 22d9 17b8 5bb5 d1b9 ffa9 deb9 7664 43b7
00000060: 22d9 17b8 4127 1cb9 2149 6bb9 a0fc 6c36
00000070: 22d9 17b8 c645 0939 2fa2 8cb9 14ef b937
00000080: 22d9 17b8 e018 5839 a249 43b9 67a8 4438
00000090: 22d9 17b8 e2ec 6839 481b 26b9 7a4a 6138
000000a0: 22d9 17b8 76b7 7b39 f3fb b6b9 d093 9138
000000b0: 22d9 17b8 1cbd 8139 3bc8 42b9 fdd2 9738
000000c0: 22d9 17b8 0421 8639 f147 ecb8 bd58 9b38
000000d0: 22d9 17b8 766d 7239 cc56 58b9 6853 9138
000000e0: 22d9 17b8 eadf 6939 e36b 98b9 06d7 a438
000000f0: 22d9 17b8 c70d 6239 7bbc ccb9 472b d538
00000100: 22d9 17b8 9331 6339 25d5 01ba 404b d738
00000110: 22d9 17b8 ddba 8739 0851 1938 8943 ce38
00000120: 22d9 17b8 ea29 a039 f527 5839 f21c ec38
00000130: 22d9 17b8 dab0 a839 1043 a139 2ce0 0239
00000140: 22d9 17b8 8808 9e39 7088 cdb8 4454 0b39
00000150: 22d9 17b8 a25f 8339 294a e5b8 404a ed38
00000160: 22d9 17b8 559f 4339 6432 5a37 d586 b738
00000170: 22d9 17b8 de46 6739 a3a9 85b8 a937 5138
00000180: 820d 3739 446f a339 b685 8e38 6ffb 3939
00000190: 820d 3739 fec0 ad39 0a3d 0aba 3205 803f
000001a0: 820d 3739 be95 9f39 4486 f2b9 019f 4b39
000001b0: 820d 3739 5e30 8439 fcb0 a2b9 8e47 0e39
000001c0: 820d 3739 41c3 7d39 29c8 a8b9 7099 1539
000001d0: 820d 3739 1ff0 6339 f52e 33ba 3080 0b39
000001e0: 820d 3739 d9a7 2339 2e04 91b9 fce4 0f39
000001f0: 820d 3739 21ef f638 a086 96b9 c905 ae38
00000200: 820d 3739 9d00 0039 dd70 9eb8 fb82 ac38
00000210: 820d 3739 42b2 1f39 110b 43b8 e7a2 cd38
00000220: 820d 3739 db8a 3239 3228 9d38 44fc f338
00000230: 820d 3739 d203 4539 1c9f b338 76e2 0d39
00000240: 820d 3739 9f28 5839 311c 4e38 6cd8 2239
00000250: 820d 3739 8a0a 6539 12ce 0037 9c71 2939
00000260: 820d 3739 c831 4839 b234 e9b5 a7dc 4839
00000270: 820d 3739 df88 3c39 4605 22b7 0177 7639
00000280: 820d 3739 71eb 3839 5ab5 f438 0bbc 2139
00000290: 820d 3739 d39e 3f39 0b7b 5f37 e189 0b39
000002a0: 820d 3739 ef37 4b39 0e45 e738 cde8 0c39
000002b0: 820d 3739 3230 5639 c321 e338 e599 0b39
000002c0: 820d 3739 612e 6839 7c06 0639 56ff 2b39
000002d0: 820d 3739 4859 8239 a07c 7d39 300b 4639
000002e0: 820d 3739 c971 4b39 ec7d c138 c564 4139
000002f0: 820d 3739 5407 f938 23ac 8239 670b 0eb8
00000300: eb45 5239 fb61 af39 6058 ad39 a2f2 b339
00000310: eb45 5239 0b1d af39 9881 db39 b81e c639
00000320: eb45 5239 178b b839 f319 9339 560c 803f
00000330: eb45 5239 503a 033a ad6d a539 d3c1 d239
00000340: eb45 5239 c32c 193a 2d06 9a39 9e24 d839
00000350: eb45 5239 a975 073a 3246 123a 432a cf39
00000360: eb45 5239 ba52 db39 9bda 9739 50c4 b339
00000370: eb45 5239 00fe 7539 6773 3339 4c5c 9339
00000380: eb45 5239 2c29 2039 cf2f 5f39 b6e5 8439
00000390: eb45 5239 f6d0 0a39 b834 7e39 3672 7d39
000003a0: eb45 5239 7fde f538 28ae c139 bf6b 7139
000003b0: eb45 5239 6381 e538 e811 ce39 86f9 7039
000003c0: eb45 5239 7211 d238 c3be c539 8d79 7739
000003d0: eb45 5239 5b52 0639 ad2d aa39 3c9b 8439
000003e0: eb45 5239 fe21 0e39 a03e 8e39 5335 8339
000003f0: eb45 5239 1a22 0739 8119 2539 7213 7239

bias f4 [24]
0.00041520814 8.551269e-05 -0.00020056292 -0.0005018774 -0.0006398131 0.00087293267 -0.0002944936 -0.0007722046
-6.668331e-05 0.00022570409 -2.43799e-05 7.113666e-05 5.241759e-05 -0.0001310361 0.0002926693 0.00032154997
0.00016154582 0.000637105 0.0004313801 0.00021918875 -0.0001915714 -0.00018672898 -0.00032392095 -0.00060119736
00000000: 4bb0 d939 4755 b338 334e 52b9 6c90 03ba
00000010: 21b9 27ba 85d5 643a 4366 9ab9 c66d 4aba
00000020: 54d8 8bb8 fbaa 6c39 7083 ccb7 342f 9538
00000030: f5da 5b38 bc66 09b9 6971 9939 b595 a839
00000040: a064 2939 6503 273a db2a e239 08d6 6539
00000050: 8ee0 48b9 aecc 43b9 efd3 a9b9 ac99 1dba
