training/train_output/IDQ_softplus_cold/config_18.pt (torch, 81003 bytes, 4 tensors)

weight f4 [24, 24]
0.2086311 -0.10353634 -0.07201315 -0.18591736 0.058342412 -0.073643014 0.20175183 -0.10400532
-0.07831715 -0.12979685 0.11876754 -0.14636809 0.06681873 0.13686106 0.17748708 0.099911
-0.18038611 0.1630552 -0.11247429 0.21048504 0.14391585 -0.1357073 -0.07200207 0.13506658
0.04733546 -0.057771698 0.04715078 -0.15819162 0.052581176 -0.047375973 -0.078703225 0.027241895
-0.013499407 0.18193652 0.018834814 -0.005100522 0.090043746 -0.121147476 0.07622264 0.13649999
0.028617602 -0.1057472 0.030976301 -0.0018445436 0.008296591 -0.1160292 -0.044353694 0.015763663
-0.15081502 0.08955796 0.15980175 0.01652295 0.068759575 0.06481087 0.12323968 0.120581694
-0.060026783 0.024543863 -0.06816419 -0.0844106 -0.19449653 -0.04431281 -0.069059566 0.19516477
0.17764303 0.17784415 0.10459868 -0.0881356 -0.07978339 -0.046888005 -0.19787301 0.1993103
0.14932697 0.1067495 0.1939937 -0.10825939 0.15689608 -0.16911706 0.10766372 0.05371101
0.17103261 0.11525548 -0.18605061 -0.13782412 -0.043738946 -0.06780268 0.12770537 -0.05248497
0.14600518 -0.026822727 0.043946505 0.017902413 -0.14317158 -0.04227446 0.0042424574 -0.05073102
-0.073595226 -0.028913472 0.024226554 0.10676737 -0.10046886 -0.025078202 -0.17945223 0.17710367
-0.11341675 0.060316324 -0.010717193 -0.07978112 0.048509113 0.17846514 0.18810083 0.098979294
0.098933674 0.021757172 0.12657881 -0.17623077 -0.046880882 -0.02165509 0.03629944 -0.1306257
-0.011777515 -0.0063035996 0.11703266 0.015153935 0.18197303 -0.19044153 0.12333438 -0.0149860885
-0.15286513 0.007895422 0.16547056 0.15526569 -0.15996061 -0.09654998 -0.16785936 0.1950012
-0.13064775 0.10775255 0.07764895 -0.10386429 0.19705708 0.008043102 -0.20413281 0.01277061
0.023083283 0.10637239 -0.05522436 0.12849432 -0.15984564 0.061069157 0.07064972 0.14462209
-0.020253217 -0.13100012 0.1707817 -0.08073764 -0.16933039 0.05885943 -0.06928147 0.06019689
0.18148349 0.08677819 0.15801184 0.038855996 0.08543362 -0.18299621 0.11827907 0.14093997
0.092582725 -0.16325465 -0.14758869 0.032841265 0.07353589 -0.12867896 0.048228204 0.118575156
-0.1855907 -6.925902e-05 -0.028331464 -0.16204213 0.08877773 -0.1410057 0.17051007 0.16013084
-0.14250866 0.08249608 0.014062426 -0.084321536 -0.06927742 -0.040057357 0.0007591836 -0.01869777
-0.058832325 -0.14262053 0.15963924 -0.121276505 -0.061150484 -0.15636131 0.19069353 -0.16908172
0.14918129 -0.075755455 -2.650977e-06 0.15014175 -0.18253982 -0.014539455 0.1170452 -0.08389073
0.01715638 -0.097275555 -0.013288091 0.10257288 0.055450197 0.051188257 0.015366162 0.045143344
0.13931377 -0.05311299 -0.047155663 0.12743405 -0.14812247 -0.16498546 -0.11754862 0.05384132
0.031310003 0.034256555 -0.08729949 0.18275225 0.011538023 0.1073039 0.09874918 0.17901652
0.088843286 -0.17425875 -0.13852157 -0.16919596 0.0058770827 -0.08160397 -0.11715166 -0.12078727
-0.046525996 0.10705745 0.1894334 -0.18067743 -0.07621746 0.17131265 0.13245258 -0.02721693
0.16428764 -0.028848551 -0.018909037 0.07002496 0.019641833 0.07272538 0.14081743 0.1536843
00000000: 64a3 553e dc0a d4bd a17b 93bd 1f61 3ebe
00000010: 74f8 6e3d 26d2 96bd 0898 4e3e be00 d5bd
00000020: be64 a0bd 77e9 04be 653c f33d 84e1 15be
00000030: 42d8 883d 4e25 0c3e 2cbf 353e 239e cc3d
00000040: 23b7 38be f1f7 263e ec58 e6bd 6489 573e
00000050: ad5e 133e dbf6 0abe d275 93bd e54e 0a3e
00000060: d4e2 413d 04a2 6cbd 2d21 413d fcfc 21be
00000070: 5c5f 573d 4f0d 42bd 282f a1bd 652a df3c
00000080: 9e2c 5dbc 914d 3a3e 784b 9a3c 4822 a7bb
00000090: db68 b83d 2b1c f8bd 9e1a 9c3d a7c6 0b3e
000000a0: 766f ea3c fd91 d8bd 03c2 fd3c 9dc4 f1ba
000000b0: 6dee 073c b8a0 edbd 38ac 35bd cc22 813c
000000c0: 416f 1abe 2a6a b73d 12a3 233e 235b 873c
000000d0: d2d1 8c3d 90bb 843d 1665 fc3d 89f3 f63d
000000e0: a5de 75bd 3610 c93c ab99 8bbd 77df acbd
000000f0: 192a 47be 5981 35bd 1a6f 8dbd 46d9 473e
00000100: 0ee8 353e c71c 363e d537 d63d 7080 b4bd
00000110: 7965 a3bd a30d 40bd 399f 4abe 0018 4c3e
00000120: 2be9 183e 7b9f da3d 49a6 463e 19b7 ddbd
00000130: 5ea9 203e 062d 2dbe cc7e dc3d 1300 5c3d
00000140: 2c23 2f3e 110b ec3d 0d84 3ebe c421 0dbe
00000150: 9c27 33bd 22dc 8abd 32c5 023e 7bfa 56bd
00000160: 6282 153e 56bb dbbc 4001 343d 15a8 923c
00000170: 929b 12be fc27 2dbd 5004 8b3b 54cb 4fbd
00000180: 18b9 96bd f2db ecbc c476 c63c daa8 da3d
00000190: 9ec2 cdbd cd70 cdbc 53c2 37be aa5a 353e
000001a0: 0b47 e8bd 400e 773d 2a97 2fbc 4964 a3bd
000001b0: 7eb1 463d 91bf 363e 819d 403e a8b5 ca3d
000001c0: bd9d ca3d 193c b23c e09d 013e d775 34be
000001d0: 2b06 40bd 0466 b1bc b9ae 143d bec2 05be
000001e0: 7af6 40bc 6d8e cebb d2ae ef3d 3648 783c
000001f0: 2357 3a3e 1b03 43be bc96 fc3d 3688 75bc
00000200: ad88 1cbe cd5b 013c 1d71 293e f8fd 1e3e
00000210: b7cc 23be ffbb c5bd 53e3 2bbe 65ae 473e
00000220: 86c8 05be 5ead dc3d 6a06 9f3d cdb6 d4bd
00000230: 55c9 493e 37c7 033c 3108 51be d23b 513c
00000240: 2719 bd3c c5d9 d93d f032 62bd 0494 033e
00000250: 93ae 23be a723 7a3d cdb0 903d d017 143e
00000260: 13ea a5bc e524 06be 66e1 2e3e c759 a5bd
00000270: f264 2dbe 9616 713d 71e3 8dbd 0491 763d
00000280: cfd6 393e c4b8 b13d dbcd 213e 7727 1f3d
00000290: d2f7 ae3d 5c63 3bbe 4c3c f23d 9152 103e
000002a0: 039c bd3d 3a2c 27be 7d21 17be 9084 063d
000002b0: fc99 963d 6bc4 03be f08a 453d 88d7 f23d
000002c0: 7d0b 3ebe 273f 91b8 6317 e8bc 5fee 25be
000002d0: 19d1 b53d cc63 10be 319a 2e3e 57f9 233e
000002e0: caed 11be b4f3 a83d 1766 663c c5b0 acbd
000002f0: 52e1 8dbd 2f13 24bd f303 473a 112c 99bc
00000300: 2afa 70bd 1e0b 12be 7878 233e d15f f8bd
00000310: ee78 7abd 2e1d 20be 2a45 433e c223 2dbe
00000320: fbc2 183e ad25 9bbd 70e7 31b6 c2be 193e
00000330: b8eb 3abe e536 6ebc 65b5 ef3d e7ce abbd
00000340: 898b 8c3c 6838 c7bd 4bb6 59bc bb11 d23d
00000350: bf1f 633d c7aa 513d 5bc2 7b3c 3ae8 383d
00000360: 45a8 0e3e 028d 59bd 4c26 41bd 127e 023e
00000370: 6bad 17be f3f1 28be 55bd f0bd b788 5c3d
00000380: eb3e 003d 9a50 0c3d 13ca b2bd 6823 3b3e
00000390: fa09 3d3c 26c2 db3d 033d ca3d 1b50 373e
000003a0: 78f3 b53d e370 32be 99d8 0dbe b541 2dbe
000003b0: 8b94 c03b fb1f a7bd 36ed efbd 515f f7bd
000003c0: 0b92 3ebd f040 db3d d4fa 413e 8103 39be
000003d0: e617 9cbd 956c 2f3e a6a1 073e 0af6 debc
000003e0: 053b 283e cc53 ecbc 20e7 9abc 3f69 8f3d
000003f0: e9e7 a03c 0bf1 943d 7232 103e 6b5f 1d3e

bias f4 [24]
-0.14345534 0.17084303 -0.043349277 0.11869412 -0.13358437 0.05170922 0.12407067 0.12239944
-0.13377038 -0.12368006 0.02058447 0.043693163 0.16441293 -0.006331145 0.19827026 -0.098797254
0.0912331 0.12721267 0.14282039 -0.115845315 0.003988122 0.07864627 -0.06962508 0.029506924
00000000: f5e5 12be 7af1 2e3e 038f 31bd e715 f33d
00000010: 57ca 08be 0ccd 533d c318 fe3d 8fac fa3d
00000020: 1afb 08be f94b fdbd c3a0 a83c 9af7 323d
00000030: dd5b 283e 7e75 cfbb 5c07 4b3e 3756 cabd
00000040: 6bd8 ba3d 0a44 023e 823f 123e 4f40 edbd
00000050: cbae 823b 4c11 a13d 9897 8ebd 81b8 f13c

weight f4 [24, 96]
0.021850444 0.059697077 0.09916037 -0.028126866 0.06660807 0.099425435 -0.0064229593 -0.033704214
-0.10061958 -0.036777988 0.0122552365 -0.02776929 0.042429075 0.03765005 0.049250647 -0.063695796
-0.05766245 0.064769864 0.029702663 -0.078732826 -0.050960045 -0.024917752 -0.015642472 -0.06863937
0.066500455 -0.003106147 0.018475533 -0.035696775 0.080676764 0.100814655 -0.018651597 -0.045614243
0.079203516 0.0760697 -0.006451614 0.053999543 -0.09055184 0.06865072 -0.0022628605 -0.020821407
0.038032025 0.044170365 -0.060566593 -0.09630916 0.014303327 0.025506765 -0.093750365 0.1017597
0.058288336 0.058371916 -0.014177367 0.011116952 -0.0737446 0.098663315 -0.054725885 0.058509007
0.065914705 -0.050419208 -0.03962476 0.067447215 -0.055307005 0.072787 0.011026956 0.07675226
0.05409193 0.06018786 0.049330845 -0.01148513 0.04812543 -0.06198964 -0.008769363 0.037431955
-0.0132633 0.001495719 0.07981217 0.040420666 0.100408256 0.08427949 0.044907644 0.09494354
0.0151978135 0.013722047 -0.099259846 0.0014456287 0.028288543 -0.090031385 -0.0840684 -0.046181895
0.0058481693 -0.098840445 0.06416565 -0.07589129 -0.08047785 0.014237419 0.0064100847 -0.06333746
0.055279642 0.09800452 -0.09942671 -0.047328465 -0.024883516 0.084477335 -0.08160658 0.09886135
-0.059475284 0.054497167 -0.04565364 0.049462944 -0.06691027 0.037887916 -0.01907678 -0.09796316
-0.026388213 -0.096160695 -0.018604562 0.011730239 0.039018825 -0.024224214 -0.08907855 0.009111479
-0.034774125 0.08142105 0.06646684 0.058815792 -0.0933617 -0.051153217 -0.034272052 0.024086297
-0.054176714 -0.03817138 0.036492422 -0.06377776 0.092563525 0.06530669 0.021871284 0.041514263
-0.051963143 -0.047136255 -0.051881835 0.006634541 0.042789325 0.06957725 -0.0615014 0.063365534
-0.09130464 -0.06798027 0.012836762 -0.04342271 0.04727888 -0.06512794 0.09478174 0.08870764
-0.089234725 0.07074377 -0.008623645 -0.040191073 -0.019035608 -0.02697999 0.08897273 -0.07932724
0.0221273 -0.0847846 0.09359719 0.029181331 0.038378477 -0.045413274 0.024147272 -0.03980176
0.08089881 0.012532994 0.02304332 0.044240847 -0.032325566 0.0009924322 0.026648551 -0.016610704
0.06529239 -0.09465383 0.0778818 -0.09188036 0.05262284 0.013064459 0.0073640943 -0.0074524954
-0.020902202 0.025398374 0.07732092 0.0911656 0.08442119 -0.08328022 0.05237992 -0.08954039
0.046735182 -0.08744795 0.051944584 -0.017155446 0.021559633 -0.10191056 -0.007872522 -0.08618021
0.051627204 -0.03983892 -0.07533104 -0.06722913 0.08691575 -0.03318601 -0.078276865 -0.08381182
-0.055726357 0.09204906 -0.07007162 0.04590416 -0.023506425 -0.0845683 0.027803466 0.039649636
0.095177054 -0.06319161 0.030562773 -0.09964523 -0.06971605 -0.012449086 -0.0006946996 -0.049927562
-0.01938036 0.06128414 0.0521252 -0.092003986 0.09625065 0.05246009 0.07124984 0.07501343
0.028203413 0.08670241 -0.022102699 -0.05835474 -0.03209503 0.0063606054 0.012802325 -0.07035087
0.046155497 -0.018906847 -0.014218755 0.04124877 -0.09772949 0.048207223 0.09079769 -0.05121366
0.039159194 -0.08403939 -0.07317917 0.05564408 -0.08241874 0.011639938 0.016753748 -0.08290042
00000000: b4ff b23c ec84 743d 9814 cb3d 506a e6bc
00000010: d069 883d 909f cb3d b077 d2bb 6e0d 0abd
00000020: a311 cebd 84a4 16bd 30ca 483c 6c7c e3bc
00000030: 1cca 2d3d f036 1a3d 0cbb 493d f172 82bd
00000040: 762f 6cbd 10a6 843d 0053 f33c ad3e a1bd
00000050: 7bbb 50bd 5020 ccbc a424 80bc cc92 8cbd
00000060: 6431 883d 8090 4bbb 005a 973c c836 12bd
00000070: dc39 a53d ea77 ce3d 3ccb 98bc 00d6 3abd
00000080: 7435 a23d 6eca 9b3d 1068 d3bb a02e 5d3d
00000090: 3e73 b9bd c098 8c3d 804c 14bb a891 aabc
000000a0: 78c7 1b3d fceb 343d ad14 78bd bd3d c5bd
000000b0: 8058 6a3c 90f3 d03c 3100 c0bd 6467 d03d
000000c0: c0bf 6e3d 6417 6f3d 3048 68bc e023 363c
000000d0: 6907 97bd fe0f ca3d 4028 60bd 24a7 6f3d
000000e0: 4afe 863d 5f84 4ebd 934d 22bd c421 8a3d
000000f0: 9989 62bd 5a11 953d 68aa 343c 4a30 9d3d
00000100: 808f 5d3d 8c87 763d 240f 4a3d 202c 3cbc
00000110: 2c1f 453d d9e8 7dbd 60ad 0fbc 4052 193d
00000120: 504e 59bc 000c c43a 9074 a33d 2490 253d
00000130: d8a2 cd3d ba9a ac3d 14f1 373d c271 c23d
00000140: 4000 793c 70d2 603c bf48 cbbd 407b bd3a
00000150: 60bd e73c 6062 b8bd 0e2c acbd 3a29 3dbd
00000160: 00a2 bf3b dc6c cabd 4869 833d e56c 9bbd
00000170: 92d1 a4bd 1044 693c b00b d23b 12b7 81bd
00000180: e86c 623d 98b6 c83d 3ba0 cbbd 7edb 41bd
00000190: 84d8 cbbc 7402 ad3d 5a21 a7bd d277 ca3d
000001a0: 5b9c 73bd 6c38 5f3d 50ff 3abd a899 4a3d
000001b0: 4008 89bd 5c30 1b3d e846 9cbc e9a0 c8bd
000001c0: 182c d8bc e6ef c4bd 9868 98bc 3030 403c
000001d0: 34d2 1f3d dc71 c6bc d16e b6bd 5048 153c
000001e0: 506f 0ebd 14c0 a63d c41f 883d d4e8 703d
000001f0: 6b34 bfbd 0986 51bd da60 0cbd a050 c53c
00000200: 67e8 5dbd 9859 1cbd 1479 153d ea9d 82bd
00000210: f291 bd3d 84bf 853d 682b b33c dc0a 2a3d
00000220: 4ed7 54bd f211 41bd 0c82 54bd 9066 d93b
00000230: dc43 2f3d 847e 8e3d e4e8 7bbd cac5 813d
00000240: edfd babd 3d39 8bbd 4851 523c 03dc 31bd
00000250: 80a7 413d cc61 85bd ee1c c23d 5aac b53d
00000260: b2c0 b6bd 1ce2 903d 304a 0dbc 659f 24bd
00000270: 90f0 9bbc 2405 ddbc 5637 b63d 5276 a2bd
00000280: 5044 b53c 8ca3 adbd e2af bf3d b00d ef3c
00000290: c032 1d3d 4503 3abd 80d0 c53c 2c07 23bd
000002a0: 46ae a53d 3057 4d3c 58c5 bc3c e435 353d
000002b0: d067 04bd 8014 823a 104e da3c 2c13 88bc
000002c0: 04b8 853d ded9 c1bd 7e80 9f3d c52b bcbd
000002d0: 0c8b 573d 500c 563c 804e f13b 1034 f4bb
000002e0: 183b abbc 4010 d03c 6e5a 9e3d 08b5 ba3d
000002f0: 04e5 ac3d d28e aabd 548c 563d f460 b7bd
00000300: 646d 3f3d e917 b3bd d8c3 543d 9489 8cbc
00000310: d49d b03c 7cb6 d0bd c0fb 00bc 407f b0bd
00000320: 0c77 533d 232e 23bd 2947 9abd 6daf 89bd
00000330: e200 b23d 0eee 07bd 9f4f a0bd 88a5 abbd
00000340: 5241 64bd 3884 bc3d b681 8fbd 0006 3c3d
00000350: 8c90 c0bc 2532 adbd 18c4 e33c a867 223d
00000360: 30ec c23d 9a6a 81bd c85e fa3c cc12 ccbd
00000370: 4ac7 8ebd 40f7 4bbc 801c 36ba d880 4cbd
00000380: 90c3 9ebc 1405 7b3d 3c81 553d 966c bcbd
00000390: 101f c53d 64e0 563d 70eb 913d a4a0 993d
000003a0: d80a e73c 0891 b13d b810 b5bc 6105 6fbd
000003b0: 1476 03bd a06c d03b d8c0 513c 1e14 90bd
000003c0: 8c0d 3d3d 88e2 9abc c8f5 68bc 78f4 283d
000003d0: 6626 c8bd f074 453d 24f4 b93d 6ac5 51bd
000003e0: 6465 203d d81c acbd f6de 95bd 0ceb 633d
000003f0: 28cb a8bd 70b5 3e3c 283f 893c b2c7 a9bd

bias f4 [24]
0.0015039816 0.0018441007 -0.07298484 0.037324667 0.036035746 0.06650755 0.04915248 0.014680229
-0.028778933 0.015361249 -0.022715278 -0.030771017 0.07372649 -0.054663677 0.018884383 0.042198732
-0.013776667 0.065822974 -0.022500232 -0.019381627 -0.044254452 0.030458048 0.09097715 0.09171748
00000000: 4021 c53a c0b5 f13a 1379 95bd c0e1 183d
00000010: 389a 133d 1c35 883d 1c54 493d 5885 703c
00000020: ccc1 ebbc c0ad 7b3c 6415 babc 8013 fcbc
00000030: eafd 963d 05e7 5fbd 6cb3 9a3c 94d8 2c3d
00000040: 88b7 61bc 32ce 863d 6852 b8bc 38c6 9ebc
00000050: 2844 35bd 2883 f93c 3a52 ba3d 60d6 bb3d
