training/train_output/ID_Q_linear_cold/config_22.pt (torch, 77679 bytes, 2 tensors)

weight f4 [24, 96]
-9.1517893e-07 9.548355e-07 0.05468837 -0.04153366 -0.007331604 -0.018799944 0.043631535 -0.007700616
-0.043132346 -0.018737445 0.048451204 -0.06288202 -0.04674344 0.07675133 0.08855543 -9.670716e-07
-0.05999096 -0.06928749 0.022756927 0.085211545 -0.07140888 -0.007970102 -0.037234902 -0.039745167
0.049543906 4.119872e-06 0.02888318 0.056171697 0.038574383 -0.0651304 0.05253233 -0.0031982928
-0.00038608338 -1.3255368e-07 -0.037440952 0.0083066095 0.00069776794 -0.03135785 -0.083830625 -0.06116656
-0.06804416 0.062293675 0.08565024 -0.06512122 0.002631441 -1.00231e-06 -0.08684113 0.06018102
-5.469974e-08 1.2303484e-06 -0.037109274 -0.019326618 0.02066475 0.0076642414 -3.4766157e-07 -0.086766236
-0.01691889 0.063948624 -0.07369531 -0.0051118527 0.050336972 -0.029461343 -2.2231795e-06 0.063675456
-0.05114813 -0.05543796 0.064413406 0.02654021 0.0744284 -0.06088212 0.08766462 0.045761175
0.08818736 -0.07932999 0.027505688 0.08854306 0.002038178 -0.07438265 -0.031348553 -0.021501796
0.08766387 0.072450764 -9.4284394e-07 -0.061706886 -0.08296933 -2.059452e-05 0.0693913 0.024025498
-0.037734516 -0.023023337 0.034082748 0.041051954 -5.547546e-07 0.099284425 0.0356613 0.034230012
0.0040868926 0.012261799 -5.783807e-06 1.8985834e-06 -6.742959e-06 8.1432845e-06 0.013136763 4.692415e-07
0.020561868 -0.03334546 -0.04819653 9.1243255e-06 -0.021611832 -0.026855024 -0.0019986676 0.020104118
0.003991862 0.024304714 0.04255464 -3.9391707e-06 0.044921126 -7.5491093e-06 -0.047717456 -1.00897296e-07
-2.038963e-06 1.5023637e-05 -1.5312412e-06 -0.028006896 -0.04948697 -5.2114437e-06 4.5625688e-07 0.024206948
0.0444626 -0.0258286 0.042116884 -3.5410739e-07 -0.060288746 -0.066162184 0.026619079 0.021498822
0.055540003 0.05732112 -4.3883074e-06 -0.031028746 -1.3261456e-07 0.01097894 0.0006426675 0.04543644
-0.0004666154 0.06633224 -0.056990724 -0.06252839 -0.05353808 0.05898306 0.05775619 0.011020732
-0.05660929 0.03788916 -0.041866854 0.03645066 0.065748535 -0.045286875 -0.024300743 -4.8688594e-06
2.3718014e-06 -0.023583278 0.012695451 -5.643666e-06 -1.2265434e-06 5.9226963e-06 0.04252624 0.056191344
-0.04564238 -2.7864942e-06 0.010283612 -0.06361101 -0.014845342 4.641906e-06 1.8967707e-05 -0.0639195
-0.01033456 -0.005586785 0.00023931598 2.4693322e-06 0.06950659 -0.03929313 0.02905065 -0.04519767
0.061889395 1.0718163e-06 3.49938e-06 -2.453976e-07 -0.031164944 -0.011436262 0.035956617 -4.457601e-06
-0.033500638 0.083307184 -0.064707905 0.088342756 0.001033713 7.200283e-07 0.0546143 0.087286994
-2.3055065e-07 -0.061637353 -0.07383099 0.022340005 -0.031127205 0.007779149 0.00015253792 0.04505851
-0.058668233 0.0124715585 0.00090882886 -0.08768606 -0.0035625019 0.061152432 1.182739e-06 -0.035782017
-0.031243654 6.85941e-07 -0.028617859 -0.023050522 -1.8967439e-06 0.008233983 -6.3441405e-08 -0.017858662
0.05259253 0.015615795 -0.063554466 0.086177506 0.0482588 0.008883821 -0.018913737 -0.06701877
-0.018370386 6.7122676e-07 0.0009241905 0.0044738646 -0.052823354 0.053881057 -0.07570403 -0.07988461
-0.03481647 -0.06647643 0.06393457 -0.087634966 -0.048162892 0.02778268 0.07023746 0.046142057
-3.8068163e-06 0.08107228 0.06741057 1.784177e-08 -5.993658e-06 0.009351088 -0.0667891 -0.031070005
00000000: 9eaa 75b5 e627 8035 ea00 603d 331f 2abd
00000010: f43d f0bb 5702 9abc fbb6 323d 7355 fcbb
00000020: 8bab 30bd 457f 99bc c574 463d 4ac8 80bd
00000030: 0d76 3fbd cd2f 9d3d 8d5c b53d 54cc 81b5
00000040: 15b9 75bd 99e6 8dbd bc6c ba3c 6483 ae3d
00000050: d23e 92bd 0895 02bc a083 18bd d4cb 22bd
00000060: 8dee 4a3d 6e3d 8a36 6b9c ec3c 4b14 663d
00000070: 2c00 1e3d 1663 85bd 242c 573d 739a 51bb
00000080: 3c6b cab9 1454 0eb4 af5b 19bd 7218 083c
00000090: 6aea 363a 1771 00bd 64af abbd c989 7abd
000000a0: bd5a 8bbd a727 7f3d 6569 af3d 465e 85bd
000000b0: 4174 2c3b 1c87 86b5 c3d9 b1bd 6080 763d
000000c0: 00ef 6ab3 7322 a535 e5ff 17bd db52 9ebc
000000d0: 1f49 a93c 5124 fb3b 3ea6 bab4 7fb2 b1bd
000000e0: 7c99 8abc 7ff7 823d 91ed 96bd 5481 a7bb
000000f0: 242e 4e3d ea58 f1bc ef31 15b6 4768 823d
00000100: b480 51bd ea12 63bd 2deb 833d db6a d93c
00000110: eb6d 983d 885f 79bd 8289 b33d 1270 3b3d
00000120: 939b b43d c377 a2bd 9c53 e13c 1056 b53d
00000130: f492 053b ee55 98bd 5767 00bd 8924 b0bc
00000140: 1d89 b33d 1161 943d be17 7db5 5cc0 7cbd
00000150: d3eb a9bd 65c2 acb7 071d 8e3d 1fd1 c43c
00000160: 828f 1abd 709b bcbc 5a9a 0b3d 1826 283d
00000170: 72ea 14b5 a255 cb3d 9511 123d c534 0c3d
00000180: 57eb 853b b6e5 483c 8612 c2b6 d4d2 fe35
00000190: 9441 e2b6 249f 0837 943b 573c 10ec fb34
000001a0: 5d71 a83c 4095 08bd ba69 45bd ae14 1937
000001b0: 4c0b b1bc 11ff dbbc 14fc 02bb 64b1 a43c
000001c0: 2ace 823b ae1a c73c c64d 2e3d 382d 84b6
000001d0: 37ff 373d 5b4e fdb6 6173 43bd e0ac d8b3
000001e0: 1ed5 08b6 080e 7c37 0c85 cdb5 b86e e5bc
000001f0: d9b2 4abd f6dd aeb6 78f3 f434 a64d c63c
00000200: 6a1e 363d 8096 d3bc c182 2c3d 261c beb4
00000210: 55f1 76bd 0a80 87bd 4110 da3c 4c1e b03c
00000220: ea7d 633d 8dc9 6a3d 463f 93b6 ff2f febc
00000230: d064 0eb4 03e1 333c b078 283a 8f1b 3a3d
00000240: 0fa4 f4b9 33d9 873d 1b6f 69bd e20e 80bd
00000250: bf4a 5bbd 3998 713d c191 6c3d 4d90 343c
00000260: 25df 67bd aa31 1b3d 947c 2bbd 4a4d 153d
00000270: 2ba7 863d bb7e 39bd 5a12 c7bc 2f5f a3b6
00000280: 3d2b 1f36 b831 c1bc 9500 503c b95e bdb6
00000290: b69f a4b5 93bb c636 ff2f 2e3d e528 663d
000002a0: 81f3 3abd 9bff 3ab6 987c 283c 7d46 82bd
000002b0: e139 73bc abc1 9b36 d71c 9f37 3ae8 82bd
000002c0: 4952 29bc 5911 b7bb e5f0 7a39 ceb6 2536
000002d0: 7959 8e3d d5f1 20bd a1fb ed3c 3121 39bd
000002e0: bc7f 7d3d 54db 8f35 e4d6 6a36 30bf 83b4
000002f0: a04d ffbc 295f 3bbc 3f47 133d 8092 95b6
00000300: f737 09bd f59c aa3d 9485 84bd 0ced b43d
00000310: a77d 873a f847 4135 3fb3 5f3d 86c3 b23d
00000320: 488d 77b4 7377 7cbd b434 97bd 6302 b73c
00000330: 7bfe febc 3be8 fe3b 96f2 1f39 468f 383d
00000340: 1a4e 70bd 8255 4c3c 793e 6e3a c094 b3bd
00000350: dd78 69bb f97a 7a3d 9abe 9e35 2a90 12bd
00000360: b1f2 ffbc 8221 3835 0070 eabc 73d4 bcbc
00000370: a093 feb5 d4e7 063c 483d 88b3 544c 92bc
00000380: 446b 573d 64d9 7f3c d828 82bd d57d b03d
00000390: 05ab 453d 728d 113c fbf0 9abc 2341 89bd
000003a0: 7e7d 96bc 5a2e 3435 6045 723a 7f99 923b
000003b0: 4d5d 58bd 62b2 5c3d b70a 9bbd 8b9a a3bd
000003c0: b79b 0ebd cb24 88bd 21f0 823d f679 b3bd
000003d0: 7446 45bd 8198 e33c a8d8 8f3d 74ff 3c3d
000003e0: 9b78 7fb6 3909 a63d 8e0e 8a3d 7842 9932
000003f0: 211d c9b6 4e35 193c b9c8 88bd 8686 febc

bias f4 [24]
0.07859402 0.09086004 -0.031210398 -0.047686268 -0.02918372 0.06721439 0.05499029 0.09092524
0.06762083 -0.086609356 -0.045751993 0.016915878 0.08005671 0.07164018 -0.06027193 0.03708998
-0.0027671303 -0.0712517 -0.028050637 -0.070516616 0.013031508 0.0051740906 -0.022349082 -0.02345018
00000000: e7f5 a03d d414 ba3d f3ac ffbc ad52 43bd
00000010: b212 efbc b3a7 893d 803d 613d 0337 ba3d
00000020: ca7c 8a3d 3f60 b1bd 7166 3bbd 2b93 8a3c
00000030: c6f4 a33d 16b8 923d b3df 76bd aaeb 173d
00000040: be58 35bb 69ec 91bd 73ca e5bc 046b 90bd
00000050: 1b82 553c 6b8b a93b 6c15 b7bc 981a c0bc
