training/train_output/ID_Q_linear_cold/config_21.pt (torch, 77679 bytes, 2 tensors)

weight f4 [24, 96]
0.082813375 0.06024296 0.0016263833 -0.09030607 -0.0063279592 0.040017672 0.06403472 0.0064305817
0.039627872 0.061691083 -0.005420523 -0.080124356 -0.013689567 -0.084250025 0.02155736 0.05050055
-0.080874495 -1.2390522e-05 0.011190963 -0.069247015 -0.050958082 0.030877851 -0.05724262 0.07740519
-0.015632592 -0.07339522 0.06002993 -0.011244644 0.038878776 0.03118921 0.05726417 -0.05479725
-0.060386084 0.05141867 -0.09779466 0.09809465 -0.09801786 -0.07195052 0.0032286008 -0.05706314
0.06023287 -0.008881559 -0.07437205 0.058312573 -0.047134586 -0.013942619 0.055788852 -0.009243888
-0.05292457 0.06475072 -0.05487681 0.087089606 0.031699337 -0.037791267 -0.04566045 0.07637421
0.013264996 0.0006266821 0.026063167 -0.036727272 -0.011755456 -0.0018528075 -0.06088233 -0.07253289
0.09817878 0.008230795 -0.092818424 -0.0057804906 -0.051159542 0.049634986 -0.06093242 -0.0925042
-0.029906653 0.021767125 -0.09017027 -0.015362556 -0.06211177 -0.07256947 -0.060276937 -0.09628854
-0.05644187 -0.03007403 -0.03145177 -0.091973126 0.009990436 -0.08760879 0.068504654 0.06399407
0.05060055 -0.0457133 0.050840624 0.06606009 0.064398386 0.054564573 0.05943828 0.04952862
-0.08143196 -0.090341166 -0.00922317 -0.054083157 -0.085431285 0.04688344 -0.055640705 0.10087653
-0.010619565 0.0907193 -0.083396055 0.065907806 0.050545678 0.039955392 0.0217652 0.0154103935
-0.050914343 0.029997539 0.08793504 0.08407029 0.07602733 0.007623686 0.011149122 0.016390726
-0.03511188 -0.028230943 -0.049105678 -0.0063890484 0.0658033 -0.03046435 -0.069373816 -0.08937813
-0.04706471 0.08052831 0.019810457 -0.037072744 0.08205391 -0.072735436 -0.08226861 -0.01025203
0.008467035 0.07297569 -0.03107179 -0.003260915 0.028234586 0.0076467916 0.02457882 -0.015413524
0.030799821 0.03802757 -0.038949125 -0.026232785 -0.0050283493 0.10085543 -0.054285154 -0.03116958
-0.0012603764 0.064099856 -0.06973437 -0.015245057 0.0378751 -0.008202347 -0.03192641 -0.08130698
-0.09969856 0.021854544 -0.08518809 -0.09631672 0.008653732 0.062973626 0.08203318 -0.0406448
0.0007843077 -0.053083826 0.07999153 0.09206499 -0.014155238 -0.07617742 -0.0590447 0.03355249
0.099339984 -0.0509745 0.08224917 0.086972505 0.06751973 -0.065116666 0.016893508 -0.08643547
0.00755793 0.00089249527 0.05146938 -0.08592817 -0.054264117 0.050230883 -0.06394221 0.0773735
-0.005616693 -0.020147316 0.07875888 0.02547612 0.04866893 0.08654526 0.09810496 0.011684982
0.08137018 -0.011545865 0.0031576317 0.029767105 -0.09205334 0.10123104 -0.019362887 0.033923283
-0.09144798 -0.10029281 0.10032399 -0.0892896 0.04082153 -0.054726586 -0.029174563 -0.09581789
-0.061186273 -0.054254152 0.028013552 -0.083031945 -0.04881949 -0.009772895 0.095764905 0.043102127
-0.00832277 -0.029361667 0.04102817 0.015221412 0.08047924 0.03898085 -0.064883135 0.046249997
0.08033482 -0.07721094 0.062282365 0.05589884 0.08986475 0.031767853 -0.029858913 -0.013288
0.024905356 -0.07547466 -0.062019214 -0.01791941 -0.09060379 0.0054183393 -0.009233797 -0.038614683
-0.018806458 -0.031433824 -0.019599421 0.07530641 -0.09268039 -0.020431103 0.018233534 0.076988
00000000: 0f9a a93d 52c1 763d 5e2c d53a 64f2 b8bd
00000010: c55a cfbb 92e9 233d a324 833d a1b7 d23b
00000020: d650 223d caaf 7c3d a59e b1bb 3d18 a4bd
00000030: 354a 60bc 478b acbd 1099 b03c aad9 4e3d
00000040: 87a1 a5bd e3e0 4fb7 4d5a 373c 61d1 8dbd
00000050: 6cb9 50bd 8cf3 fc3c 3d77 6abd 9d86 9e3d
00000060: ec0f 80bc 3c50 96bd f2e1 753d 753b 38bc
00000070: 5a3f 1f3d 8480 ff3c d68d 6a3d 1573 60bd
00000080: 6657 77bd 629c 523d 9148 c8bd d9e5 c83d
00000090: 96bd c8bd cb5a 93bd ef96 533b 0abb 69bd
000000a0: beb6 763d f583 11bc 6050 98bd 2ad9 6e3d
000000b0: 3210 41bd 956f 64bc da82 643d ad73 17bc
000000c0: 6fc7 58bd 079c 843d 82c6 60bd 095c b23d
000000d0: 2ad7 013d 04cb 1abd 7406 3bbd 156a 9c3d
000000e0: 6d55 593c ec47 243a 6c82 d53c 566f 16bd
000000f0: f599 40bc e7d9 f2ba c05f 79bd 208c 94bd
00000100: f511 c93d 75da 063c 9617 bebd 456a bdbb
00000110: ab8c 51bd 0e4e 4b3d 4694 79bd d872 bdbd
00000120: ccfe f4bc f850 b23c 31ab b8bd 3bb3 7bbc
00000130: e968 7ebd 4d9f 94bd f3e4 76bd ed32 c5bd
00000140: 972f 67bd d05d f6bc 92d3 00bd 685c bcbd
00000150: edae 233c 3d6c b3bd 2b4c 8c3d 530f 833d
00000160: 8642 4f3d df3d 3bbd 423e 503d 834a 873d
00000170: 4de3 833d 1a7f 5f3d 8e75 733d 86de 4a3d
00000180: cdc5 a6bd ca04 b9bd c71c 17bc 4d86 5dbd
00000190: 99f6 aebd da08 403d 82e7 63bd 5b98 ce3d
000001a0: affd 2dbc 0acb b93d 8dcb aabd acfa 863d
000001b0: fc08 4f3d 44a8 233d ef4c b23c e07b 7c3c
000001c0: 8f8b 50bd 66bd f53c 4917 b43d 0b2d ac3d
000001d0: 37b4 9b3d 1dd0 f93b cfaa 363c d845 863c
000001e0: 7ad1 0fbd 9444 e7bc 0923 49bd 395b d1bb
000001f0: e1c3 863d 5f90 f9bc dc13 8ebd e20b b7bd
00000200: edc6 40bd 07ec a43d 8a49 a23c 97d9 17bd
00000210: e10b a83d 51f6 94bd 727c a8bd 21f8 27bc
00000220: 52b9 0a3c 4774 953d 448a febc 13b5 55bb
00000230: 384c e73c f091 fa3b 8659 c93c 0189 7cbc
00000240: e84f fc3c ccc2 1b3d 1e89 1fbd 23e6 d6bc
00000250: dac4 a4bb 4b8d ce3d 1c5a 5ebd 5957 ffbc
00000260: 3733 a5ba c946 833d e5d0 8ebd 67c6 79bc
00000270: ec22 1b3d 2363 06bc 44c5 02bd 4684 a6bd
00000280: c22e ccbd 4d08 b33c 1877 aebd b341 c5bd
00000290: 62c8 0d3c 51f8 803d 0301 a83d 297b 26bd
000002a0: 009a 4d3a 6d6e 59bd 99d2 a33d 928c bc3d
000002b0: 5feb 67bc e802 9cbd dbd8 71bd 566e 093d
000002c0: c372 cb3d a3ca 50bd 4172 a83d a41e b23d
000002d0: c947 8a3d e35b 85bd 4164 8a3c 1405 b1bd
000002e0: 83a8 f73b 58f6 693a 8ed1 523d 1cfb afbd
000002f0: 0d44 5ebd e6be 4d3d 22f4 82bd ff75 9e3d
00000300: 3c0c b8bb fc0b a5bc 564c a13d 4cb3 d03c
00000310: 1259 473d a43e b13d 41eb c83d 5e72 3f3c
00000320: 69a5 a63d de2a 3dbc 45f0 4e3b 25da f33c
00000330: 7686 bcbd 3852 cf3d eb9e 9ebc 24f3 0a3d
00000340: 1449 bbbd 5166 cdbd aa76 cd3d 77dd b6bd
00000350: 7a34 273d fc28 60bd 7eff eebc 2b3c c4bd
00000360: 759e 7abd 9a39 5ebd ad7c e53c a70c aabd
00000370: f2f6 47bd 7e1e 20bc 6420 c43d db8b 303d
00000380: 3a5c 08bc e187 f0bc 280d 283d 3b63 793c
00000390: 4dd2 a43d 62aa 1f3d 73e1 84bd a370 3d3d
000003a0: 9586 a43d c520 9ebd cb1b 7f3d 2ff6 643d
000003b0: 030b b83d 021f 023d ae9a f4bc e9b5 59bc
000003c0: 5106 cc3c 7592 9abd dc07 7ebd bacb 92bc
000003d0: 7b8e b9bd 538c b13b 5a49 17bc 6e2a 1ebd
000003e0: 0010 9abc c1c0 00bd f78e a0bc 3f3a 9a3d
000003f0: 37cf bdbd 215f a7bc 7e5e 953c e2ab 9d3d

bias f4 [24]
-0.08696512 0.059205614 0.007999603 0.05510072 0.055910755 -0.028001348 0.015141489 -0.004319262
0.057826106 -0.031087548 -0.06298168 -0.018887565 -0.08355968 0.047787722 -0.012503428 -0.08145483
-0.0132728685 0.047876112 -0.023390034 0.05179988 -0.09909965 -0.09242305 -0.01517688 -0.092646986
00000000: c51a b2bd 9681 723d c410 033c 4bb1 613d
00000010: ad02 653d 1563 e5bc 0214 783c 9988 8dbb
00000020: 11db 6c3d 50ab febc 8afc 80bd 18ba 9abc
00000030: 5621 abbd 0fbd 433d 2edb 4cbc cad1 a6bd
00000040: 7276 59bc be19 443d 759c bfbc 1c2c 543d
00000050: c2f4 cabd 4c48 bdbd 73a8 78bc b4bd bdbd
