training/train_output/ID_Q_linear_cold/config_2.pt (torch, 77355 bytes, 2 tensors)

weight f4 [24, 96]
000000 0d 80 7c 3d 39 d0 00 bd 08 28 35 bd a0 6f 5e 3c
       0.061645556 -0.031448577 -0.04422763 0.013576418
000010 a3 6e be 3d a2 de 9b 3d 2d f4 16 bd e5 78 72 3d
       0.09298446 0.07610823 -0.036853958 0.059197325
000020 d5 ba 18 bd 61 6f a7 bc db b6 c5 3d 3c 02 90 3d
       -0.037287552 -0.020438852 0.096540175 0.07031676
000030 95 90 c3 3d 8d 98 9d 3c e0 e4 df 3c 55 f4 40 bd
       0.09549061 0.019237781 0.027330816 -0.047108013
000040 17 cc 76 3d 3c b8 4a 3d 31 29 dc bc f5 d8 95 bc
       0.06025323 0.049492106 -0.02687511 -0.01829193
000050 97 f1 22 bd 75 ba 6b bd 75 bd b5 3d aa 96 97 bd
       -0.03978118 -0.057550866 0.08874027 -0.07401784
000060 0c 6d 7c bd 28 99 3a bd 9e 68 94 3d 23 95 53 bd
       -0.061627433 -0.045556217 0.07246517 -0.0516559
000070 65 76 c1 3d 86 fc 27 3d 47 96 7c 3d b9 12 61 bd
       0.0944641 0.04101231 0.061666753 -0.054949496
000080 85 7f 96 bd 4a 64 ee 3a d9 35 70 bc 8e 2e b0 bd
       -0.07348541 0.0018187847 -0.014661276 -0.086026296
000090 6b 4d 16 3d df fd 74 3b 56 b9 b5 3d 4d e2 d2 3d
       0.036694925 0.0037382764 0.08873241 0.1029707
0000a0 13 24 c1 bd bf af a8 3d 97 c7 9b bd a4 6f 51 3d
       -0.09430709 0.08236646 -0.07606428 0.05113186
0000b0 09 49 a7 bd de 81 bc bd 65 a1 bc bd 55 48 5d bd
       -0.08168227 -0.09204458 -0.09210471 -0.05402406
0000c0 f0 44 5f 3c 00 0c 8e bc 36 c2 b5 3d f8 49 0a 3d
       0.013627276 -0.017339706 0.088749334 0.03376195
0000d0 06 6c f7 3c 49 d1 88 bd d5 39 ad 3d 40 6c c1 bd
       0.030202877 -0.06680543 0.08458296 -0.09444475
0000e0 ea ed b0 bd 52 c4 b8 bd 24 20 d2 3d bf b4 74 3d
       -0.086391285 -0.0902182 0.102600366 0.059742685
0000f0 bf bd 3e 3d a0 48 88 3d 9c b9 85 bd e4 00 02 3d
       0.046567675 0.06654477 -0.06529543 0.03173913
000100 e9 5b 9c 3d a9 0a 87 bd fc 7f fb 3c 20 bb 2a bd
       0.07634718 -0.0659383 0.030700676 -0.041682363
000110 40 5b 7c 3d fb 08 27 bc a4 9f c1 bc ea fb 25 bd
       0.06161046 -0.010195012 -0.023635693 -0.040523447
000120 ac be ad 3d eb 13 af 3d 01 3a 2a bd 5b 6f 45 3c
       0.084836334 0.08548721 -0.041559223 0.012050475
000130 95 05 ca 3d 66 15 33 bd 5f be 99 3d ac 21 10 3d
       0.09864346 -0.04372158 0.075070135 0.035188362
000140 0b 23 2a 3b 41 36 80 3d da 4d 32 3d 16 32 89 bd
       0.0025960829 0.06260348 0.043531276 -0.06699006
000150 65 cd 36 bd 96 ba cb 3d 31 66 35 3d e1 22 98 bd
       -0.044629473 0.09947698 0.04428691 -0.074285276
000160 31 1f 4f 3d 57 a2 c4 3d ca da cf 3d 70 20 91 bd
       0.050566856 0.09601276 0.101491526 -0.07086265
000170 40 01 6f bd ef cc 81 3c 56 4e 99 bd cd f1 a2 bd
       -0.0583508 0.01584479 -0.074856445 -0.07956276
000180 82 e9 a4 3d 7f eb 0d 3d 57 06 a6 3d 63 97 7d bd
       0.080523506 0.034648415 0.08106678 -0.06191195
000190 af 1e 80 bd c4 50 0f bd 1c 61 a0 3d b4 1a 27 3c
       -0.062558524 -0.034989133 0.07831022 0.010199238
0001a0 5e e8 28 3d bf 7d 00 3d 0f 35 cf bd d4 fb 92 bd
       0.041237228 0.03136992 -0.10117542 -0.07176939
0001b0 46 4a 70 3d b9 7e ba bd bb 6b 5a 3d 41 1e b6 3d
       0.058664583 -0.09106202 0.053325396 0.08892489
0001c0 ca 39 fd 3b 39 e1 f2 bc 84 4a 9e 3d fe 4f bb 3d
       0.0077278363 -0.02964841 0.077290565 0.09146117
0001d0 aa 35 a5 3d 47 8b e8 bc 0e ca 50 3b 79 38 9c bd
       0.08066876 -0.028386725 0.0031858715 -0.07627959
0001e0 d3 f3 38 3c c5 4d af 3d 93 d4 5e bc 0e 6d 06 3c
       0.011288601 0.08559755 -0.013600486 0.008204712
0001f0 18 32 0d 3c 24 1f 92 bd bb 3a be bc 14 0a f9 bc
       0.0086179 -0.07134846 -0.023221364 -0.030400313
000200 e0 e5 b6 3b e9 d7 83 bb 79 ec 90 3c 1f 44 d2 bd
       0.0055816025 -0.004023541 0.017690884 -0.10266899
000210 72 f9 03 3d e3 d1 01 bd 25 0c 9a 3d 20 4d 70 bc
       0.03222031 -0.031694304 0.07521848 -0.0146668255
000220 d8 7f 98 3d 59 47 10 bc 10 44 0a 3c 57 b3 c6 3d
       0.07446259 -0.008806073 0.008439079 0.09702175
000230 99 1e 05 3d 2d e4 fa 3c 7d 7d 95 3d 3b b8 36 3d
       0.032499883 0.03062638 0.072993256 0.04460929
000240 cc 9a d6 3d c2 c2 83 3c 98 12 c4 3d 88 3e 1e 3d
       0.10478744 0.016084079 0.09573859 0.038633853
000250 f0 eb 8c 3d e4 6d 48 bc 6c 61 c4 3d c9 9e d0 bd
       0.06880939 -0.012233231 0.09588894 -0.10186536
000260 7d 17 ca 3c 7c 88 68 3d 0a 31 66 3d 93 4f 97 bd
       0.024669403 0.056770787 0.05619911 -0.073882245
000270 c9 42 e9 3c 78 f6 bc 3c a2 7d 58 bd e1 18 99 3d
       0.028474228 0.023066744 -0.052854188 0.074754484
000280 9a 91 73 3c 83 10 aa 3d 88 a5 9b 3d 98 2d 8f 3c
       0.014866257 0.083039306 0.07599932 0.017477795
000290 ee aa 9c bd eb 5a 37 3a 87 25 e5 bc 39 5d 85 bd
       -0.0764979 0.0006994444 -0.027971996 -0.065119214
0002a0 f7 c5 b8 bc 50 1f 5d bc 0a 0c 4b 3d 5a bc cf bd
       -0.022555334 -0.013496235 0.04957203 -0.10143347
0002b0 a7 d5 55 3d 79 50 b1 3d 34 a3 a0 3b ce 3b bf bd
       0.052205708 0.08657927 0.004902268 -0.09337579
0002c0 31 46 9a bd 61 9a b8 bb bd 94 e4 bc 39 8e 56 bd
       -0.07532919 -0.005633638 -0.027902955 -0.052381728
0002d0 77 41 6d bd ce d1 26 3d d7 23 e9 bc a5 90 b1 3d
       -0.05792376 0.04072743 -0.028459473 0.08670167
0002e0 11 d3 d0 bc 59 f0 98 bd a1 58 6c bc 61 de c9 3d
       -0.02549127 -0.07467718 -0.014425428 0.098568685
0002f0 b3 27 33 bd 88 e4 b9 3d 42 d1 d1 bd b4 c6 4c 3d
       -0.043739032 0.09076792 -0.10244991 0.049994186
000300 c3 cd 1e 3d af 4b c5 bd e3 93 76 bd 60 75 dc bc
       0.03877045 -0.09633576 -0.06019963 -0.026911438
000310 d0 5f 82 3d c9 6d a2 bd 65 0c f7 3c 35 12 e4 bc
       0.06365931 -0.07931096 0.030157277 -0.027840713
000320 c6 4a ff 3c 7d b4 ca bd 66 f1 3e 3d 44 28 eb bc
       0.031163584 -0.09897707 0.046616934 -0.028705724
000330 b9 d0 c4 bd 19 54 5f bd fe 26 3f 3d ce 77 c0 3d
       -0.09610123 -0.05452356 0.046668045 0.09397851
000340 ae e3 9e bb 9b 3d 40 bb 7e 67 ce 3c a4 58 44 3d
       -0.004848919 -0.0029333595 0.025195833 0.047936097
000350 b7 74 84 bd 42 da 36 bd dd 6a 40 3d 7f 24 71 3d
       -0.06467574 -0.04464174 0.046976913 0.058872696
000360 42 da aa 3c 5b 93 0f bd cc 97 57 3d 2d 37 4a bd
       0.020856027 -0.03505264 0.052635 -0.049369026
000370 a6 6d 95 bc c3 49 bd bd 6b 15 6f bd 21 bf 71 bd
       -0.018240761 -0.092425846 -0.058370035 -0.059020165
000380 b0 07 b6 3d e2 38 a3 3c 5c bb b3 bd b5 8d bd 3d
       0.08888185 0.019924585 -0.0877597 0.09255544
000390 f5 6b a5 bd 23 18 b3 bc f6 3c d0 bd ee ef 4c 3b
       -0.08077232 -0.021862095 -0.101678774 0.003127094
0003a0 86 e9 8d bd c4 fd 88 bd 03 5c 38 bd 48 9e 9e bc
       -0.06929307 -0.06689027 -0.045009624 -0.019362584
0003b0 53 4e 25 bd b8 43 26 bc 0f ab c2 3d dd 8c c0 3d
       -0.0403579 -0.010147981 0.09505283 0.094018675
0003c0 2f 13 39 3d 18 c6 d9 3c 6c e0 c1 3b a6 6e 13 3d
       0.04518431 0.026583716 0.0059166458 0.035994194
0003d0 99 31 31 3d ac 1b 2c 3d 54 89 83 3d 27 6f 93 3d
       0.04326019 0.042018577 0.06422678 0.07198935
0003e0 3e 52 b5 bb 94 ab 91 bd 62 e2 08 bc 2e 36 48 bd
       -0.0055334857 -0.07112804 -0.008354755 -0.048879795
0003f0 86 75 48 bd 1c a4 bb bd 76 85 e0 3c 19 c9 83 bc
       -0.048940204 -0.09162161 0.02740739 -0.016087102

bias f4 [24]
000000 3c 7d 5d 3d 1e e1 4e 3d a5 c2 14 3c bc 02 97 3c
       0.05407451 0.050507657 0.00907961 0.018433921
000010 77 a2 7f bd 8b 93 0b bc 05 0c ca 3b ea d4 5a 3c
       -0.062410798 -0.008519064 0.0061659836 0.013356427
000020 a5 8e 1d bc b4 98 be 3d 7c aa c4 bd 90 76 ab 3d
       -0.009616529 0.093064696 -0.0960283 0.083722234
000030 67 2c ce 3d ca 90 33 3d 07 9c 01 bd 85 f2 9d 3b
       0.10067063 0.043839253 -0.03164294 0.0048201703
000040 81 ea 9a 3d c6 b3 e7 3c 26 cf 15 3c 80 69 5d 3d
       0.07564259 0.028283965 0.009143626 0.05405569
000050 c5 3a 8d bd 60 46 2a 3d eb 0f 91 3d f3 4a ab bb
       -0.06895975 0.04157102 0.07083114 -0.0052274405
