training/train_output/ID_Q_linear_cold/config_30.pt (torch, 77615 bytes, 2 tensors)

weight f4 [24, 96]
-0.02771519 -1.2939829e-05 1.0059819e-05 2.9127532e-06 -9.825572e-06 0.04308416 -4.048634e-06 -0.0028223153
0.005161858 -4.6825226e-06 0.0471118 1.8891051e-06 6.9976704e-06 -1.0098933e-05 -0.030615116 0.03260496
4.7103424e-07 0.010470732 -0.057837542 -8.0468857e-07 0.013620965 -0.03830648 -0.044849616 1.0102923e-09
0.030259334 4.9984137e-06 5.317277e-06 1.3737622e-07 -7.2929297e-06 0.053216532 -0.02611758 0.0012880287
-7.912509e-06 1.0772535e-05 4.073964e-05 -0.025712563 -1.7032447e-05 0.07685369 0.0673433 -2.6519347e-06
-0.032350358 -8.03109e-06 0.056645416 -0.0055848057 8.517443e-06 -5.9206577e-06 0.018702727 5.51142e-06
-5.0752133e-06 1.7518302e-06 -0.023674589 -2.208373e-06 0.0073897536 -0.008330365 1.0514181e-05 -0.003176525
-7.807871e-06 0.054915078 -0.032064307 -0.038408846 -0.035829958 -0.021696925 -4.6352575e-06 4.659405e-06
-0.0040391674 -6.207981e-07 -0.014702145 -1.6706592e-05 0.032948986 0.04375433 -1.8039154e-06 -0.03694358
1.0327428e-06 -4.207741e-06 -0.026415907 0.08063569 -4.2118254e-06 -0.033833325 1.3409817e-06 -0.03622989
-1.0008311e-05 -8.001928e-06 2.7754048e-05 -0.02046088 0.055497468 -8.232196e-06 -0.033163454 -6.336852e-06
0.019525707 -7.3573747e-06 1.45016675e-05 0.034391087 -0.04549432 0.00397404 -1.3173136e-05 -1.0647989e-06
0.025288144 5.763761e-06 -0.025197558 -5.1257302e-08 0.013835006 0.027201246 -7.3270703e-06 -0.030442437
-0.03894585 -0.0048625013 1.9794788e-07 -8.232084e-06 0.034208454 8.534684e-06 0.04123898 0.04333207
-2.0939735e-05 -1.6435333e-06 -0.016710736 -5.7602874e-06 0.053632524 -4.6791956e-06 -3.2226487e-06 2.8497143e-06
4.961666e-06 -3.972893e-06 6.496728e-06 -1.1049906e-07 -0.011464627 0.03155702 -4.4530643e-06 -0.0025939501
-2.9955827e-06 -0.01908271 -0.0074675726 1.17032905e-05 -1.200085e-05 6.514317e-06 0.03496246 -0.017763752
0.0039539365 0.056935143 1.4949055e-06 0.04926799 -5.5023397e-06 -0.013887006 -0.04442154 -0.011746194
-1.1677049e-05 0.055755805 0.026587704 -0.034746025 0.035887074 -2.543819e-05 2.271292e-06 -1.9290244e-05
-2.1098658e-05 -0.01925251 1.9703511e-05 -0.03369582 -0.031843424 0.05048873 9.41332e-07 -3.5681392e-06
0.030845499 -8.262638e-06 1.2856237e-05 1.4845664e-06 -0.034976467 -0.012354562 4.0263058e-06 -2.8736336e-05
-5.792859e-06 -1.07531705e-05 -8.9140985e-06 0.029041326 5.1120874e-06 -9.502387e-06 1.6098245e-05 0.035026573
-0.0397888 -5.0976723e-08 9.435844e-06 0.010718123 0.011733099 -0.051619682 0.017363157 2.1723079e-06
-1.7190918e-05 -0.0459654 -0.036901765 0.016601842 1.20698305e-05 -0.015851831 -0.01451034 -0.0028747504
0.0007832588 1.0534391e-05 -1.074019e-06 3.511875e-05 -0.0009888249 1.4603542e-05 7.158516e-06 7.7611e-05
-0.03445595 1.652627e-05 0.004632593 0.00010760606 0.0006314283 -2.6960656e-06 -3.317816e-05 0.0030722837
0.0007911946 1.0611817e-05 -0.0013548605 0.031419642 0.0008623182 -1.008141e-05 -1.3825069e-05 -1.5208648e-06
-0.010478112 2.5658192e-06 0.025114479 -0.021313014 0.00093098753 -0.02165922 -8.998576e-05 8.3762166e-07
0.0007930865 -2.9656962e-07 0.040354367 -0.045060914 0.00075971417 0.0014262262 -0.02917073 4.321104e-05
0.012569228 0.0194229 -7.946459e-06 4.937474e-05 0.008101136 0.033809952 -0.0057387846 -0.013835237
0.0007893576 -0.035403173 0.01814727 -0.034665536 0.044239722 1.13820215e-05 -2.7551978e-05 3.3121705e-05
0.00066607015 2.197919e-05 0.03790607 0.046391513 0.000852021 1.648822e-06 -1.1456122e-05 -0.02499261
00000000: f70a e3bc 2418 59b7 98c6 2837 b878 4336
00000010: 83d8 24b7 0479 303d 80d9 87b6 98f6 38bb
00000020: ce24 a93b 901e 9db6 4ef8 403d 288d fd35
00000030: 88cd ea36 966e 29b7 8dcc fabc c78c 053d
00000040: 74e2 fc34 6f8d 2b3c 0fe7 6cbd c701 58b5
00000050: 782a 5f3c 41e7 1cbd 3bb4 37bd 80da 8a30
00000060: 6ce2 f73c 0cb8 a736 106b b236 b081 1334
00000070: cab5 f4b6 94f9 593d 89f4 d5bc 12d3 a83a
00000080: f8bf 04b7 afbb 3437 dbdf 2a38 27a3 d2bc
00000090: e7e0 8eb7 7865 9d3d 49eb 893d e4f7 31b6
000000a0: cf81 04bd 45bd 06b7 0605 683d bf00 b7bb
000000b0: 24e6 0e37 10aa c6b6 7636 993c bdee b836
000000c0: c04b aab6 6d20 eb35 36f1 c1bc 8f33 14b6
000000d0: bf25 f23b 157c 08bc 1066 3037 3f2d 50bb
000000e0: 8dfe 02b7 a2ee 603d dd55 03bd 9852 1dbd
000000f0: 6fc2 12bd c0bd b1bc 8f88 9bb6 fc57 9c36
00000100: fe5a 84bb eca4 26b5 44e1 70bc 2225 8cb7
00000110: 84f5 063d be37 333d 101e f2b5 2752 17bd
00000120: c69c 8a35 3830 8db6 2c66 d8bc 5324 a53d
00000130: 4e53 8db6 d094 0abd c8fb b335 cb65 14bd
00000140: 5ee9 27b7 0540 06b7 5dd1 e837 939d a7bc
00000150: 5051 633d 031d 0ab7 67d6 07bd 25a1 d4b6
00000160: 60f4 9f3c 5edf f6b6 304c 7337 abdd 0c3d
00000170: 4158 3abd aa38 823b 3002 5db7 36ea 8eb5
00000180: 1529 cf3c 5466 c136 1c6b cebc 0026 5cb3
00000190: 39ac 623c 26d5 de3c 0edb f5b6 6b62 f9bc
000001a0: af85 1fbd 9e55 9fbb 808b 5434 881c 0ab7
000001b0: 2a1e 0c3d 3030 0f37 34ea 283d f87c 313d
000001c0: bda7 afb7 6097 dcb5 f4e4 88bc 7e48 c1b6
000001d0: c7ad 5b3d fc01 9db6 af44 58b6 b83d 3f36
000001e0: 637c a636 e44e 85b6 78fe d936 804b edb3
000001f0: 22d6 3bbc ef41 013d 886b 95b6 43ff 29bb
00000200: b807 49b6 5853 9cbc 8ab2 f4bb 4059 4437
00000210: 4257 49b7 8f95 da36 cc34 0f3d 4a85 91bc
00000220: 0690 813b d334 693d 90a4 c835 3bcd 493d
00000230: bda0 b8b6 5386 63bc 5cf3 35bd 1c73 40bc
00000240: 8be8 43b7 3360 643d 75ce d93c d951 0ebd
00000250: 53fe 123d 1964 d5b7 806c 1836 7cd1 a1b7
00000260: 06fd b0b7 71b7 9dbc f848 a537 a104 0abd
00000270: 406e 02bd 45cd 4e3d d8af 7c35 2a74 6fb6
00000280: b3af fc3c c39f 0ab7 1eb1 5737 5041 c735
00000290: 7c43 0fbd ca6a 4abc b419 8736 d00e f1b7
000002a0: 4860 c2b6 8468 34b7 c38d 15b7 13e8 ed3c
000002b0: 7f88 ab36 716c 1fb7 b80a 8737 0678 0f3d
000002c0: 95f9 22bd 80f1 5ab3 a44e 1e37 119b 2f3c
000002d0: 2f3c 403c 296f 53bd 2e3d 8e3c f7c7 1136
000002e0: 3735 90b7 3746 3cbd 4e26 17bd 9600 883c
000002f0: 877f 4a37 b3db 81bc c7bc 6dbc 4f66 3cbb
00000300: 9c53 4d3a ddbc 3037 0327 90b5 784c 1338
00000310: 759b 81ba bc01 7537 2f33 f036 17c3 a238
00000320: af21 0dbd e5a1 8a37 02cd 973b 90aa e138
00000330: 7086 253a 0eee 34b6 c728 0bb8 5e58 493b
00000340: 2c68 4f3a 6809 3237 9395 b1ba e2b1 003d
00000350: 320d 623a 5423 29b7 38f2 67b7 8420 ccb5
00000360: 63ac 2bbc 7030 2c36 e1bc cd3c a198 aebc
00000370: 840d 743a ad6e b1bc bdb6 bcb8 ecd8 6035
00000380: 22e7 4f3a 3838 9fb4 9f4a 253d cb91 38bd
00000390: 8e27 473a 36f0 ba3a 74f7 eebc 803d 3538
000003a0: 2aef 4d3c c61c 9f3c c851 05b7 b917 4f38
000003b0: a1ba 043c 4e7c 0a3d 6a0c bcbb 31ad 62bc
000003c0: e4ec 4e3a eb02 11bd 95a9 943c 73fd 0dbd
000003d0: b634 353d 69f5 3e37 6c1f e7b7 29ec 0a38
000003e0: 369b 2e3a f35f b837 6543 1b3d 0705 3e3d
000003f0: 295a 5f3a 184d dd35 ab33 40b7 4dbd ccbc

bias f4 [24]
0.08472568 0.0006156035 0.056620892 0.071512714 -0.10238315 -0.058323693 0.023823027 -0.05612606
0.07386757 0.042815164 -0.048214417 0.0073988466 -0.009263095 -0.08789253 -0.06717817 0.060467016
0.094269305 0.0510314 0.05828727 0.103085585 0.07826675 0.02043866 -0.07605691 -0.087401636
00000000: a884 ad3d 7460 213a 4feb 673d 4275 923d
00000010: 42ae d1bd d3e4 6ebd 8228 c33c 71e4 65bd
00000020: e147 973d f45e 2f3d 7b7c 45bd 0672 f23b
00000030: 3dc4 17bc 0001 b4bd b594 89bd 43ac 773d
00000040: 4410 c13d 4d06 513d a2be 6e3d 891e d33d
00000050: 514a a03d fa6e a73c bac3 9bbd a1ff b2bd
