training/train_output/ID_Q_linear_cold/config_6.pt (torch, 77419 bytes, 2 tensors)

weight f4 [24, 96]
0	0xbd26bc22	-0.04070676
1	0xbdb635f8	-0.088970125
2	0xbdc89f97	-0.09796064
3	0xbc8d8246	-0.017274033
4	0x3d71aa04	0.05900003
5	0x3b8c7ac5	0.004287096
6	0xbd3a297a	-0.04544971
7	0x3d84b444	0.064796954
8	0x39c7a0e2	0.00038076105
9	0xbc6cbcf9	-0.0144493515
10	0xbd396553	-0.045262646
11	0x3cd49b58	0.02595298
12	0xbccabca1	-0.024748148
13	0xbdb23e14	-0.08703247
14	0x3d92dfd6	0.071715996
15	0x3db90d84	0.09035781
16	0xbcc63710	-0.024196178
17	0x3d91babd	0.071156956
18	0xbbc0a937	-0.005879547
19	0xbdad4e71	-0.08462227
20	0xbda03bc3	-0.07823899
21	0x3b8c6b5f	0.0042852606
22	0xbd45fd4e	-0.048337273
23	0x3d1cbe71	0.038267557
24	0xbdc2678c	-0.09492406
25	0x3d63ca1b	0.055612665
26	0xbd994c3f	-0.07485246
27	0xbd24dff4	-0.04025264
28	0xbd7fa925	-0.06241717
29	0xbcd31f69	-0.025771813
30	0x3d13e324	0.03610529
31	0xbd72adf0	-0.05924791
32	0x3d09a4bb	0.033604365
33	0x3dca7e73	0.098873995
34	0xbd72afcd	-0.059249688
35	0x3db8cf29	0.09023888
36	0xbd8df655	-0.0693175
37	0xbd25d1c0	-0.040483236
38	0x3c8e1a8e	0.017346647
39	0x3d9f9a65	0.0779312
40	0xbdb74389	-0.08948428
41	0x3dc62de3	0.09676721
42	0x3d5b4a5a	0.053537704
43	0x3d3a887a	0.04554031
44	0xbd4e5063	-0.05036963
45	0x3d3f6838	0.04673025
46	0xbdab53ea	-0.08365615
47	0x3d14b746	0.036307596
48	0x3dcc825a	0.099858
49	0xbc84b80b	-0.01620104
50	0xbd03f0b8	-0.03221199
51	0xbd26363d	-0.04057907
52	0x3bab0a17	0.0052197087
53	0xbdbee76d	-0.09321485
54	0xbc9bf631	-0.019038292
55	0x3cba430d	0.02273705
56	0x3dab2430	0.083565116
57	0x3d91c911	0.071184285
58	0x3c8522db	0.016251972
59	0xbd293510	-0.04131037
60	0x3d8c9970	0.068652034
61	0xbd786f97	-0.060653295
62	0xbd85ac01	-0.06526948
63	0x3cb606b4	0.022219993
64	0xbd1ed310	-0.038775504
65	0xbdbf9dfd	-0.09356306
66	0x3c2e4c26	0.010638272
67	0x3dc788de	0.09742902
68	0x3d65a6b0	0.05606717
69	0x3cf7e8ab	0.030262312
70	0xbdc7337b	-0.09726616
71	0x3da5fc38	0.081047475
72	0x3d8c3271	0.068455584
73	0xbd4a09b6	-0.049325667
74	0xbdc49e8c	-0.09600553
75	0xbdb55f7f	-0.08856105
76	0x3dd2b5c5	0.10288576
77	0x3d947c25	0.07250241
78	0xbd08a6f2	-0.033362336
79	0x3bbb62ea	0.0057185786
80	0x3dac98ac	0.08427557
81	0x3d046617	0.032323923
82	0x3d86181d	0.06547568
83	0xbdc7589d	-0.097336985
84	0x3d651040	0.0559237
85	0x3c2e393b	0.010633762
86	0xbd6dfe4a	-0.058103837
87	0x3d0f0c60	0.03492391
88	0xbd877318	-0.06613749
89	0xbdb05a03	-0.086109184
90	0xbca846d6	-0.02054159
91	0xbdc5dd9d	-0.0966141
92	0x3d7e27ef	0.062049802
93	0xbd04e2b8	-0.03244278
94	0xbb2bfc02	-0.0026242738
95	0xbdb15daa	-0.08660443
96	0x3d36f9da	0.04467187
97	0xbcbe9cc2	-0.023268107
98	0x3d95672f	0.07295071
99	0xbd454186	-0.04815819
100	0x3cf40761	0.029788675
101	0xbd8461ab	-0.06463941
102	0x3dd2a45a	0.10285254
103	0x3c081881	0.008306623
104	0xbce0cfd1	-0.027442845
105	0x3d4a1383	0.049335014
106	0xbc79b1ae	-0.015240116
107	0x3d4d055d	0.050053943
108	0xbccfccbe	-0.025366183
109	0x3d67c1b1	0.056581203
110	0xbc954b89	-0.018224495
111	0x3cc8dd87	0.024519695
112	0x3d74157b	0.059590798
113	0xbc22ffe5	-0.009948705
114	0xbd104279	-0.035219643
115	0xbd24c432	-0.04022617
116	0xbd869c5c	-0.06572792
117	0xbd993951	-0.07481635
118	0xbdbaebe3	-0.09127023
119	0xbd9e1989	-0.07719714
120	0xbcd08f13	-0.025458848
121	0xbda6a0ca	-0.08136137
122	0xbc83de86	-0.016097318
123	0xbd2dab4e	-0.042399697
124	0x3d0b15e3	0.03395642
125	0x3d73df1f	0.059538957
126	0x3d78d441	0.060749296
127	0x3baa9da9	0.005206783
128	0x3d34ec85	0.044170875
129	0x3d9ad674	0.07560435
130	0x3c19e619	0.009393238
131	0xbcf78dfa	-0.030219067
132	0xbbf52abd	-0.0074819014
133	0x3dac537d	0.084143616
134	0x3d8b0edd	0.06789944
135	0xbb47c382	-0.0030481522
136	0x3d366198	0.044526666
137	0xbda8db59	-0.08244962
138	0xbd6442a6	-0.055727623
139	0xbdb69c35	-0.08916513
140	0xbd89d935	-0.06730882
141	0xbdad5ad3	-0.08464589
142	0x3d2b7b21	0.04186547
143	0xbc081a8f	-0.008307113
144	0x3d887b7f	0.0666418
145	0xbd42de6b	-0.047575396
146	0x3ccbe44f	0.02488914
147	0xbc52bc08	-0.012862213
148	0x3d8e9457	0.06961887
149	0xbdad7d5b	-0.08471175
150	0x3d4b9183	0.049699318
151	0x3d20c7aa	0.039252914
152	0xbdc78208	-0.09741598
153	0x3d2b1f1a	0.041777708
154	0xbd41fe0d	-0.047361422
155	0x3c241836	0.010015538
156	0xbdaa908a	-0.0832835
157	0xbd9e4281	-0.07727528
158	0xbd94afde	-0.072601065
159	0x3d866200	0.06561661
160	0x3d1f5b62	0.03890551
161	0xbdc35f91	-0.09539712
162	0xbd564c43	-0.052318823
163	0x3db6d35d	0.08927033
164	0xbd60e14c	-0.05490236
165	0x3cecc48b	0.028902313
166	0xbd0d81fc	-0.03454779
167	0xbca16e13	-0.019705808
168	0xbdbb6a4d	-0.09151135
169	0xbd336a23	-0.04380239
170	0x3dc7a7b1	0.097487815
171	0x3c097887	0.008390552
172	0xbcb31e52	-0.021865044
173	0xbdadb8ba	-0.084824994
174	0x3d1ddc57	0.03854021
175	0xbd4e7a5e	-0.050409667
176	0x39dbab57	0.00041898593
177	0x3b52618f	0.0032101606
178	0x3cdb1fcc	0.02674856
179	0x3c92f114	0.01793722
180	0xbdbf61fe	-0.093448624
181	0xbcba94af	-0.022775976
182	0xbc932905	-0.017963896
183	0x3dab849b	0.08374902
184	0xbdc358b6	-0.09538405
185	0xbc746252	-0.0149160195
186	0xbc9e8d5b	-0.019354513
187	0xbce3245b	-0.027727297
188	0x3db4868f	0.088147275
189	0xbdb5df88	-0.08880526
190	0xbc460094	-0.012085099
191	0xbcc011b3	-0.02344594
192	0xbdacf3eb	-0.08444961
193	0x3ce615ce	0.02808657
194	0x3d2a68e2	0.04160393
195	0x3d9e35c2	0.07725097
196	0x3d97cad0	0.0741173
197	0xbd2cb4f4	-0.042164758
198	0xbdc6123c	-0.09671447
199	0xbdaa29c9	-0.08308751
200	0xbd365fda	-0.044525005
201	0x3d547fef	0.05187982
202	0xbd9cf744	-0.0766435
203	0x3cb18edb	0.021674564
204	0x3c8add58	0.016951248
205	0xbd4b18e4	-0.049584284
206	0xbce7dc12	-0.02830318
207	0x3cc32dee	0.023825612
208	0xbd09b98c	-0.033624217
209	0x3dc629d5	0.096759476
210	0x3dbf2d85	0.09334854
211	0xbdb2fef4	-0.08740035
212	0x3c4a7c72	0.012358772
213	0x3d5dd8d1	0.05416185
214	0xbdc136e6	-0.09434299
215	0xbd2ec21f	-0.042665597
216	0xbd90bab8	-0.07066864
217	0x3c25304e	0.0100823175
218	0xbca8bf06	-0.0205989
219	0x3d68ef2c	0.056868717
220	0x3db82a28	0.08992416
221	0x3aa85e96	0.0012845572
222	0x3d37e8bf	0.0448997
223	0x3d24f5b3	0.04027338
224	0xbce97454	-0.028497852
225	0x3db5f176	0.08883946
226	0xbd6715ac	-0.056417152
227	0x3d830d79	0.06399054
228	0x3d7245a9	0.059148464
229	0x3dc2b8ff	0.095079415
230	0x3c6bbf31	0.014388845
231	0xbce64446	-0.028108727
232	0xbd87c62d	-0.06629596
233	0xbda59797	-0.08085554
234	0xbb51006a	-0.0031891116
235	0x3d3ea7a4	0.046546593
236	0x3dae480a	0.08509834
237	0x3d0eaf61	0.034835223
238	0x3c948eee	0.01813456
239	0xbd874027	-0.06604033
240	0x3cc29d7c	0.023756735
241	0x3d927e82	0.07153036
242	0xbd2154c5	-0.039387483
243	0xbdc01243	-0.09378483
244	0xb94d1961	-0.00019559778
245	0x397adc58	0.00023923942
246	0xbdad7aae	-0.08470665
247	0x3da0926c	0.07840428
248	0xbb2365bd	-0.0024932467
249	0xbdc85284	-0.097813636
250	0x3d1dea6a	0.038553633
251	0x3d712051	0.05886871
252	0x3dc4ca56	0.09608905
253	0x3d7e4d64	0.062085524
254	0xbd932a4f	-0.07185804
255	0xbd00ef1e	-0.03147804

bias f4 [24]
0	0xbd8d8967	-0.06910973
1	0xbda9c1d4	-0.08288923
2	0x3d8e5aeb	0.06950935
3	0x3ca0c568	0.01962538
4	0x3d943860	0.07237315
5	0xbd9ad8d7	-0.0756089
6	0xbdb6c9f0	-0.08925235
7	0xbd9d4290	-0.076787114
8	0xbbafc9c5	-0.005364629
9	0xbd1c643a	-0.03818152
10	0x3bddd9f5	0.0067703673
11	0xbda9e03a	-0.08294721
12	0x3ca1c656	0.019747894
13	0x3dcb9d85	0.09942154
14	0x3d864996	0.06557004
15	0x3dc1a670	0.094555736
16	0x3d5e9975	0.054345567
17	0xbd89e685	-0.06733421
18	0x3dce71c9	0.100802965
19	0xbd0142cb	-0.03155784
20	0xbd15d482	-0.036579616
21	0xbd23ec4b	-0.04002027
22	0x3ca0ddde	0.019637045
23	0xbdb9ff8e	-0.09081946
