training/train_output/ID_Q_linear_warm/config_29.pt (torch, 77423 bytes, 2 tensors)

weight f4 [24, 96]
-4.863402e-07 9.2204954e-07 3.4276349e-07 0.99470663 -4.863402e-07 -4.8424613e-07 4.1900384e-07 7.4364556e-07
-4.863402e-07 3.670678e-07 6.181102e-07 -4.0838677e-07 -4.863402e-07 -1.6012791e-06 8.3067926e-07 7.404978e-08
-4.863402e-07 -3.0599438e-07 -5.177223e-07 -4.2990513e-07 -4.863402e-07 5.008396e-07 3.743104e-07 1.1495248e-06
-4.863402e-07 9.0151525e-07 -1.9175018e-06 2.9496077e-06 -4.863402e-07 -9.298715e-07 -6.485187e-07 4.5843473e-07
-4.863402e-07 2.975092e-07 -1.3174181e-07 1.4768624e-06 -4.863402e-07 -2.3811597e-07 -7.0450096e-07 -2.210221e-07
-4.863402e-07 8.6757996e-07 6.00002e-07 1.3485968e-06 -4.863402e-07 -5.128763e-07 -2.6787959e-07 -5.1671066e-07
-4.863402e-07 -9.219533e-08 -2.7103943e-07 1.971202e-06 -4.863402e-07 3.0188295e-07 -7.9775157e-07 -3.0478327e-07
-4.863402e-07 1.5287505e-06 4.5301044e-07 -8.1175915e-07 -4.863402e-07 -1.01774845e-07 -1.9863857e-07 -8.374682e-07
-4.863402e-07 1.0555502e-06 -1.0295392e-07 3.7910223e-07 -4.863402e-07 4.6965712e-07 1.6106976e-06 6.6414884e-07
-4.863402e-07 -4.903733e-07 -1.2272576e-06 -5.414115e-07 -4.863402e-07 3.2161034e-07 2.1482256e-07 6.013292e-08
-4.863402e-07 1.1755197e-06 2.1578717e-06 2.0380485e-06 -4.863402e-07 5.011699e-07 -3.6923092e-07 2.2302919e-07
-4.863402e-07 2.407428e-07 -3.445942e-08 -2.095021e-07 -4.863402e-07 1.1447664e-06 8.576209e-07 -7.524747e-07
1.2057626e-07 3.0816898e-07 -2.5138604e-08 2.6321356e-07 1.2057626e-07 4.5670126e-07 -1.0050072e-06 0.9947021
1.2057626e-07 -1.5933457e-06 -1.0195217e-06 -2.0012459e-07 1.2057626e-07 3.2841515e-07 -7.1305e-07 1.6334475e-06
1.2057626e-07 7.7049117e-07 -2.4083272e-07 1.652694e-07 1.2057626e-07 2.3574447e-07 -6.2918116e-07 5.068665e-07
1.2057626e-07 4.9905435e-07 2.2168241e-07 2.942062e-07 1.2057626e-07 3.3453887e-07 3.1258915e-07 1.0869928e-06
1.2057626e-07 -1.0325688e-06 -1.8858867e-07 3.0243433e-07 1.2057626e-07 -5.187842e-07 2.2374792e-07 1.7507534e-07
1.2057626e-07 7.799998e-07 1.1412976e-07 -1.4631408e-07 1.2057626e-07 -3.0437465e-07 1.3943774e-06 9.0756896e-07
1.2057626e-07 2.861787e-07 5.624461e-07 -2.3186908e-07 1.2057626e-07 -5.1733474e-07 1.3994807e-06 1.687909e-07
1.2057626e-07 -3.3074417e-07 5.9832433e-07 -3.7138156e-07 1.2057626e-07 2.888737e-08 -8.578331e-07 5.249157e-07
1.2057626e-07 -1.925963e-07 -2.6808945e-07 1.1954692e-06 1.2057626e-07 4.9371255e-07 -2.2801152e-07 4.861065e-07
1.2057626e-07 1.2894583e-07 -2.569377e-07 1.0237336e-06 1.2057626e-07 2.4713586e-07 -7.745595e-07 2.245194e-06
1.2057626e-07 1.4173116e-07 -6.1362005e-07 -3.5882297e-07 1.2057626e-07 -9.4255995e-07 -5.200493e-07 1.1540952e-06
1.2057626e-07 -4.9636395e-07 2.972555e-07 6.419167e-07 1.2057626e-07 -2.1135247e-07 -3.7433728e-07 -2.7156477e-07
-4.7680794e-07 8.5661844e-07 -3.7328124e-07 1.6480483e-07 -4.7680794e-07 -8.547395e-07 -1.8428321e-07 1.1840868e-08
-4.7680794e-07 -1.0303194e-07 -1.0745557e-06 0.9946932 -4.7680794e-07 8.9344127e-07 -1.5120877e-06 6.4823354e-07
-4.7680794e-07 -3.099456e-07 1.0457416e-06 1.5236321e-07 -4.7680794e-07 -8.8335966e-08 -7.694381e-07 2.6873707e-07
-4.7680794e-07 5.2582607e-07 -1.1693244e-06 -1.2512689e-07 -4.7680794e-07 5.6390434e-08 -1.5615989e-07 6.6221713e-07
-4.7680794e-07 4.0013987e-08 2.2073277e-07 2.026601e-06 -4.7680794e-07 7.811849e-07 1.0004155e-07 3.2246504e-08
-4.7680794e-07 2.010421e-06 -1.3851817e-06 3.901704e-08 -4.7680794e-07 -8.551647e-07 -6.956567e-07 -1.06442144e-07
-4.7680794e-07 -1.0098997e-06 3.8687517e-08 7.666856e-07 -4.7680794e-07 -4.2543857e-07 -7.4853136e-07 1.7170338e-06
-4.7680794e-07 -7.756838e-07 -1.7501039e-06 -4.9209774e-07 -4.7680794e-07 9.690712e-07 -5.3135363e-07 -2.760492e-07
00000000: 0b8d 02b5 c382 7735 0e05 b834 18a5 7e3f
00000010: 0b8d 02b5 24fd 01b5 73f3 e034 ef9e 4735
00000020: 0b8d 02b5 6a11 c534 36ec 2535 4040 dbb4
00000030: 0b8d 02b5 88eb d6b5 d8fb 5e35 4c05 9f33
00000040: 0b8d 02b5 8c47 a4b4 9bf9 0ab5 b6cd e6b4
00000050: 0b8d 02b5 6f71 0635 d4f4 c834 5f49 9a35
00000060: 0b8d 02b5 a8ff 7135 6eae 00b6 e0f1 4536
00000070: 0b8d 02b5 489c 79b5 de15 2eb5 ca1e f634
00000080: 0b8d 02b5 5ab9 9f34 ea74 0db4 9b38 c635
00000090: 0b8d 02b5 d2ac 7fb4 f01c 3db5 1852 6db4
000000a0: 0b8d 02b5 a4e3 6835 d30f 2135 6f01 b535
000000b0: 0b8d 02b5 97ac 09b5 17d1 8fb4 16b4 0ab5
000000c0: 0b8d 02b5 ebfc c5b3 6083 91b4 fe48 0436
000000d0: 0b8d 02b5 7a12 a234 1225 56b5 18a1 a3b4
000000e0: 0b8d 02b5 782f cd35 4835 f334 aae7 59b5
000000f0: 0b8d 02b5 508f dab3 5b49 55b4 60ce 60b5
00000100: 0b8d 02b5 6eac 8d35 8417 ddb3 6a87 cb34
00000110: 0b8d 02b5 2f25 fc34 262f d835 f647 3235
00000120: 0b8d 02b5 32a2 03b5 40b8 a4b5 8455 11b5
00000130: 0b8d 02b5 caa9 ac34 faa9 6634 6c22 8133
00000140: 0b8d 02b5 8dc6 9d35 f4cf 1036 68c5 0836
00000150: 0b8d 02b5 2288 0635 b63a c6b4 cc79 6f34
00000160: 0b8d 02b5 703f 8134 8800 14b3 80f3 60b4
00000170: 0b8d 02b5 e0a5 9935 4237 6635 abfd 49b5
00000180: c077 0134 6c72 a534 60f0 d7b2 cc4f 8d34
00000190: c077 0134 8b30 f534 c9e3 86b5 cca4 7e3f
000001a0: c077 0134 f1da d5b5 80d6 88b5 d4e1 56b4
000001b0: c077 0134 0951 b034 6c68 3fb5 d43c db35
000001c0: c077 0134 c0d3 4e35 cc4b 81b4 e874 3134
000001d0: c077 0134 f220 7d34 00e5 28b5 9a0f 0835
000001e0: c077 0134 c1f6 0535 9907 6e34 64f3 9d34
000001f0: c077 0134 ac9a b334 edd1 a734 cae4 9135
00000200: c077 0134 cb96 8ab5 dc7e 4ab4 425e a234
00000210: c077 0134 9442 0bb5 5c3f 7034 58fc 3b34
00000220: c077 0134 2e61 5135 8017 f533 821a 1db4
00000230: c077 0134 ef68 a3b4 7126 bb35 aa9f 7335
00000240: c077 0134 1aa4 9934 00fb 1635 b0f7 78b4
00000250: c077 0134 f9de 0ab5 cad5 bb35 e43c 3534
00000260: c077 0134 2291 b1b4 899c 2035 4b62 c7b4
00000270: c077 0134 0024 f832 d745 66b5 efe7 0c35
00000280: c077 0134 78cc 4eb4 efed 8fb4 0274 a035
00000290: c077 0134 ab87 0435 54d3 74b4 fc7c 0235
000002a0: c077 0134 5c74 0a34 40f1 89b4 3867 8935
000002b0: c077 0134 18ae 8434 53eb 4fb5 24ac 1636
000002c0: c077 0134 c42e 1834 a6b7 24b5 41a4 c0b4
000002d0: c077 0134 3a04 7db5 8499 0bb5 69e6 9a35
000002e0: c077 0134 df3d 05b5 7c96 9f34 2e50 2c35
000002f0: c077 0134 20f0 62b4 86f8 c8b4 94cb 91b4
00000300: fcfb ffb4 5ff2 6535 6267 c8b4 35f5 3034
00000310: fcfb ffb4 4071 65b5 62df 45b4 b06c 4b32
00000320: fcfb ffb4 6842 ddb3 7439 90b5 37a4 7e3f
00000330: fcfb ffb4 d1d4 6f35 f0f2 cab5 4502 2e35
00000340: fcfb ffb4 9966 a6b4 685b 8c35 4899 2334
00000350: fcfb ffb4 36b3 bdb3 628b 4eb5 f146 9034
00000360: fcfb ffb4 7e26 0d35 aef1 9cb5 9e5a 06b4
00000370: fcfb ffb4 f031 7233 e7ac 27b4 37c3 3135
00000380: fcfb ffb4 d8db 2b33 9002 6d34 bd00 0836
00000390: fcfb ffb4 9eb2 5135 6cd6 d633 687f 0a33
000003a0: fcfb ffb4 c5ea 0636 7bea b9b5 b093 2733
000003b0: fcfb ffb4 798e 65b5 2abd 3ab5 3095 e4b3
000003c0: fcfb ffb4 e48b 87b5 6029 2633 3cce 4d35
000003d0: fcfb ffb4 d567 e4b4 afee 48b5 d574 e635
000003e0: fcfb ffb4 9638 50b5 1de5 eab5 b318 04b5
000003f0: fcfb ffb4 0811 8235 58a2 0eb5 ea33 94b4

bias f4 [24]
0.004388336 0.0035867314 0.0031566531 -0.0049834605 -0.0049584503 0.002747025 -0.0010735053 -0.0028801947
0.0028508147 0.004038951 0.0011111171 0.001043413 -0.0019133938 -0.003525623 0.0031510994 0.0016894799
-0.00084786647 0.004400149 0.004733699 0.0038938294 -0.0021595594 -0.00028631993 -0.0048312997 -0.00468643
00000000: 08cc 8f3b 5e0f 6b3b dadf 4e3b 4c4c a3bb
00000010: 7f7a a2bb 6f07 343b dcb4 8cba a6c1 3cbb
00000020: bcd4 3a3b 2d59 843b e7a2 913a 21c3 883a
00000030: d8ca faba 230e 67bb ad82 4e3b 8a71 dd3a
00000040: 5b43 5eba 202f 903b 251d 9b3b 9e2f 7f3b
00000050: 6587 0dbb 361d 96b9 e14f 9ebb a090 99bb
