training/train_output/ID_Q_linear_warm/config_35.pt (torch, 77423 bytes, 2 tensors)

weight f4 [24, 96]
000000 21 d9 e5 35 08 c1 79 b4 94 dc 27 b8 ef 01 80 3f
       1.7125022e-06 -2.3260156e-07 -4.0021332e-05 1.000059
000010 21 d9 e5 35 00 e0 6d 32 d1 fb 6d b8 71 78 62 38
       1.7125022e-06 1.3846147e-08 -5.6739726e-05 5.399477e-05
000020 21 d9 e5 35 58 71 17 b5 f9 56 74 b8 ae cd 60 38
       1.7125022e-06 -5.641682e-07 -5.8255133e-05 5.3597316e-05
000030 21 d9 e5 35 d0 12 87 b6 42 21 76 b8 11 c6 5a 38
       1.7125022e-06 -4.0255036e-06 -5.8681944e-05 5.2159714e-05
000040 21 d9 e5 35 62 6e b8 b7 54 06 75 b8 45 65 58 38
       1.7125022e-06 -2.198591e-05 -5.8418445e-05 5.1592728e-05
000050 21 d9 e5 35 04 7d 69 b5 43 3a 6e b8 26 3b 4f 38
       1.7125022e-06 -8.6981186e-07 -5.6797882e-05 4.9407732e-05
000060 21 d9 e5 35 f0 21 db 35 fa fd 14 b6 3a 00 56 38
       1.7125022e-06 1.6326649e-06 -2.2201552e-06 5.1021787e-05
000070 21 d9 e5 35 d3 b9 e6 37 c9 4d b0 b5 27 02 63 38
       1.7125022e-06 2.7504668e-05 -1.313566e-06 5.4123022e-05
000080 21 d9 e5 35 6e 48 66 38 dc df 62 35 b1 4d 69 38
       1.7125022e-06 5.490373e-05 8.451732e-07 5.5623885e-05
000090 21 d9 e5 35 d4 37 6c 38 26 6b 12 37 c8 2b 6c 38
       1.7125022e-06 5.631878e-05 8.727226e-06 5.630756e-05
0000a0 21 d9 e5 35 4c 32 6e 38 6b bd 30 36 3c 51 6c 38
       1.7125022e-06 5.6790464e-05 2.63363e-06 5.634244e-05
0000b0 21 d9 e5 35 6c e2 6d 38 c8 b2 31 b5 ca 8e 6c 38
       1.7125022e-06 5.6716075e-05 -6.61978e-07 5.6399767e-05
0000c0 21 d9 e5 35 25 78 6e 38 30 9c 85 b3 c4 df 6b 38
       1.7125022e-06 5.6855515e-05 -6.2217055e-08 5.6236764e-05
0000d0 21 d9 e5 35 0d e1 66 38 66 ba 6f 35 93 64 6a 38
       1.7125022e-06 5.5045868e-05 8.9305684e-07 5.5883615e-05
0000e0 21 d9 e5 35 28 6a 62 38 cc 2f 85 34 9e b2 69 38
       1.7125022e-06 5.3981465e-05 2.4807957e-07 5.571788e-05
0000f0 21 d9 e5 35 9a 51 5f 38 00 31 6e b4 99 a9 6c 38
       1.7125022e-06 5.324334e-05 -2.2183303e-07 5.6424735e-05
000100 21 d9 e5 35 8c 66 5d 38 75 3f 5c b5 3d 2c 6e 38
       1.7125022e-06 5.278601e-05 -8.204873e-07 5.6784822e-05
000110 21 d9 e5 35 11 8d 6d 38 6b a6 17 35 de 78 70 38
       1.7125022e-06 5.663658e-05 5.6494054e-07 5.7333025e-05
000120 21 d9 e5 35 bf 2d 74 38 27 46 5d 38 e0 41 72 38
       1.7125022e-06 5.8216738e-05 5.275584e-05 5.7758647e-05
000130 21 d9 e5 35 76 26 75 38 fc 5b 6d 38 34 e8 72 38
       1.7125022e-06 5.844837e-05 5.659087e-05 5.7913552e-05
000140 21 d9 e5 35 26 e9 70 38 09 5d ad 35 ac 2d 71 38
       1.7125022e-06 5.7437595e-05 1.2916581e-06 5.7501413e-05
000150 21 d9 e5 35 56 cb 5d 38 d0 84 49 34 f7 03 6d 38
       1.7125022e-06 5.2879877e-05 1.87679e-07 5.6508896e-05
000160 21 d9 e5 35 a9 ce 0e 38 86 1b 25 35 64 e7 69 38
       1.7125022e-06 3.4047906e-05 6.150734e-07 5.576703e-05
000170 21 d9 e5 35 88 eb 49 38 9a 4f 99 35 09 8c 65 38
       1.7125022e-06 4.814149e-05 1.1422555e-06 5.4728273e-05
000180 c4 56 3f 37 b7 d4 83 b6 3b 05 4a b5 5b 1d 12 38
       1.1404689e-05 -3.9288675e-06 -7.5258475e-07 3.4836452e-05
000190 c4 56 3f 37 8c be f4 b4 1e 2c 82 36 19 01 80 3f
       1.1404689e-05 -4.5587183e-07 3.879438e-06 1.0000335
0001a0 c4 56 3f 37 f8 a9 7a 34 d4 05 a4 b7 7e 4c 0c 38
       1.1404689e-05 2.3344899e-07 -1.9553037e-05 3.344984e-05
0001b0 c4 56 3f 37 84 a0 ee b5 f8 17 ec b7 5b 3c 04 38
       1.1404689e-05 -1.7779098e-06 -2.8144554e-05 3.1527463e-05
0001c0 c4 56 3f 37 aa 2b 2e 35 d9 ab 1b b8 d9 cb 01 38
       1.1404689e-05 6.488359e-07 -3.7114925e-05 3.0945845e-05
0001d0 c4 56 3f 37 46 fb 2b b5 34 a6 be b7 c2 84 ec 37
       1.1404689e-05 -6.4068115e-07 -2.272716e-05 2.8195213e-05
0001e0 c4 56 3f 37 80 66 3e 33 44 cb c8 36 f8 53 fe 37
       1.1404689e-05 4.4331046e-08 5.9841277e-06 3.031826e-05
0001f0 c4 56 3f 37 23 98 29 b5 02 be d2 35 72 a3 0e 38
       1.1404689e-05 -6.3178794e-07 1.5701519e-06 3.400766e-05
000200 c4 56 3f 37 bc ed 25 36 31 e7 58 36 39 60 1a 38
       1.1404689e-05 2.4725296e-06 3.232108e-06 3.6806076e-05
000210 c4 56 3f 37 24 89 8e 37 33 44 90 b6 e3 35 20 38
       1.1404689e-05 1.699158e-05 -4.299474e-06 3.819716e-05
000220 c4 56 3f 37 c7 14 bb 37 06 44 cc b5 f4 0a 21 38
       1.1404689e-05 2.2301812e-05 -1.5218982e-06 3.8395592e-05
000230 c4 56 3f 37 e1 8c c4 37 42 10 5e b5 69 ee 1d 38
       1.1404689e-05 2.3430623e-05 -8.2725103e-07 3.7653754e-05
000240 c4 56 3f 37 41 62 e1 37 80 93 73 b5 81 5f 1c 38
       1.1404689e-05 2.6867843e-05 -9.0739195e-07 3.7282243e-05
000250 c4 56 3f 37 97 f4 a3 37 58 fb fa 33 14 9b 1a 38
       1.1404689e-05 1.954501e-05 1.1687251e-07 3.686089e-05
000260 c4 56 3f 37 f8 d2 42 37 1c 2c a4 b5 8b 18 19 38
       1.1404689e-05 1.1612421e-05 -1.223179e-06 3.65009e-05
000270 c4 56 3f 37 41 d2 33 37 7e ba b3 b5 c7 f3 1e 38
       1.1404689e-05 1.0718185e-05 -1.3390816e-06 3.789717e-05
000280 c4 56 3f 37 3f 41 1e 37 35 bd 01 35 d3 e1 20 38
       1.1404689e-05 9.432725e-06 4.833158e-07 3.8357288e-05
000290 c4 56 3f 37 ff 39 ce 37 fa fa c0 37 48 80 26 38
       1.1404689e-05 2.458412e-05 2.3005054e-05 3.9696955e-05
0002a0 c4 56 3f 37 3b 3b 12 38 45 ab 0b 38 4f 50 2a 38
       1.1404689e-05 3.4864275e-05 3.329969e-05 4.060595e-05
0002b0 c4 56 3f 37 d6 a2 1a 38 d5 b3 0c 38 80 ba 2a 38
       1.1404689e-05 3.6868114e-05 3.3546083e-05 4.070485e-05
0002c0 c4 56 3f 37 3a 5e f2 37 e5 c4 60 37 81 bf 24 38
       1.1404689e-05 2.8892526e-05 1.33972835e-05 3.9279e-05
0002d0 c4 56 3f 37 d8 3f 61 37 f1 e7 dc 36 8e ae 18 38
       1.1404689e-05 1.342591e-05 6.5835125e-06 3.640219e-05
0002e0 c4 56 3f 37 40 89 f4 b5 9e 17 2f 37 e2 4c 15 38
       1.1404689e-05 -1.8219362e-06 1.0436312e-05 3.559597e-05
0002f0 c4 56 3f 37 70 f5 e4 36 76 b9 19 b6 e9 ec 03 38
       1.1404689e-05 6.823502e-06 -2.290673e-06 3.1453474e-05
000300 b2 c4 87 b6 d6 3d 47 38 8a e0 79 35 b7 c6 5e 38
       -4.046212e-06 4.7502886e-05 9.3086476e-07 5.3113992e-05
000310 b2 c4 87 b6 5c 91 27 38 24 da a1 34 39 37 5f 38
       -4.046212e-06 3.995128e-05 3.0147305e-07 5.3218773e-05
000320 b2 c4 87 b6 22 b3 2a 38 6f 16 c8 35 da 01 80 3f
       -4.046212e-06 4.069799e-05 1.490769e-06 1.0000565
000330 b2 c4 87 b6 2d 1d fa 37 6f fa 74 b6 d8 a3 5a 38
       -4.046212e-06 2.9815908e-05 -3.6504605e-06 5.212784e-05
000340 b2 c4 87 b6 f0 3f b3 37 1a 73 0c 35 5e 15 5b 38
       -4.046212e-06 2.1368236e-05 5.232156e-07 5.223357e-05
000350 b2 c4 87 b6 3d 61 1a 38 7d 8c af 35 10 56 5e 38
       -4.046212e-06 3.680702e-05 1.3079404e-06 5.3009077e-05
000360 b2 c4 87 b6 e4 c1 54 38 46 72 21 38 d2 5a 65 38
       -4.046212e-06 5.0725313e-05 3.8491817e-05 5.4682438e-05
000370 b2 c4 87 b6 3f 87 67 38 3a 57 65 38 27 18 68 38
       -4.046212e-06 5.520065e-05 5.467909e-05 5.5335604e-05
000380 b2 c4 87 b6 2d e4 6a 38 ba d7 6b 38 03 32 67 38
       -4.046212e-06 5.6002453e-05 5.6229277e-05 5.512127e-05
000390 b2 c4 87 b6 b6 e4 6a 38 4a bb 6b 38 e5 b8 65 38
       -4.046212e-06 5.600295e-05 5.6202793e-05 5.477005e-05
0003a0 b2 c4 87 b6 27 c7 69 38 be 9e 6a 38 94 88 63 38
       -4.046212e-06 5.5737004e-05 5.5937788e-05 5.4248216e-05
0003b0 b2 c4 87 b6 7d 32 68 38 ab d1 6c 38 31 51 61 38
       -4.046212e-06 5.536013e-05 5.6462053e-05 5.3719796e-05
0003c0 b2 c4 87 b6 78 a5 66 38 4f 2a 6c 38 30 fd 60 38
       -4.046212e-06 5.4990378e-05 5.6306188e-05 5.364156e-05
0003d0 b2 c4 87 b6 68 77 63 38 96 24 68 38 e7 3a 5e 38
       -4.046212e-06 5.4232223e-05 5.5347184e-05 5.298378e-05
0003e0 b2 c4 87 b6 4a 06 64 38 d3 01 69 38 8c 85 5d 38
       -4.046212e-06 5.4365293e-05 5.5553228e-05 5.281488e-05
0003f0 b2 c4 87 b6 57 98 62 38 52 6e 65 38 d8 fb 5a 38
       -4.046212e-06 5.4024476e-05 5.47006e-05 5.2209798e-05

bias f4 [24]
000000 6a 9d 7b 38 93 43 5c 38 a1 7c 74 38 57 2a 78 b8
       5.9989667e-05 5.251502e-05 5.8290203e-05 -5.916724e-05
000010 a0 5d 71 b8 c3 dc 76 38 00 28 7d b8 f4 a7 7b 38
       -5.7546073e-05 5.885657e-05 -6.0357153e-05 5.9999482e-05
000020 98 df 73 b8 65 29 7a 38 86 06 78 38 ad a1 05 38
       -5.8143953e-05 5.9643196e-05 5.9133883e-05 3.1860243e-05
000030 81 ee d5 b7 52 7a 8f b7 70 43 eb 37 aa 88 53 38
       -2.550264e-05 -1.7103888e-05 2.8045586e-05 5.04336e-05
000040 9d 51 a9 36 cf 64 55 38 d2 bf 73 38 61 4e b1 b7
       5.0460935e-06 5.0877043e-05 5.811436e-05 -2.1136542e-05
000050 93 c0 44 38 91 69 ff 37 34 8a 67 b8 f8 35 6d b8
       4.690939e-05 3.0447527e-05 -5.5203403e-05 -5.6555466e-05
