training/train_output/ID_Q_linear_warm/config_37.pt (torch, 77423 bytes, 2 tensors)

weight f4 [24, 96]
000000 00 61 a5 b1 1e 44 65 b5 84 5f f3 35 a3 02 80 3f
       -4.8131596e-09 -8.540827e-07 1.813271e-06 1.0000805
000010 00 61 a5 b1 e9 81 95 35 3c bf cb b5 cc 16 82 38
       -4.8131596e-09 1.1139174e-06 -1.5180335e-06 6.203129e-05
000020 00 61 a5 b1 18 4c bc 34 c1 f3 b3 b6 8f a2 74 38
       -4.8131596e-09 3.5073094e-07 -5.3629924e-06 5.8325528e-05
000030 00 61 a5 b1 c0 db 20 33 68 b5 3b b7 54 ca 56 38
       -4.8131596e-09 3.7452764e-08 -1.11883055e-05 5.121001e-05
000040 00 61 a5 b1 29 f2 70 35 66 6d 6c b8 2e 30 48 38
       -4.8131596e-09 8.9759357e-07 -5.636867e-05 4.7728587e-05
000050 00 61 a5 b1 ac de ba 35 1f 4c 96 35 18 34 37 38
       -4.8131596e-09 1.3922886e-06 1.1198025e-06 4.3679116e-05
000060 00 61 a5 b1 94 64 1d 34 12 1f 46 b5 63 f7 73 38
       -4.8131596e-09 1.4658355e-07 -7.380596e-07 5.816611e-05
000070 00 61 a5 b1 ce fd 71 38 17 4f e4 35 c4 a7 98 38
       -4.8131596e-09 5.769525e-05 1.7010342e-06 7.2791736e-05
000080 00 61 a5 b1 b1 de a2 38 aa 9a 34 38 3e 1d a1 38
       -4.8131596e-09 7.7662415e-05 4.3059386e-05 7.682525e-05
000090 00 61 a5 b1 62 23 a8 38 a3 ad 6f 38 2f f3 a3 38
       -4.8131596e-09 8.017455e-05 5.7143752e-05 7.817742e-05
0000a0 00 61 a5 b1 3d 91 a8 38 68 92 77 38 09 d0 a2 38
       -4.8131596e-09 8.037917e-05 5.902574e-05 7.7635115e-05
0000b0 00 61 a5 b1 a2 64 a7 38 ba 46 87 38 1f 74 a0 38
       -4.8131596e-09 7.981925e-05 6.4504755e-05 7.651024e-05
0000c0 00 61 a5 b1 a0 08 a7 38 16 c2 58 38 ea fd 9e 38
       -4.8131596e-09 7.964787e-05 5.167917e-05 7.581322e-05
0000d0 00 61 a5 b1 f5 f0 9b 38 c3 c4 cc 37 e4 f7 9b 38
       -4.8131596e-09 7.435858e-05 2.441032e-05 7.437149e-05
0000e0 00 61 a5 b1 cd c2 92 38 a0 02 b1 37 de da 98 38
       -4.8131596e-09 6.998107e-05 2.1101267e-05 7.288692e-05
0000f0 00 61 a5 b1 c0 78 8e 38 32 7a b8 35 7d ea 9c 38
       -4.8131596e-09 6.793579e-05 1.3744632e-06 7.4823365e-05
000100 00 61 a5 b1 3e 97 86 38 28 cd 62 37 ad 96 a1 38
       -4.8131596e-09 6.417789e-05 1.3518416e-05 7.705144e-05
000110 00 61 a5 b1 f1 99 9f 38 85 97 9f 38 08 c9 a6 38
       -4.8131596e-09 7.610385e-05 7.6099335e-05 7.952942e-05
000120 00 61 a5 b1 7b d6 ac 38 c3 ed ab 38 38 47 aa 38
       -4.8131596e-09 8.241549e-05 8.198202e-05 8.119497e-05
000130 00 61 a5 b1 ec d0 ae 38 51 03 ad 38 22 34 ab 38
       -4.8131596e-09 8.335881e-05 8.2499006e-05 8.163626e-05
000140 00 61 a5 b1 98 f5 a6 38 21 1b 04 38 05 80 a8 38
       -4.8131596e-09 7.961242e-05 3.149652e-05 8.03471e-05
000150 00 61 a5 b1 db e6 84 38 4f 15 d1 36 20 54 9e 38
       -4.8131596e-09 6.337251e-05 6.231166e-06 7.5496966e-05
000160 00 61 a5 b1 58 aa d7 37 fd f4 94 35 4e a2 9b 38
       -4.8131596e-09 2.570932e-05 1.109816e-06 7.4212076e-05
000170 00 61 a5 b1 a9 c6 5c 38 de 42 b9 35 fc 2b 64 38
       -4.8131596e-09 5.2637104e-05 1.3803035e-06 5.44004e-05
000180 e9 60 0e 38 e6 30 85 37 64 95 cf 34 6b 8c aa 38
       3.3945693e-05 1.5877606e-05 3.866545e-07 8.1323866e-05
000190 e9 60 0e 38 80 8b 93 b5 a2 22 07 b6 d8 02 80 3f
       3.3945693e-05 -1.0992953e-06 -2.0136727e-06 1.0000868
0001a0 e9 60 0e 38 23 43 29 36 48 a2 d4 b7 28 0c a4 38
       3.3945693e-05 2.522204e-06 -2.5347937e-05 7.822394e-05
0001b0 e9 60 0e 38 3c ed bb 33 04 a0 84 b8 0a e4 99 38
       3.3945693e-05 8.751019e-08 -6.324056e-05 7.338084e-05
0001c0 e9 60 0e 38 ce 3d 0b 36 0a 3e 98 b8 c2 e1 99 38
       3.3945693e-05 2.074859e-06 -7.2594805e-05 7.337659e-05
0001d0 e9 60 0e 38 54 56 4a 34 83 df b3 b7 62 4d 8e 38
       3.3945693e-05 1.8844122e-07 -2.1442544e-05 6.785501e-05
0001e0 e9 60 0e 38 fe 0f d3 35 bc 75 1b 34 28 51 9b 38
       3.3945693e-05 1.5725379e-06 1.4478331e-07 7.4060925e-05
0001f0 e9 60 0e 38 a1 64 4b 37 a6 f1 ec b4 25 fc a6 38
       3.3945693e-05 1.2123172e-05 -4.4134248e-07 7.9624624e-05
000200 e9 60 0e 38 ae 3e 8c 38 fe 50 8c 36 80 5e ac 38
       3.3945693e-05 6.687395e-05 4.181754e-06 8.219201e-05
000210 e9 60 0e 38 6f 62 9f 38 cc 1e 06 35 07 42 af 38
       3.3945693e-05 7.6000455e-05 4.9963705e-07 8.356949e-05
000220 e9 60 0e 38 3c 16 a5 38 6c 80 a2 b5 24 83 af 38
       3.3945693e-05 7.8719546e-05 -1.2107316e-06 8.369077e-05
000230 e9 60 0e 38 e5 8b a5 38 a8 3f 0a 36 7e d8 ae 38
       3.3945693e-05 7.8938705e-05 2.0600655e-06 8.3372914e-05
000240 e9 60 0e 38 7b f3 a6 38 18 e2 ea b5 fb 6c ae 38
       3.3945693e-05 7.9608486e-05 -1.750016e-06 8.317266e-05
000250 e9 60 0e 38 e8 2c 9a 38 f2 63 90 35 ab 27 ad 38
       3.3945693e-05 7.351657e-05 1.0757924e-06 8.2566716e-05
000260 e9 60 0e 38 a6 69 86 38 8c f6 94 35 4b 61 aa 38
       3.3945693e-05 6.4092965e-05 1.1098614e-06 8.124354e-05
000270 e9 60 0e 38 fb 11 7b 38 6a 41 17 36 de 06 ab 38
       3.3945693e-05 5.985981e-05 2.253883e-06 8.1551945e-05
000280 e9 60 0e 38 0b 73 5f 38 5d 18 b4 35 ca 33 ad 38
       3.3945693e-05 5.3274485e-05 1.3418136e-06 8.258929e-05
000290 e9 60 0e 38 08 08 9b 38 21 4f 5c 38 5b 78 b1 38
       3.3945693e-05 7.392472e-05 5.2525782e-05 8.462436e-05
0002a0 e9 60 0e 38 8d b4 ab 38 88 c9 a2 38 c2 91 b3 38
       3.3945693e-05 8.1875456e-05 7.7623e-05 8.562535e-05
0002b0 e9 60 0e 38 59 53 ae 38 d8 f8 9d 38 f5 e6 b3 38
       3.3945693e-05 8.312491e-05 7.532694e-05 8.578404e-05
0002c0 e9 60 0e 38 27 3f a5 38 a7 ef ed 37 60 b0 b2 38
       3.3945693e-05 7.879576e-05 2.8364198e-05 8.520554e-05
0002d0 e9 60 0e 38 8c 63 7c 38 b5 f2 84 36 ee b0 ae 38
       3.3945693e-05 6.0174192e-05 3.9621614e-06 8.329922e-05
0002e0 e9 60 0e 38 b4 12 8a 37 d3 e4 a2 36 fa b9 ac 38
       3.3945693e-05 1.6459591e-05 4.854615e-06 8.23624e-05
0002f0 e9 60 0e 38 92 79 49 38 cf 5e 16 36 e1 89 a2 38
       3.3945693e-05 4.8035356e-05 2.2406928e-06 7.750444e-05
000300 ce fe cf b7 fc 82 a8 36 60 8c 5a b3 87 69 6e 38
       -2.4794976e-05 5.0220387e-06 -5.088475e-08 5.6841902e-05
000310 ce fe cf b7 29 80 25 36 46 0d 09 b6 02 60 76 38
       -2.4794976e-05 2.4661515e-06 -2.0422317e-06 5.8740385e-05
000320 ce fe cf b7 6a 51 b4 35 d9 52 9c b5 61 02 80 3f
       -2.4794976e-05 1.343474e-06 -1.1647018e-06 1.0000726
000330 ce fe cf b7 82 ae 0a 35 f9 58 ae b5 05 b0 73 38
       -2.4794976e-05 5.166295e-07 -1.2989905e-06 5.8099646e-05
000340 ce fe cf b7 df 69 50 b4 c8 b0 73 34 5e 1f 6d 38
       -2.4794976e-05 -1.9410025e-07 2.2695451e-07 5.6534416e-05
000350 ce fe cf b7 ee af 00 b6 7d 31 d7 b4 9c a2 88 38
       -2.4794976e-05 -1.917589e-06 -4.0082878e-07 6.515274e-05
000360 ce fe cf b7 18 2f 5d 38 ec 45 17 38 70 ce 9e 38
       -2.4794976e-05 5.2734365e-05 3.6066325e-05 7.572479e-05
000370 ce fe cf b7 bd 60 a8 38 d0 9f 9e 38 1b 93 a8 38
       -2.4794976e-05 8.028883e-05 7.5637945e-05 8.038265e-05
000380 ce fe cf b7 20 54 ae 38 22 11 a2 38 c3 91 a9 38
       -2.4794976e-05 8.312636e-05 7.727953e-05 8.085698e-05
000390 ce fe cf b7 6a 6d ae 38 be 46 9f 38 d8 f5 a6 38
       -2.4794976e-05 8.3173465e-05 7.5948876e-05 7.961289e-05
0003a0 ce fe cf b7 24 53 ad 38 bd 47 98 38 06 07 a4 38
       -2.4794976e-05 8.264769e-05 7.261287e-05 7.8214376e-05
0003b0 ce fe cf b7 30 f9 ab 38 5d 31 9c 38 c4 69 a0 38
       -2.4794976e-05 8.20033e-05 7.447854e-05 7.649095e-05
0003c0 ce fe cf b7 f6 34 aa 38 8e c5 a5 38 00 a4 9e 38
       -2.4794976e-05 8.1160964e-05 7.9046105e-05 7.5645745e-05
0003d0 ce fe cf b7 58 f3 a5 38 24 94 84 38 45 2e 9b 38
       -2.4794976e-05 7.9131394e-05 6.321844e-05 7.399594e-05
0003e0 ce fe cf b7 4d 24 a7 38 d3 c4 84 38 66 ee 9d 38
       -2.4794976e-05 7.969942e-05 6.330912e-05 7.5307486e-05
0003f0 ce fe cf b7 d7 3f a6 38 14 18 b1 37 75 97 9f 38
       -2.4794976e-05 7.927388e-05 2.1111257e-05 7.609922e-05

bias f4 [24]
000000 ec d2 ba 38 b8 bf bb 38 b1 0d b9 38 c5 81 b9 b8
       8.9084584e-05 8.952565e-05 8.824038e-05 -8.845659e-05
000010 8e 9d b7 b8 77 6b b2 38 c6 bd bc b8 94 bc bc b8
       -8.755467e-05 8.507718e-05 -8.9998866e-05 -8.999664e-05
000020 94 25 bf b8 ee 65 bc 38 8d 7e b6 38 a7 d3 bf 38
       -9.114589e-05 8.9835245e-05 8.702008e-05 9.147013e-05
000030 63 f3 28 b8 b2 5c ba b8 96 fb b6 38 41 3a bd 38
       -4.0280993e-05 -8.886437e-05 8.725298e-05 9.023073e-05
000040 70 1a 4c 38 f5 64 bc 38 2c f7 bc 38 a8 05 bb 38
       4.8662012e-05 8.983343e-05 9.010578e-05 8.9179084e-05
000050 8f eb b0 38 52 2f 80 38 f6 c2 ba b8 12 19 b6 b8
       8.43621e-05 6.11233e-05 -8.9054854e-05 -8.683106e-05
