training/train_output/ID_Q_linear_warm/config_30.pt (torch, 77423 bytes, 2 tensors)

weight f4 [24, 96]
0	0xb68cc394	-4.1950934e-06
1	0x36b9870e	5.529152e-06
2	0x371fbd8e	9.521273e-06
3	0x3f7e09fb	0.9923398
4	0xb68cc394	-4.1950934e-06
5	0x37defd96	2.6582547e-05
6	0x360cb9f8	2.0969874e-06
7	0xb669ab10	-3.4819277e-06
8	0xb68cc394	-4.1950934e-06
9	0x378ae9f1	1.655982e-05
10	0xb752b28e	-1.2558548e-05
11	0x36e01981	6.6786893e-06
12	0xb68cc394	-4.1950934e-06
13	0x367d7793	3.776954e-06
14	0x36337210	2.6739472e-06
15	0x37332fca	1.0680358e-05
16	0xb68cc394	-4.1950934e-06
17	0xb587695a	-1.0088945e-06
18	0xb6c081f6	-5.7371753e-06
19	0x3646c346	2.9617963e-06
20	0xb68cc394	-4.1950934e-06
21	0x36f08f6c	7.169254e-06
22	0x36ad2928	5.160593e-06
23	0x36537572	3.1509812e-06
24	0xb68cc394	-4.1950934e-06
25	0xb49e9080	-2.953493e-07
26	0x357f8c80	9.5199357e-07
27	0xb6c076f4	-5.735894e-06
28	0xb68cc394	-4.1950934e-06
29	0x37309772	1.0525679e-05
30	0x36e9fd65	6.97344e-06
31	0x36dd77c4	6.600256e-06
32	0xb68cc394	-4.1950934e-06
33	0xb4d747b4	-4.0099042e-07
34	0x347e21e4	2.3667923e-07
35	0x374e39c3	1.22920055e-05
36	0xb68cc394	-4.1950934e-06
37	0x3724964c	9.8101555e-06
38	0xb795a9ee	-1.7841314e-05
39	0x36b73ee1	5.461145e-06
40	0xb68cc394	-4.1950934e-06
41	0xb720636b	-9.559891e-06
42	0x3704bb0b	7.911362e-06
43	0x370ac1fa	8.270605e-06
44	0xb68cc394	-4.1950934e-06
45	0xb6c36772	-5.8234955e-06
46	0x36aa45b0	5.0745075e-06
47	0x3703b73a	7.850869e-06
48	0xb68cc394	-4.1950934e-06
49	0x3745e492	1.1795333e-05
50	0xb6beda7b	-5.6878757e-06
51	0x378f318d	1.7070002e-05
52	0xb68cc394	-4.1950934e-06
53	0xb6797135	-3.7169787e-06
54	0x37006ee4	7.655213e-06
55	0xb758287e	-1.2884031e-05
56	0xb68cc394	-4.1950934e-06
57	0x3592c998	1.0936519e-06
58	0x37247a66	9.80366e-06
59	0x37917fe6	1.7344904e-05
60	0xb68cc394	-4.1950934e-06
61	0xb5edb1ed	-1.7709659e-06
62	0x373786be	1.0939022e-05
63	0x35886199	1.0161194e-06
64	0xb68cc394	-4.1950934e-06
65	0x36bc7fc0	5.6177087e-06
66	0x36e3d4be	6.7898936e-06
67	0x374bb507	1.2141892e-05
68	0xb68cc394	-4.1950934e-06
69	0x35d77e20	1.6055455e-06
70	0x36af1e73	5.218951e-06
71	0x35b374a0	1.3370482e-06
72	0xb68cc394	-4.1950934e-06
73	0xb61eec7a	-2.3681482e-06
74	0x36b58004	5.4091233e-06
75	0x34a9eec0	3.1652417e-07
76	0xb68cc394	-4.1950934e-06
77	0xb66862ae	-3.4628133e-06
78	0xb6ebdf0a	-7.029511e-06
79	0x35f3eb48	1.8173387e-06
80	0xb68cc394	-4.1950934e-06
81	0x361145a6	2.1647224e-06
82	0x36b077e6	5.2591668e-06
83	0x3720ebac	9.591615e-06
84	0xb68cc394	-4.1950934e-06
85	0x36ee7734	7.10683e-06
86	0xb59e7478	-1.1805814e-06
87	0x36c002e1	5.722381e-06
88	0xb68cc394	-4.1950934e-06
89	0xb6bc2924	-5.607626e-06
90	0x355dd330	8.2636234e-07
91	0xb7067037	-8.013149e-06
92	0xb68cc394	-4.1950934e-06
93	0x37342366	1.0737078e-05
94	0xb75b5257	-1.3072588e-05
95	0x3637e238	2.7400802e-06
96	0x372eed00	1.0426389e-05
97	0xb5d5bbe8	-1.5924425e-06
98	0xb6c49198	-5.8582045e-06
99	0xb60e4c54	-2.1204078e-06
100	0x372eed00	1.0426389e-05
101	0xb72e008c	-1.03713355e-05
102	0x362a935a	2.5417744e-06
103	0x3f7e0d4e	0.9923905
104	0x372eed00	1.0426389e-05
105	0xb66e39c0	-3.5498379e-06
106	0xb7329195	-1.0643523e-05
107	0x34c13880	3.599016e-07
108	0x372eed00	1.0426389e-05
109	0x36a41eb8	4.891157e-06
110	0xb662d3a0	-3.3799806e-06
111	0x36fd50f9	7.549414e-06
112	0x372eed00	1.0426389e-05
113	0x36f77e43	7.3758724e-06
114	0xb68d18f6	-4.2050333e-06
115	0xb75b2024	-1.30609005e-05
116	0x372eed00	1.0426389e-05
117	0x3624a4ec	2.4533902e-06
118	0x36ca2ffd	6.0256557e-06
119	0x375dd4d3	1.32221785e-05
120	0x372eed00	1.0426389e-05
121	0xb790aed4	-1.7247548e-05
122	0x368eb978	4.253521e-06
123	0x370083a2	7.660043e-06
124	0x372eed00	1.0426389e-05
125	0xb6d67e64	-6.392411e-06
126	0xb6c50a30	-5.8722435e-06
127	0x3717fa39	9.058561e-06
128	0x372eed00	1.0426389e-05
129	0x35ff8476	1.9037532e-06
130	0xb7014a03	-7.706231e-06
131	0x3652ee34	3.143109e-06
132	0x372eed00	1.0426389e-05
133	0x3792d8d2	1.7505521e-05
134	0x36281628	2.5046847e-06
135	0x37d2b505	2.5118245e-05
136	0x372eed00	1.0426389e-05
137	0xb72ea84f	-1.0410396e-05
138	0xb785427f	-1.58858e-05
139	0x379586cd	1.7824956e-05
140	0x372eed00	1.0426389e-05
141	0x37323cba	1.0623766e-05
142	0xb65f1b2c	-3.3245406e-06
143	0xb68cc1aa	-4.1948706e-06
144	0x372eed00	1.0426389e-05
145	0x35fea2ca	1.8971853e-06
146	0xb6ca51c6	-6.029589e-06
147	0x372a1161	1.0136836e-05
148	0x372eed00	1.0426389e-05
149	0x37b7745e	2.1869488e-05
150	0x36932a54	4.385869e-06
151	0xb6485a7c	-2.9854991e-06
152	0x372eed00	1.0426389e-05
153	0xb6f4d785	-7.2968564e-06
154	0x36b54044	5.401702e-06
155	0xb6ff32a6	-7.6054885e-06
156	0x372eed00	1.0426389e-05
157	0x373ceeee	1.1261303e-05
158	0xb4875240	-2.5205554e-07
159	0xb55c9f7c	-8.2188467e-07
160	0x372eed00	1.0426389e-05
161	0xb78e2e4e	-1.6949281e-05
162	0xb628478a	-2.5075592e-06
163	0x35d48367	1.5833474e-06
164	0x372eed00	1.0426389e-05
165	0x35b51144	1.3490576e-06
166	0x36bc0d68	5.6043973e-06
167	0x3775a218	1.4640878e-05
168	0x372eed00	1.0426389e-05
169	0x36379ba5	2.7359722e-06
170	0xb6b4c10e	-5.3868926e-06
171	0x3780fe6c	1.5377263e-05
172	0x372eed00	1.0426389e-05
173	0x3686a3f5	4.0125983e-06
174	0x36abe37e	5.1226807e-06
175	0x37d52812	2.5410238e-05
176	0x372eed00	1.0426389e-05
177	0x370cca23	8.391714e-06
178	0xb70e7d30	-8.493007e-06
179	0x356c8ce8	8.8121897e-07
180	0x372eed00	1.0426389e-05
181	0x36581fc0	3.220499e-06
182	0x3707d08c	8.095183e-06
183	0xb5ef08be	-1.7809432e-06
184	0x372eed00	1.0426389e-05
185	0xb6bf7b9e	-5.7066345e-06
186	0x3510b238	5.390352e-07
187	0x36838052	3.9190427e-06
188	0x372eed00	1.0426389e-05
189	0x350c2720	5.2211e-07
190	0xb75db3cd	-1.321449e-05
191	0xb602110b	-1.938143e-06
192	0x369bb5fc	4.6405457e-06
193	0x35d9915a	1.6210063e-06
194	0xb6ee2b82	-7.0980177e-06
195	0xb6cf4e5e	-6.178204e-06
196	0x369bb5fc	4.6405457e-06
197	0x379abae4	1.8445258e-05
198	0x368d9dd0	4.2204992e-06
199	0xb67609b2	-3.66625e-06
200	0x369bb5fc	4.6405457e-06
201	0xb7033674	-7.820887e-06
202	0x36980d05	4.5314687e-06
203	0x3f7e0cd6	0.99238336
204	0x369bb5fc	4.6405457e-06
205	0xb5f45e80	-1.820692e-06
206	0x37878f37	1.6159944e-05
207	0xb7620070	-1.3470752e-05
208	0x369bb5fc	4.6405457e-06
209	0xb6aa0c6d	-5.0678414e-06
210	0xb6d1e449	-6.2552613e-06
211	0xb533a4e0	-6.692262e-07
212	0x369bb5fc	4.6405457e-06
213	0x34647d58	2.1279754e-07
214	0xb6a92c9f	-5.041787e-06
215	0x35bf1d56	1.4239147e-06
216	0x369bb5fc	4.6405457e-06
217	0x37c47a9c	2.3422115e-05
218	0x37264918	9.9113895e-06
219	0xb6d59fc3	-6.3664934e-06
220	0x369bb5fc	4.6405457e-06
221	0xb660f4e2	-3.3521142e-06
222	0x35e28324	1.6876479e-06
223	0xb7062658	-7.99595e-06
224	0x369bb5fc	4.6405457e-06
225	0x374cabc0	1.2199336e-05
226	0x37a281b4	1.9372303e-05
227	0x353d0d50	7.042736e-07
228	0x369bb5fc	4.6405457e-06
229	0xb69e302a	-4.714374e-06
230	0x361d21f4	2.3414586e-06
231	0xb73e2949	-1.1334495e-05
232	0x369bb5fc	4.6405457e-06
233	0xb7857c1f	-1.5912634e-05
234	0x36076f54	2.018137e-06
235	0xb724546e	-9.79482e-06
236	0x369bb5fc	4.6405457e-06
237	0xb5e96b6e	-1.7391119e-06
238	0x36f10f2a	7.184125e-06
239	0xb67b9c91	-3.7493048e-06
240	0x369bb5fc	4.6405457e-06
241	0xb6cd2b4e	-6.1145174e-06
242	0xb7579db3	-1.2851716e-05
243	0x367a0548	3.7255977e-06
244	0x369bb5fc	4.6405457e-06
245	0x366029d0	3.340294e-06
246	0x365cc7cc	3.2898852e-06
247	0x35d7b961	1.6072701e-06
248	0x369bb5fc	4.6405457e-06
249	0x36bf68f8	5.7044635e-06
250	0xb56ee59c	-8.8996035e-07
251	0x350a14e8	5.143943e-07
252	0x369bb5fc	4.6405457e-06
253	0x36bd2ceb	5.637868e-06
254	0x374fbe93	1.2382533e-05
255	0x3713aca3	8.802078e-06

bias f4 [24]
0	0x3bcc6716	0.0062378747
1	0x3ba8808a	0.005142276
2	0x3b9c9ba4	0.004779296
3	0xbbec0485	-0.007202687
4	0xbbed4a83	-0.0072415485
5	0x3b765496	0.0037587038
6	0xbaced10d	-0.0015778855
7	0xbb820869	-0.0039682877
8	0x3b7a8457	0.0038225853
9	0x3bbacb20	0.005700484
10	0x3ace8fd0	0.0015759412
11	0x3abf2b5a	0.0014585063
12	0xbb2e5cfd	-0.0026605718
13	0xbba3e7a8	-0.005001981
14	0x3b90a1f3	0.004413837
15	0x3b1b7727	0.0023722143
16	0xba81065b	-0.0009843813
17	0x3bc8f3fb	0.0061326004
18	0x3bdee5e2	0.0068023065
19	0x3bb62649	0.005558763
20	0xbb3fafd8	-0.0029249098
21	0xba2244a0	-0.00061900355
22	0xbbe54584	-0.0069968123
23	0xbbdaf379	-0.0066818562
