training/train_output/20231120_test_ID_logbar_2/config_11.pt (torch, 134751 bytes, 4 tensors)

weight f4 [24, 24]
000000 09 37 1e 3f 3c 8a 44 3b de 8a 44 3b d0 88 44 3b
       0.61802727 0.002998962 0.0029989998 0.0029988773
000010 75 89 44 3b dd 88 44 3b 7e 8a 44 3b 98 8b 44 3b
       0.0029989157 0.0029988803 0.0029989774 0.002999043
000020 08 8c 44 3b 32 8c 44 3b 72 8c 44 3b 22 8c 44 3b
       0.0029990692 0.002999079 0.0029990938 0.0029990752
000030 41 8c 44 3b c3 8c 44 3b f3 8c 44 3b ae 8e 44 3b
       0.0029990824 0.0029991127 0.002999124 0.002999227
000040 66 90 44 3b d9 91 44 3b 17 92 44 3b 46 91 44 3b
       0.0029993295 0.0029994159 0.0029994303 0.0029993816
000050 a2 8f 44 3b 27 8d 44 3b 80 8b 44 3b fe 89 44 3b
       0.0029992838 0.002999136 0.0029990375 0.0029989476
000060 91 9c 44 3b 1c 37 1e 3f fc 9c 44 3b 68 9b 44 3b
       0.0030000547 0.6180284 0.0030000797 0.0029999856
000070 96 9b 44 3b ca 9a 44 3b 2c 9b 44 3b 2e 9b 44 3b
       0.0029999963 0.0029999488 0.0029999716 0.002999972
000080 61 9b 44 3b cb 9b 44 3b 23 9c 44 3b 22 9c 44 3b
       0.002999984 0.0030000086 0.0030000291 0.003000029
000090 3c 9c 44 3b 76 9c 44 3b 6d 9c 44 3b b7 9d 44 3b
       0.003000035 0.0030000485 0.0030000464 0.0030001232
0000a0 a1 9e 44 3b ab 9f 44 3b ea 9f 44 3b b0 9f 44 3b
       0.0030001777 0.0030002396 0.0030002543 0.0030002408
0000b0 ee 9e 44 3b 70 9d 44 3b 48 9c 44 3b 6c 9c 44 3b
       0.0030001956 0.0030001067 0.0030000377 0.0030000461
0000c0 e5 97 44 3b 6a 97 44 3b 16 37 1e 3f a9 95 44 3b
       0.0029997763 0.0029997476 0.61802804 0.002999643
0000d0 ac 95 44 3b c4 93 44 3b f4 8f 44 3b fe 8b 44 3b
       0.0029996438 0.0029995302 0.002999303 0.0029990668
0000e0 af 8a 44 3b 04 8d 44 3b a6 8d 44 3b 83 8e 44 3b
       0.0029989888 0.0029991278 0.0029991656 0.002999217
0000f0 40 8f 44 3b 84 8e 44 3b 96 8d 44 3b ee 8d 44 3b
       0.002999261 0.0029992172 0.0029991618 0.0029991823
000100 3d 8d 44 3b ee 8d 44 3b d2 8d 44 3b 0e 8f 44 3b
       0.002999141 0.0029991823 0.0029991758 0.0029992494
000110 21 91 44 3b 5b 91 44 3b bd 91 44 3b 72 91 44 3b
       0.002999373 0.0029993865 0.0029994093 0.0029993919
000120 da c4 44 3b da c4 44 3b 70 c5 44 3b 43 37 1e 3f
       0.003002456 0.003002456 0.0030024908 0.6180307
000130 70 c4 44 3b 7f c3 44 3b 18 c0 44 3b 2a bd 44 3b
       0.0030024312 0.0030023751 0.0030021723 0.0030019977
000140 cf bb 44 3b 59 bd 44 3b 10 be 44 3b 64 be 44 3b
       0.003001917 0.0030020087 0.0030020513 0.0030020708
000150 74 be 44 3b c9 be 44 3b a3 be 44 3b c4 bf 44 3b
       0.0030020745 0.0030020943 0.0030020855 0.0030021528
000160 a2 bf 44 3b ea be 44 3b 17 be 44 3b c4 be 44 3b
       0.0030021449 0.003002102 0.003002053 0.0030020932
000170 33 c0 44 3b 8e c0 44 3b 2c c0 44 3b 7c c0 44 3b
       0.0030021786 0.0030021998 0.003002177 0.0030021956
000180 e2 d3 44 3b a6 d3 44 3b 51 d3 44 3b 42 d2 44 3b
       0.0030033519 0.003003338 0.003003318 0.003003255
000190 51 37 1e 3f 89 d2 44 3b 22 d3 44 3b 7b d2 44 3b
       0.61803156 0.0030032715 0.0030033072 0.0030032683
0001a0 bc d1 44 3b 2f d2 44 3b 12 d2 44 3b 28 d2 44 3b
       0.0030032238 0.0030032506 0.0030032438 0.003003249
0001b0 2a d2 44 3b 7b d1 44 3b 4f d1 44 3b 4e d1 44 3b
       0.0030032494 0.0030032087 0.0030031984 0.0030031982
0001c0 1c d1 44 3b 60 d2 44 3b 80 d1 44 3b d0 d0 44 3b
       0.0030031865 0.003003262 0.0030032098 0.0030031689
0001d0 df cf 44 3b fe cf 44 3b d3 d0 44 3b 6e ce 44 3b
       0.0030031127 0.00300312 0.0030031695 0.0030030268
0001e0 b0 ea 44 3b 96 ea 44 3b 60 ea 44 3b 58 ea 44 3b
       0.0030047111 0.003004705 0.0030046925 0.0030046906
0001f0 37 ea 44 3b 69 37 1e 3f 52 eb 44 3b 07 ec 44 3b
       0.003004683 0.618033 0.0030047488 0.003004791
000200 3c ec 44 3b 32 ec 44 3b 29 ec 44 3b 1c ec 44 3b
       0.0030048033 0.003004801 0.003004799 0.0030047959
000210 06 ec 44 3b e8 eb 44 3b e9 eb 44 3b f0 eb 44 3b
       0.0030047907 0.0030047838 0.003004784 0.0030047856
000220 10 ec 44 3b 30 ec 44 3b 42 ec 44 3b 3f ec 44 3b
       0.003004793 0.0030048005 0.0030048047 0.003004804
000230 04 ec 44 3b ba eb 44 3b a8 eb 44 3b 78 eb 44 3b
       0.0030047903 0.003004773 0.0030047689 0.0030047577
000240 8f e6 44 3b 76 e6 44 3b 34 e6 44 3b 28 e6 44 3b
       0.003004465 0.0030044592 0.0030044438 0.003004441
000250 0e e6 44 3b 18 e6 44 3b 66 37 1e 3f c8 e7 44 3b
       0.003004435 0.0030044373 0.6180328 0.003004538
000260 2a e8 44 3b 42 e8 44 3b 6e e8 44 3b 5b e8 44 3b
       0.0030045607 0.0030045663 0.0030045765 0.0030045721
000270 42 e8 44 3b 1c e8 44 3b 10 e8 44 3b 3f e8 44 3b
       0.0030045663 0.0030045575 0.0030045547 0.0030045656
000280 81 e8 44 3b d9 e8 44 3b 1a e9 44 3b fd e8 44 3b
       0.003004581 0.0030046015 0.0030046166 0.0030046098
000290 a2 e8 44 3b fa e7 44 3b aa e7 44 3b f4 e6 44 3b
       0.0030045887 0.0030045495 0.003004531 0.0030044885
0002a0 de d9 44 3b ee d9 44 3b bc d9 44 3b e8 d9 44 3b
       0.0030037086 0.0030037123 0.0030037006 0.0030037109
0002b0 c0 d9 44 3b c6 d9 44 3b 1a da 44 3b 59 37 1e 3f
       0.0030037016 0.003003703 0.0030037225 0.61803204
0002c0 68 da 44 3b 77 da 44 3b a9 da 44 3b a7 da 44 3b
       0.0030037407 0.0030037442 0.0030037558 0.0030037554
0002d0 a6 da 44 3b 9e da 44 3b 96 da 44 3b a7 da 44 3b
       0.0030037551 0.0030037533 0.0030037514 0.0030037554
0002e0 98 da 44 3b aa da 44 3b c6 da 44 3b b0 da 44 3b
       0.0030037519 0.003003756 0.0030037626 0.0030037574
0002f0 8e da 44 3b 64 da 44 3b 56 da 44 3b e2 d9 44 3b
       0.0030037495 0.0030037398 0.0030037365 0.0030037095
000300 12 c9 44 3b 1a c9 44 3b e4 c8 44 3b 27 c9 44 3b
       0.0030027074 0.0030027092 0.0030026967 0.0030027123
000310 08 c9 44 3b 30 c9 44 3b e1 c8 44 3b 77 c8 44 3b
       0.003002705 0.0030027144 0.003002696 0.0030026713
000320 47 37 1e 3f 60 c8 44 3b 60 c8 44 3b 5a c8 44 3b
       0.61803097 0.003002666 0.003002666 0.0030026645
000330 5e c8 44 3b 4a c8 44 3b 30 c8 44 3b 0a c8 44 3b
       0.0030026655 0.0030026608 0.0030026548 0.003002646
000340 da c7 44 3b b6 c7 44 3b aa c7 44 3b c3 c7 44 3b
       0.0030026347 0.0030026264 0.0030026236 0.0030026294
000350 0c c8 44 3b 62 c8 44 3b ac c8 44 3b 98 c8 44 3b
       0.0030026464 0.0030026664 0.0030026836 0.003002679
000360 ec ba 44 3b de ba 44 3b 98 ba 44 3b e8 ba 44 3b
       0.003001864 0.0030018608 0.0030018445 0.0030018631
000370 c8 ba 44 3b ed ba 44 3b 74 ba 44 3b 03 ba 44 3b
       0.0030018557 0.0030018643 0.0030018361 0.0030018098
000380 c4 b9 44 3b 39 37 1e 3f bc b9 44 3b b8 b9 44 3b
       0.0030017952 0.61803013 0.0030017933 0.0030017924
000390 b2 b9 44 3b 7b b9 44 3b 40 b9 44 3b c0 b8 44 3b
       0.003001791 0.0030017782 0.0030017644 0.0030017346
0003a0 6a b8 44 3b 40 b8 44 3b 2a b8 44 3b 7a b8 44 3b
       0.0030017146 0.0030017048 0.0030016997 0.0030017183
0003b0 00 b9 44 3b 85 b9 44 3b 24 ba 44 3b 12 ba 44 3b
       0.0030017495 0.0030017805 0.0030018175 0.0030018133
0003c0 88 b8 44 3b 7d b8 44 3b 0f b8 44 3b 72 b8 44 3b
       0.0030017216 0.003001719 0.0030016934 0.0030017165
0003d0 52 b8 44 3b 96 b8 44 3b 01 b9 44 3b 5e b9 44 3b
       0.003001709 0.0030017248 0.0030017497 0.0030017714
0003e0 4c b9 44 3b 3e b9 44 3b 38 37 1e 3f cc b8 44 3b
       0.0030017672 0.003001764 0.6180301 0.0030017374
0003f0 c2 b8 44 3b 65 b8 44 3b 3a b8 44 3b b2 b7 44 3b
       0.003001735 0.0030017134 0.0030017034 0.0030016718

bias f4 [24]
000000 ce 5f 58 bf b6 5f 58 bf bc 5f 58 bf 85 5f 58 bf
       -0.84521186 -0.84521043 -0.8452108 -0.8452075
000010 d4 5f 58 bf 6b 5f 58 bf 6f 5f 58 bf 7a 5f 58 bf
       -0.8452122 -0.84520596 -0.8452062 -0.84520686
000020 89 5f 58 bf 94 5f 58 bf 99 5f 58 bf aa 5f 58 bf
       -0.84520775 -0.8452084 -0.8452087 -0.8452097
000030 b4 5f 58 bf b4 5f 58 bf bd 5f 58 bf e2 5f 58 bf
       -0.8452103 -0.8452103 -0.84521085 -0.84521306
000040 20 60 58 bf 24 60 58 bf ef 5f 58 bf c1 5f 58 bf
       -0.84521675 -0.845217 -0.84521383 -0.8452111
000050 e7 5f 58 bf fb 61 58 bf 31 62 58 bf 12 e9 59 bf
       -0.84521335 -0.84524506 -0.8452483 -0.8512126

weight f4 [24, 96]
000000 d8 f2 9d 3d 3b 80 71 bd 8d cf 89 3d 5e 48 a4 3d
       0.077123344 -0.05896018 0.0672904 0.080216154
000010 2a 19 22 3c 2f 03 19 3d c6 74 98 3d e7 56 a1 3d
       0.009893695 0.03735655 0.07444148 0.078779034
000020 79 7a 69 3d 00 2c 85 bc d5 de 62 3c c2 3a ab bd
       0.057001565 -0.016256332 0.013847073 -0.083608165
000030 9a 90 50 3d 18 df 13 3d 71 23 40 3d a9 5a bf 3c
       0.050919153 0.03610143 0.0469088 0.02335866
000040 1f d1 ca 3c 8d 45 1c bd d0 51 7c bc 67 11 c8 3c
       0.02475792 -0.038152266 -0.015400365 0.02442236
000050 0c ea f0 3c e5 26 3d bc 95 bf a0 3c a3 90 9f bc
       0.029408477 -0.011544918 0.019622603 -0.019478148
000060 f7 dd 34 bd 20 47 9b bd 42 e9 26 3d 30 f2 dd bc
       -0.044156995 -0.075819254 0.040749796 -0.027093023
000070 7b e6 ae 3c 60 6a a1 3d 54 e5 1d 3d 80 7a 04 bd
       0.021350136 0.078816175 0.038548782 -0.032343388
000080 40 b9 a2 bc e4 9a 25 3d 80 45 38 3b 26 82 66 bc
       -0.019863725 0.04043092 0.0028117597 -0.014069116
000090 ce 6c 86 3c c5 05 75 bd 69 bf 79 bd e9 d3 48 bd
       0.016409304 -0.059819955 -0.06097356 -0.04903022
0000a0 82 e3 32 bc a7 29 b3 bc 0e 66 82 3d 43 ba 60 3d
       -0.0109185 -0.021870447 0.06367122 0.054865133
0000b0 86 19 a2 bb a5 ea b5 3c ce c6 00 bd f1 f9 9c 3d
       -0.0049468903 0.022206614 -0.031439595 0.0766486
0000c0 5a 8b 97 bd bb 59 9c 3d 5d 16 97 3c 0e d7 01 bd
       -0.07399626 0.07634302 0.01844328 -0.031699233
0000d0 34 c4 5f bd f7 0f 1e bd 38 74 94 3d cf 50 9d 3d
       -0.054630473 -0.038589444 0.072487295 0.07681429
0000e0 1a 51 bf bd 73 e6 30 bd c8 38 2f 3d 71 87 39 bd
       -0.09341641 -0.043188524 0.04277876 -0.045295183
0000f0 63 5f e1 3c 23 41 8b bc f1 6e 3f ba bd 32 32 3d
       0.027511304 -0.016998833 -0.00073026033 0.04350542
000100 07 e9 39 bd 38 4f 82 3d ba d7 8d 3d f7 30 68 3d
       -0.045388248 0.06362766 0.06925912 0.05668732
000110 09 38 43 bd 09 01 48 3d 6e 43 54 bc 8a 02 b2 3c
       -0.04766086 0.048829112 -0.01295553 0.021729726
000120 61 d2 47 bc a2 20 29 bd ce 52 90 bc 1c 68 b6 3d
       -0.012196154 -0.041290887 -0.01761761 0.08906576
000130 ed f6 12 3d 71 db 7c 3b 38 b8 be bd 7f 1e 2c bd
       0.035880018 0.0038582946 -0.09312481 -0.04202127
000140 c5 43 92 3c 83 29 db 3c 54 07 d9 bb c2 0c bf 3b
       0.01785458 0.026753193 -0.006623188 0.0058303783
000150 a4 6c ca bd cb 04 dc 3a e3 98 c9 3c 41 cd c0 bd
       -0.09884003 0.0016786096 0.024609035 -0.09414149
000160 39 87 5a 3d 40 30 9d 3d 2e 18 98 3d c4 34 80 3d
       0.053351615 0.076752186 0.07426487 0.06260064
000170 e5 74 58 bd 4c e8 c7 bc 81 54 25 3d bb 87 52 bd
       -0.052845854 -0.02440276 0.040363792 -0.051398974
000180 d1 a4 8e bc 72 f8 36 bd bc d0 9e 3b cf 5f 95 3d
       -0.017412575 -0.04467053 0.0048466604 0.07293665
000190 c3 74 3e bd c8 77 c7 3d a8 56 9b 3d b9 c5 a8 3d
       -0.04649807 0.09739643 0.07584888 0.082408376
0001a0 de ab 6b bd 64 21 90 3d 36 8f cc bd bb e8 ae 3d
       -0.057536952 0.07037619 -0.09988253 0.085404836
0001b0 b8 2e a0 bd 9a 0a 84 bc 6d 66 70 bd a0 c9 36 3c
       -0.07821411 -0.016118336 -0.05869143 0.01115647
0001c0 94 ac b9 bc e6 d2 9e 3d 76 4e ad 3c ba 81 82 3d
       -0.0226653 0.077550694 0.021155577 0.063724
0001d0 e3 a3 b9 bd ee 0e 55 bd b2 1e c9 bd da 74 71 3d
       -0.09064462 -0.05201619 -0.09820308 0.05894933
0001e0 e6 3f 99 3d 20 51 12 3d 41 8c 4b 3d 4b 48 a8 bd
       0.07482891 0.035721898 0.049694303 -0.08216914
0001f0 84 63 2b bd ab a6 b1 bd 53 85 2c bd 92 a8 fa bb
       -0.041842952 -0.086743675 -0.042119335 -0.0076494897
000200 79 c3 29 bd 3c 90 bf 3d eb 65 73 bc aa 5e aa bd
       -0.041446183 0.093536824 -0.014855842 -0.08318837
000210 5f e2 b5 bd 03 57 9a 3c 69 9d bb bd 7b d2 75 bd
       -0.088810675 0.018840319 -0.09160883 -0.060015183
000220 d6 1e 92 3d f1 4e 95 3d 77 5d 84 bd e2 4d ea bc
       0.07134788 0.072904475 -0.064631395 -0.02860159
000230 3f b2 b2 3d cb b9 9a bd 65 a5 86 bd 03 60 6f bc
       0.08725404 -0.075549684 -0.06574515 -0.014610293
000240 02 cc ce bd c7 cf b5 bd ce 3a ba 3c 55 26 8b 3d
       -0.10097505 -0.08877521 0.022733118 0.06794421
000250 bb 4d 61 3c 50 f0 42 bd a4 30 98 bd 1a 58 ca 3d
       0.013751443 -0.04759246 -0.074311525 0.09880085
000260 c5 9e 97 bd e2 6a 72 bd 67 2d c1 bd c2 07 80 3c
       -0.0740333 -0.059183963 -0.09432488 0.0156287
000270 3b 87 db bc 62 95 e8 3b d7 2d 72 bd 9f 76 9d 3d
       -0.026797881 0.007097886 -0.059125748 0.07688641
000280 44 b9 81 3d 5f fa 82 3d 48 02 b9 3d a6 1b 2d bd
       0.06334165 0.06395411 0.09033638 -0.042262696
000290 da b8 8e bd 9f 10 8a 3d 28 5a e0 3c a4 c5 dc bc
       -0.069688514 0.067414515 0.02738674 -0.026949711
0002a0 f4 8a 4a bd 2b ff 89 3d 56 e1 6a bd be 49 94 3d
       -0.049448922 0.067381226 -0.057343803 0.07240628
0002b0 22 72 ff 3c e1 e0 3c 3c c0 07 0b 3c 13 d4 c4 bc
       0.031182352 0.011528225 0.008485734 -0.024026906
0002c0 72 87 b3 bc ed 0b d8 3c 73 91 a0 bc 33 ef 03 3c
       -0.021915171 0.026372874 -0.019600606 0.008052635
0002d0 1a ba 3a bc 3f 14 a7 bd 4c e2 64 3d 76 cf b9 39
       -0.011396909 -0.081581585 0.055879876 0.0003544052
0002e0 31 a0 fe 3c 48 0c 8f bb 49 ef 48 3b 86 41 b0 3d
       0.031082245 -0.0043654777 0.0030660203 0.086062476
0002f0 44 fd ae bd 05 09 29 bd 80 17 ad 3c 69 c9 3a 3d
       -0.085444 -0.041268367 0.02112937 0.045602236
000300 f1 54 84 bd 18 b7 38 3c 8b 20 72 bd 4e 11 90 bd
       -0.06461514 0.011274122 -0.059113067 -0.070345506
000310 3d 0d 9c bb a7 35 27 ba 12 87 8c 3d 67 e0 94 3c
       -0.0047623203 -0.0006378539 0.068617 0.01817341
000320 e3 2d af bd e1 e2 ef bc c6 97 a2 ba 85 0d 7c bd
       -0.08553674 -0.029282989 -0.0012404851 -0.06153633
000330 bc 83 aa 3d 48 47 80 bd 1a 61 7a 3d 29 41 ab 3d
       0.083259076 -0.06263596 0.06112776 0.08362038
000340 d5 c2 4f 3d 12 4b 87 bb 75 23 9c bd ad a2 93 bd
       0.050722916 -0.004128822 -0.076239504 -0.07208762
000350 5f 8a 88 bc 85 84 10 3d 58 c4 c8 3d 4f 4c 59 bd
       -0.016667543 0.03528263 0.098030746 -0.05305129
000360 08 76 c8 bd 1e 86 96 bd 7e b8 4d bd f7 bc 93 3c
       -0.09788138 -0.073497996 -0.050224774 0.018034441
000370 e1 b9 c9 3d f9 c9 83 bd 2f 44 90 bc 19 17 85 3d
       0.09849907 -0.064350076 -0.017610637 0.06498546
000380 da 42 a4 bd a5 30 17 3d 58 63 45 ba 31 79 bd bd
       -0.080205634 0.036911625 -0.0007529757 -0.09251631
000390 a1 d3 97 bd ac 4e bd bc 11 13 59 3c 80 ac d6 3c
       -0.07413412 -0.023108803 0.013249175 0.026205301
0003a0 ab 80 26 bd bc e3 ab bc c0 26 b2 bd f5 38 7d 3d
       -0.04065005 -0.020982616 -0.08698797 0.061821897
0003b0 58 3d aa 3d 87 a9 5e 3d 34 7b b3 bd 55 66 84 bc
       0.08312482 0.054360893 -0.087637335 -0.016162077
0003c0 5a 92 b9 3d b7 f4 7d 3d 7a 36 8d 3d 13 54 ad 3c
       0.090611175 0.062000956 0.06895156 0.021158254
0003d0 9e ce 94 bc d6 97 dd 3b a8 3f 6b bd ad f0 e9 3c
       -0.018164929 0.006762485 -0.057433754 0.028557146
0003e0 c8 e8 55 bd be f4 9e 3d 2f cd a9 3d ee 10 8d 3d
       -0.05222395 0.077615246 0.08291089 0.06887995
0003f0 9b 84 9a bb a4 ea 80 bd fe ab 55 3d 14 9c 76 bc
       -0.004715515 -0.06294754 0.052165978 -0.01505186

bias f4 [24]
000000 cd 28 ba bd a5 6d 83 bd 17 cf b2 3d 11 33 0f bb
       -0.090898134 -0.064173974 0.087309055 -0.0021850506
000010 7a e2 b8 3d 72 1e cd bd c3 ea ad 3d 62 ef 53 3c
       0.09027572 -0.100155726 0.08492043 0.012935491
000020 44 37 a2 bd dd bd 3a 3d 3e 18 81 bd a5 79 7b bd
       -0.07920697 0.045591224 -0.06303452 -0.061395306
000030 a6 8e b9 3b ab 89 a9 bd 22 73 34 bc f8 eb 43 3d
       0.005662757 -0.08278211 -0.011013778 0.04783246
000040 9a 64 6f bc 18 25 cf 3d 3e 94 c8 3d 79 f5 b6 bd
       -0.014611388 0.10114497 0.097939 -0.08933539
000050 f4 50 5d bd b5 da a9 bd 4d f0 7c 3d 5b 90 68 bd
       -0.05403228 -0.08293668 0.061752606 -0.056778293
