training/train_output/20231120_test_ID_logbar_2/config_27.pt (torch, 134751 bytes, 4 tensors)

weight f4 [24, 24]
00000000: eb14 91bd 5ce9 2cbe c816 2fbd 7e65 d8bc
00000010: c308 1d3e 3948 443d cdcc 9a3c bb3a 683d
00000020: 0595 943d 4c79 08be 6508 1dbd 3b5d 163b
00000030: 7898 d6bc 2abc 443e 246e 71bd 4d8c 4f3d
00000040: 0682 fa3c a2af 283e 753f d23d e306 c3bc
00000050: 58ad 8e3d e901 483d 0825 1fbe fe31 28bd
00000060: b27f 4a3e b5e5 313e 088f 1dbe 3cc1 81bc
00000070: 5af0 3e3e 9bdb 0d3c 7982 0b3e 7db9 48be
00000080: 933b 14be 065c 18be f695 37be 671b e6bd
00000090: 13b0 9d3d c343 153e ecbd 4abe 4ced 82bc
000000a0: ae2c 15be b1ca 643d b8a6 40be 7d72 8e3d
000000b0: c078 503e 02d0 0f3d a489 e2bd 18b4 80bd
000000c0: f2cb bd3d d76f cbbd 7d75 46be d136 433e
000000d0: 393d 0cbe 2cc7 d33d 0651 c23c ebf2 8c3d
000000e0: be7c 4a3b 09fa 403e 9504 78bd c9c4 81bc
000000f0: 7d13 0abe d24f 32bd 47fd 523c 3c94 153d
00000100: 74ad 16be 04ac 01be 8703 abbb 4d9e dcbd
00000110: 8339 4fbd efe0 2fbe 18fd f3bc dc0e 27bd
00000120: 2144 803c 89de 9f3d 6809 033e 5570 f4bd
00000130: 72f2 39bd 0eac a93d 8071 47be 2242 293e
00000140: 456c 273e aaca 2fbe 8e16 09bc 6053 2e3e
00000150: f3fa 00be 1d55 423e ba8d a03d 2138 903d
00000160: 03da be3d ee19 f53d b334 a1ba 7b35 00ba
00000170: be48 0b3e a8f3 ca3d d5e8 413e 26f4 0b3e
00000180: 7627 423d 7847 82bd e6cc 2fbe 75f1 a5bd
00000190: e727 edbd 028b 3dbe aa60 1bbd 7a0f 423e
000001a0: 3734 a73d 209b 453c c347 d7bc 9521 d83c
000001b0: 1310 19be ce6f 2c3e e93a ddbd 2d1b a5bd
000001c0: c3ed 443e 410d 22bc 5574 333e fc32 0dbe
000001d0: fc21 c9bd 86c8 19be 5769 3e3d 60ea 0dbe
000001e0: 97f8 343d 1ebc 843d 3ac5 2b3e ba81 063e
000001f0: f2bc 043c 2ad7 843d bb3b f2bd 1d09 28be
00000200: 6dde 2d3e 6f4c 5fbd fe50 473e 8ac0 70bd
00000210: 4ea8 81bd 7f20 ec3d b782 f6bc 5fa2 81bd
00000220: dde3 703d a85a 8fbc 7f67 8d3d a9c8 ccbd
00000230: 5346 a43d 98df b33d 2486 13be cec3 85bd
00000240: c8ac 1c3d d25e 2c3e 386a 24be 631a df3d
00000250: db37 2e3c 51d7 a33d a13c e03c 613d 3dbe
00000260: e956 ec3d 3401 053e dbec 47bd 62c8 243e
00000270: 38ca cc3b d8bd 12be a790 2f3e 9ed9 3cbe
00000280: 48b6 323e cf76 463d bd0d 073d 3e8b 3a3e
00000290: 1573 4c3e f8cf c63d dd45 903d e516 863c
000002a0: c26c 9b3d a944 513d ea56 0fbe 4ded a7bd
000002b0: 39f9 483e c10c 32be e534 093e 3d36 41be
000002c0: b294 15bd 4973 23be acd7 073e f97a 543d
000002d0: ef49 203e bbb3 acbc e10e 913d 1baa 9a3c
000002e0: 97bf 223e ae28 b5bd 2337 123e 3bfb 06be
000002f0: 6f1e 0abe a4bc c5bc 9c8a 25bd 1e53 163e
00000300: dbbc 01be 60f1 e6bd 051f c63d 1d94 dbbd
00000310: bfc7 48be 3c9e b33d 2e01 573d a5ff f4bd
00000320: 2778 3fbe 7748 683d bdad 003e a35a 283c
00000330: 26ab 443e 12c3 15be e564 253e 9781 c4bd
00000340: ed58 203e d4ef 013e 32d3 14be 07ff 463e
00000350: c12c c53d dddb d9bc f12d e6bd e3ef c83d
00000360: bfc1 503d a447 8dbc 9c7c 56bd 6f8e 123e
00000370: dd36 0b3e 641a 603d efc6 28be 8e28 2cbe
00000380: 68de f1bb 0e70 0239 faac 61bd c79e d4bd
00000390: d5f2 d8bd 892a 4fbe 7767 fb3d 0d19 0fbe
000003a0: 2b3e bdbd 4999 31be 0a89 ddbc cccc 17be
000003b0: 747c fdbd 3b37 8dbd e2d1 673d c7c7 14be
000003c0: 434b 30be 23df 163e c418 f9bc 5c22 1b3d
000003d0: 4a9c 0c3e e50a 853b 2344 113e 6459 45be
000003e0: d59c acbd 2331 d53d 2615 023e be5e 013e
000003f0: 5182 413b dc58 a23d 92ca 08bc b0d9 233e
-0.07084068 -0.16885895 -0.042746335 -0.026415583 0.15335374 0.04792044 0.018896485 0.056696635
0.07254986 -0.13327521 -0.038338084 0.0022943753 -0.02619575 0.19212404 -0.05894293 0.05067091
0.030579578 0.16473249 0.1026601 -0.023806995 0.069666564 0.048829947 -0.1554147 -0.0410633
0.19775274 0.17372783 -0.15386593 -0.015839212 0.18646374 0.008658315 0.1362399 -0.19602008
-0.14475851 -0.14878854 -0.179283 -0.11235695 0.07699599 0.1457663 -0.19799012 -0.015982293
-0.14567825 0.055857364 -0.18813598 0.06955431 0.20358562 0.03511048 -0.11061409 -0.0628435
0.09267415 -0.09933441 -0.19380756 0.1906388 -0.1369523 0.103407234 0.023720276 0.068822704
0.0030897106 0.18845381 -0.060551245 -0.015840905 -0.13483997 -0.043533154 0.012877769 0.03651832
-0.14714605 -0.12663275 -0.0052189264 -0.10772381 -0.050591957 -0.17175649 -0.02978377 -0.040785655
0.015657486 0.07806117 0.12796557 -0.11935488 -0.04539723 0.0828477 -0.1947689 0.16529134
0.16349895 -0.17167154 -0.008367194 0.17023993 -0.1259573 0.1897778 0.07839532 0.07041956
0.09318926 0.11967836 -0.0012299031 -0.0004890782 0.13601968 0.09909755 0.18936475 0.13667354
0.047400914 -0.06361288 -0.17168006 -0.08102695 -0.115798764 -0.18510059 -0.037933983 0.18951216
0.08164256 0.01206091 -0.026279336 0.0263832 -0.14947538 0.16839525 -0.10802252 -0.08061824
0.19231324 -0.009890855 0.17524846 -0.1378898 -0.09820935 -0.150179 0.04648718 -0.13858938
0.044182386 0.06481193 0.16774455 0.13135424 0.008101689 0.06486352 -0.11827799 -0.16409726
0.1697938 -0.054516252 0.1946449 -0.05877737 -0.0633093 0.11529636 -0.030091627 -0.06329798
0.058811057 -0.017499283 0.06904506 -0.099992104 0.08021226 0.087828815 -0.1440664 -0.065314874
0.038250715 0.16833046 -0.16056144 0.10893705 0.010633434 0.08000053 0.02737266 -0.18480445
0.11540014 0.1298874 -0.048809867 0.16092065 0.0062496923 -0.14330232 0.17145024 -0.1844239
0.17452347 0.04845315 0.032972086 0.18217179 0.19965775 0.09707636 0.07044575 0.016368339
0.07589103 0.05109087 -0.13997999 -0.081995584 0.19626321 -0.17387678 0.13399084 -0.18868347
-0.03651876 -0.15961947 0.13265866 0.05187509 0.15653203 -0.021081796 0.07082916 0.01887994
0.15893398 -0.0884565 0.14278845 -0.13181774 -0.13488172 -0.024137802 -0.04041539 0.14680144
-0.12669699 -0.112765074 0.09673885 -0.1072161 -0.19607447 0.08770415 0.05249136 -0.11962823
-0.18698178 0.056709733 0.12566276 0.010275516 0.19205913 -0.14625195 0.1615177 -0.0959503
0.15658922 0.12689143 -0.1453369 0.19433223 0.09627677 -0.026594097 -0.112392314 0.0981138
0.05096602 -0.017246075 -0.05236493 0.14312147 0.13595147 0.054712668 -0.16482137 -0.16812345
-0.007381249 0.0001243951 -0.055096604 -0.10381847 -0.105931915 -0.2023107 0.12275594 -0.139744
-0.09240373 -0.1734363 -0.027042884 -0.14824218 -0.12377253 -0.068953 0.056596644 -0.14529334
-0.1721621 0.14733557 -0.030407317 0.037874565 0.13731495 0.0040601366 0.14186148 -0.19272381
-0.08428351 0.10409763 0.1270338 0.12633798 0.0029527138 0.07927105 -0.008349078 0.1600101

bias f4 [24]
00000000: 4b3e 28be ff1c b5bd 934e f23d 5b6e 003e
00000010: cc43 123d cb14 3bbe 497e c33d 49d1 d5bd
00000020: 6fd7 a33d 6541 b23d 49e3 903c d387 40bc
00000030: 032f c9bd b830 4a3e 6d9d b23d d153 3abd
00000040: e456 063d 3649 63bd be7e a3bc 03e5 88bd
00000050: 7a6b 0dbe fbdb 433d 9fc7 4c3e ee33 c53c
-0.16430013 -0.08843421 0.11831393 0.12542097 0.035709187 -0.1826965 0.09545571 -0.104403086
0.08000075 0.08703879 0.017686503 -0.011751133 -0.0982342 0.19745147 0.08721433 -0.04549009
0.03279771 -0.05548974 -0.019957896 -0.066843055 -0.1381053 0.04781721 0.19998024 0.024072614

weight f4 [24, 96]
00000000: 9aec a53a 522e 333d 13bb c23d afd8 54bd
00000010: a56f 813d 3d52 7fbd 3817 6ebc 7aa7 92bd
00000020: 0413 193d 50b2 c53c 8461 aabd 58d1 563c
00000030: ce72 9a3d c079 98bd b056 33bd 9a71 46ba
00000040: d91a 993c b729 063d 59de c73c a429 a43c
00000050: f47f 59bd 7b28 9ebd 7450 bebc 7890 ae3c
00000060: 220e 18bd e123 913d fe6a e2bb 2d0c 8bbd
00000070: f74e 6fbd b13b 87bd 4352 6dbd 7cdc 67bd
00000080: 310a a23d 7d80 a93d af60 74bd 651a c4bd
00000090: ad5b 3cbd b3b0 9c3d c1bc 553c 1ebd 383b
000000a0: c734 bbbd 352a d0bc a861 8bbd 6625 833c
000000b0: 674b b7bd b19e 7c3d 6aaf 8b3d b940 aebd
000000c0: d300 7c3d b9a6 d0bd 2e0d 20bd ccec 37bd
000000d0: 96dd d8bc 7f9d 863d 8da6 b73d 0ce4 64bd
000000e0: 7246 a3bd 27a0 9abd 00d9 9fbd 842f 463d
000000f0: 052f b03d fc97 483d b339 963d d027 343b
00000100: 66ae 69bd b267 b73d dcf3 013d c05d 423d
00000110: d122 fa3c 6bfc 303c 3907 11bd c771 81bd
00000120: ca46 61bd 3039 4f3d b4e3 ca3d e40f 39bd
00000130: fec1 cabd 7c41 fb3c dc54 2fbd 9c5e a7bd
00000140: f07a 85bd 0a21 25bd 64dc 1b3d ca13 b4bd
00000150: 2d46 abbb fb1f 1c3d 2c1a 5e3c 014d 2abd
00000160: ee61 3fbc 2ccc 813c 2012 95bd d996 64bd
00000170: 18e1 81bd 0ca1 66bd ca04 ccbd f301 e03c
00000180: 5bb0 c33c ee37 ad3b b327 dcbb 655f f93c
00000190: 60b8 89bc 0247 0a3b d792 93bd 27c9 08bd
000001a0: 69dc 9f3d ba8c 3cbc 10ea ba3d 23af a23d
000001b0: 102a e83c a4d9 c2bd c637 413b 203d 043d
000001c0: edf1 64bd 329a 4b3d 1b91 cb3d a38a 4ebd
000001d0: 4929 8d3d f816 c3bd 7586 16bc a166 87bc
000001e0: fa8c a3bd 3b3d ef3c f95e b83d 0dcf 7e3d
000001f0: f47b 80bb 3958 a63d 1cf6 04bb 0fc3 8c3d
00000200: 99c9 b7bd afb6 9e3c 8843 aa3d e491 3d3d
00000210: 3566 9e3d 1766 483d 538e d23c 3202 aa3d
00000220: 0946 d43c 0d3a 353c d8ed 293d ab8e 253d
00000230: 0568 54bc 2834 bf3d 31cc 983d 9186 053d
00000240: 54e9 98bd 5407 923d 2a3e 583d 1e44 b0bd
00000250: a9ca f13c 69d1 5abd abd0 febc d2db 15bd
00000260: 8167 8b3d 896d 9a3d b081 303d d8cf 743d
00000270: 093c 25bb cf0d 1a3c ec1c 3f3d b07d a5bc
00000280: 88e8 ab3c 1027 493c a3fa ae3d 9f33 7ebd
00000290: 0ffb 903d 0a5e aa3d dc93 c5bd f6de b4bc
000002a0: 7e3d bb3d 3334 393d e138 0b3d e916 a73d
000002b0: d620 a9bd f09c f9bc f729 9e3b ca01 c83c
000002c0: 93a8 103d 4283 c4bd e25e 273c b5a3 b5bd
000002d0: 41b0 953d bd66 a03b 2143 4a3d f902 afbd
000002e0: 7a62 053d bef4 81bc 5f51 7a3d 0bc1 bbbd
000002f0: 60be 48bd 28a0 d43c 23a1 86bc cbe7 813d
00000300: c0fa 6ebd fd88 91bd c74e bbbd 6c34 86bd
00000310: 2b61 023d a08a 32bd 97b1 91bd 93f0 9dbd
00000320: 57e1 97bd 54af fc3c 32a7 d5bc c1f0 d53c
00000330: 2957 b03d 6f2a db3c 442f 8ebc 5650 283d
00000340: 725a d4bb b924 623c e861 23bd fd73 b4bd
00000350: 1b64 b3bc 70bf a6bc 6d23 883d 765e adbd
00000360: ebc8 af3d 939f d2bc 20ef 99bd cd79 8dbc
00000370: 69ce dfbc 4ef7 2fbd 8aef 52bd 57c6 583d
00000380: 82cf 36bd 02de 493d e8a5 a3bd b6eb 6e3d
00000390: 1da0 91bd 54b8 2c3d f654 2bbd 22f6 d0bd
000003a0: 44ea cfbc 0e4f c4bd 5e43 a2bc 65cd 9b3d
000003b0: a36d 98bd 74de b63d ad8f dcbc 54de c9bd
000003c0: 779c 63bc 6c78 c1bd 6a41 953c 2a4e aabb
000003d0: 6f35 be3d 5b36 aabc 553d 42bd 3c1f 86bd
000003e0: 94e9 983d b654 2ebd 724f 8c3d ca61 0d3d
000003f0: 6022 7dbc 0869 37bd 07a2 9abd a776 3e3d
0.0012659014 0.043745346 0.09508338 -0.051964458 0.06320123 -0.062334288 -0.014531903 -0.0716085
0.03737165 0.024132878 -0.08319381 0.013111435 0.075414285 -0.07445097 -0.043783844 -0.00075700285
0.01868956 0.032754626 0.024398016 0.020039387 -0.05310054 -0.07722565 -0.023231722 0.021309122
-0.037122853 0.070869215 -0.006909727 -0.06789432 -0.058424916 -0.06603182 -0.05793978 -0.056606755
0.079121 0.0827646 -0.059662517 -0.09575347 -0.045985866 0.0765089 0.013045491 0.0028188895
-0.09140926 -0.02541075 -0.06805736 0.016009044 -0.08949929 0.061674777 0.06820567 -0.085084386
0.061524224 -0.1018805 -0.03907507 -0.04490356 -0.026472848 0.06573009 0.08967314 -0.055881545
-0.07972421 -0.07550078 -0.07805061 0.04838516 0.08602718 0.04897307 0.07335224 0.002748955
-0.057051085 0.08955325 0.031726703 0.04745269 0.03053418 0.010802369 -0.03540728 -0.063205294
-0.05499915 0.050591648 0.09906712 -0.04518117 -0.09900282 0.030670874 -0.042805538 -0.08172342
-0.06517589 -0.04031471 0.038051978 -0.08792837 -0.0052268715 0.038116436 0.013556045 -0.041577343
-0.011681063 0.015844427 -0.07278848 -0.055807922 -0.06341761 -0.05630593 -0.09961851 0.02734468
0.023887804 0.0052862084 -0.0067185997 0.030440995 -0.01681155 0.0021099453 -0.07205742 -0.03339496
0.07805712 -0.011508161 0.09126675 0.07943561 0.02834037 -0.09514168 0.0029482706 0.032284856
-0.05589478 0.0497076 0.09939786 -0.050425183 0.0689264 -0.09525865 -0.0091873305 -0.01652843
-0.079858735 0.029204002 0.090024896 0.062209178 -0.0039210264 0.08122296 -0.0020288294 0.06873142
-0.089739986 0.01937422 0.08313662 0.04628171 0.07734338 0.048925485 0.025702631 0.083012
0.025912302 0.011061204 0.04148659 0.040419262 -0.012964253 0.0933612 0.074608214 0.032599036
-0.07466379 0.07130304 0.05279366 -0.08606742 0.029515581 -0.053422365 -0.03110536 -0.03658659
0.06806851 0.075404234 0.04309243 0.059768528 -0.0025212786 0.009402706 0.04665844 -0.020201534
0.020984903 0.01227738 0.08543899 -0.06206095 0.070791356 0.08318718 -0.096473426 -0.022078972
0.09142588 0.045215797 0.03398979 0.08158667 -0.08258216 -0.030470341 0.00482678 0.024414916
0.035317015 -0.09595348 0.010215493 -0.08869115 0.073090084 0.00489506 0.049380425 -0.08545489
0.032564618 -0.015863772 0.061112758 -0.091676794 -0.04900968 0.025955275 -0.016434258 0.06343039
-0.058344603 -0.071062066 -0.09145885 -0.065529674 0.031830948 -0.043589234 -0.07113951 -0.077119015
-0.07416027 0.030845322 -0.026080702 0.026115777 0.086103745 0.026753632 -0.017356522 0.04109224
-0.0064805085 0.013802701 -0.039888293 -0.088111855 -0.02189832 -0.020354956 0.06647382 -0.084652826
0.08583244 -0.025710857 -0.075163126 -0.017269993 -0.027320104 -0.042960458 -0.051497974 0.052923527
-0.04463149 0.04928399 -0.079906285 0.05833026 -0.07110617 0.042167976 -0.041829072 -0.10203196
-0.025380261 -0.09585391 -0.019807514 0.07607535 -0.074427865 0.08929148 -0.026923979 -0.09856859
-0.013892285 -0.09446797 0.018219668 -0.005197306 0.092875354 -0.020777872 -0.047421772 -0.06548926
0.074664265 -0.042561255 0.068510905 0.034517087 -0.01545009 -0.0447779 -0.075504355 0.046499874

bias f4 [24]
00000000: 7201 233d 16ba 293d d0cb a0bd 7737 623d
00000010: a4a3 8e3d 3ec9 c23d 1543 823d 14d4 34bd
00000020: 85b6 073d a1dd 29bd 3583 cf3c 56b1 88bc
00000030: c732 a43c 6d02 1bbd 2250 91bd 920f c53d
00000040: a232 eabb 7b47 cc3d 1506 cfbb 7540 23bd
00000050: 78da c93d c8d9 adbd 689e 7e3c bf75 2c3d
0.0397963 0.04143723 -0.07851374 0.055228677 0.06964806 0.0951104 0.06360451 -0.044147566
0.03313305 -0.041471127 0.02533112 -0.016686123 0.020043744 -0.03784411 -0.07095362 0.096221104
-0.007147149 0.09974571 -0.0063178637 -0.039856393 0.09856123 -0.08488804 0.015540697 0.04210448
