training/train_output/20231120_test_ID_logbar_2/config_8.pt (torch, 134879 bytes, 4 tensors)

weight f4 [24, 24]
0	0x3f1d30f6	0.61402833
1	0xba831260	-0.0009999983
2	0xba831260	-0.0009999983
3	0xba83125f	-0.0009999982
4	0xba83125f	-0.0009999982
5	0xba831260	-0.0009999983
6	0xba831262	-0.0009999985
7	0xba831262	-0.0009999985
8	0xba831265	-0.0009999989
9	0xba831263	-0.0009999987
10	0xba831263	-0.0009999987
11	0xba831262	-0.0009999985
12	0xba831264	-0.0009999988
13	0xba831263	-0.0009999987
14	0xba831263	-0.0009999987
15	0xba831262	-0.0009999985
16	0xba831263	-0.0009999987
17	0xba831264	-0.0009999988
18	0xba831265	-0.0009999989
19	0xba831265	-0.0009999989
20	0xba831262	-0.0009999985
21	0xba831262	-0.0009999985
22	0xba831262	-0.0009999985
23	0xba831262	-0.0009999985
24	0xba831262	-0.0009999985
25	0x3f1d30f6	0.61402833
26	0xba831262	-0.0009999985
27	0xba831261	-0.0009999984
28	0xba831262	-0.0009999985
29	0xba831261	-0.0009999984
30	0xba831263	-0.0009999987
31	0xba831263	-0.0009999987
32	0xba831264	-0.0009999988
33	0xba831264	-0.0009999988
34	0xba831264	-0.0009999988
35	0xba831264	-0.0009999988
36	0xba831264	-0.0009999988
37	0xba831263	-0.0009999987
38	0xba831264	-0.0009999988
39	0xba831264	-0.0009999988
40	0xba831265	-0.0009999989
41	0xba831264	-0.0009999988
42	0xba831265	-0.0009999989
43	0xba831265	-0.0009999989
44	0xba831264	-0.0009999988
45	0xba831264	-0.0009999988
46	0xba831263	-0.0009999987
47	0xba831263	-0.0009999987
48	0xba831263	-0.0009999987
49	0xba831263	-0.0009999987
50	0x3f1d30f6	0.61402833
51	0xba831263	-0.0009999987
52	0xba831262	-0.0009999985
53	0xba831263	-0.0009999987
54	0xba831263	-0.0009999987
55	0xba831266	-0.000999999
56	0xba831266	-0.000999999
57	0xba831266	-0.000999999
58	0xba831266	-0.000999999
59	0xba831265	-0.0009999989
60	0xba831265	-0.0009999989
61	0xba831264	-0.0009999988
62	0xba831266	-0.000999999
63	0xba831266	-0.000999999
64	0xba831265	-0.0009999989
65	0xba831265	-0.0009999989
66	0xba831267	-0.0009999991
67	0xba831266	-0.000999999
68	0xba831266	-0.000999999
69	0xba831264	-0.0009999988
70	0xba831263	-0.0009999987
71	0xba831263	-0.0009999987
72	0xba831265	-0.0009999989
73	0xba831265	-0.0009999989
74	0xba831264	-0.0009999988
75	0x3f1d30f6	0.61402833
76	0xba831264	-0.0009999988
77	0xba831264	-0.0009999988
78	0xba831266	-0.000999999
79	0xba831267	-0.0009999991
80	0xba831267	-0.0009999991
81	0xba831267	-0.0009999991
82	0xba831267	-0.0009999991
83	0xba831266	-0.000999999
84	0xba831266	-0.000999999
85	0xba831267	-0.0009999991
86	0xba831267	-0.0009999991
87	0xba831267	-0.0009999991
88	0xba831267	-0.0009999991
89	0xba831267	-0.0009999991
90	0xba831268	-0.0009999992
91	0xba831267	-0.0009999991
92	0xba831267	-0.0009999991
93	0xba831266	-0.000999999
94	0xba831266	-0.000999999
95	0xba831267	-0.0009999991
96	0xba831265	-0.0009999989
97	0xba831266	-0.000999999
98	0xba831264	-0.0009999988
99	0xba831264	-0.0009999988
100	0x3f1d30f6	0.61402833
101	0xba831265	-0.0009999989
102	0xba831265	-0.0009999989
103	0xba831267	-0.0009999991
104	0xba831267	-0.0009999991
105	0xba831267	-0.0009999991
106	0xba831266	-0.000999999
107	0xba831267	-0.0009999991
108	0xba831267	-0.0009999991
109	0xba831267	-0.0009999991
110	0xba831266	-0.000999999
111	0xba831267	-0.0009999991
112	0xba831267	-0.0009999991
113	0xba831268	-0.0009999992
114	0xba831267	-0.0009999991
115	0xba831267	-0.0009999991
116	0xba831267	-0.0009999991
117	0xba831267	-0.0009999991
118	0xba831266	-0.000999999
119	0xba831266	-0.000999999
120	0xba831263	-0.0009999987
121	0xba831263	-0.0009999987
122	0xba831264	-0.0009999988
123	0xba831264	-0.0009999988
124	0xba831263	-0.0009999987
125	0x3f1d30f6	0.61402833
126	0xba831264	-0.0009999988
127	0xba831264	-0.0009999988
128	0xba831266	-0.000999999
129	0xba831266	-0.000999999
130	0xba831265	-0.0009999989
131	0xba831265	-0.0009999989
132	0xba831265	-0.0009999989
133	0xba831265	-0.0009999989
134	0xba831265	-0.0009999989
135	0xba831265	-0.0009999989
136	0xba831266	-0.000999999
137	0xba831266	-0.000999999
138	0xba831267	-0.0009999991
139	0xba831266	-0.000999999
140	0xba831265	-0.0009999989
141	0xba831265	-0.0009999989
142	0xba831264	-0.0009999988
143	0xba831265	-0.0009999989
144	0xba83125c	-0.0009999978
145	0xba83125c	-0.0009999978
146	0xba83125b	-0.0009999977
147	0xba83125b	-0.0009999977
148	0xba83125a	-0.0009999976
149	0xba83125a	-0.0009999976
150	0x3f1d30f6	0.61402833
151	0xba83125e	-0.0009999981
152	0xba831260	-0.0009999983
153	0xba83125f	-0.0009999982
154	0xba83125f	-0.0009999982
155	0xba83125f	-0.0009999982
156	0xba83125f	-0.0009999982
157	0xba83125f	-0.0009999982
158	0xba83125f	-0.0009999982
159	0xba83125f	-0.0009999982
160	0xba83125f	-0.0009999982
161	0xba831261	-0.0009999984
162	0xba831261	-0.0009999984
163	0xba831260	-0.0009999983
164	0xba831260	-0.0009999983
165	0xba83125d	-0.000999998
166	0xba83125d	-0.000999998
167	0xba83125d	-0.000999998
168	0x3a831237	0.0009999935
169	0x3a831236	0.0009999934
170	0x3a831235	0.0009999933
171	0x3a831234	0.0009999932
172	0x3a831235	0.0009999933
173	0x3a831238	0.0009999936
174	0x3a831240	0.0009999946
175	0x3f1db408	0.6160283
176	0x3a83124a	0.0009999957
177	0x3a831248	0.0009999955
178	0x3a831247	0.0009999954
179	0x3a831246	0.0009999953
180	0x3a831243	0.0009999949
181	0x3a831243	0.0009999949
182	0x3a831244	0.000999995
183	0x3a831244	0.000999995
184	0x3a831246	0.0009999953
185	0x3a83124b	0.0009999959
186	0x3a83124a	0.0009999957
187	0x3a831248	0.0009999955
188	0x3a831242	0.0009999948
189	0x3a83123d	0.0009999942
190	0x3a83123c	0.0009999941
191	0x3a83123a	0.0009999939
192	0x3a83125f	0.0009999982
193	0x3a831260	0.0009999983
194	0x3a83125f	0.0009999982
195	0x3a831260	0.0009999983
196	0x3a83125f	0.0009999982
197	0x3a83125f	0.0009999982
198	0x3a831261	0.0009999984
199	0x3a831263	0.0009999987
200	0x3f1db408	0.6160283
201	0x3a831263	0.0009999987
202	0x3a831264	0.0009999988
203	0x3a831262	0.0009999985
204	0x3a831263	0.0009999987
205	0x3a831262	0.0009999985
206	0x3a831263	0.0009999987
207	0x3a831263	0.0009999987
208	0x3a831263	0.0009999987
209	0x3a831264	0.0009999988
210	0x3a831264	0.0009999988
211	0x3a831262	0.0009999985
212	0x3a831263	0.0009999987
213	0x3a831261	0.0009999984
214	0x3a831261	0.0009999984
215	0x3a831260	0.0009999983
216	0x3a831262	0.0009999985
217	0x3a831261	0.0009999984
218	0x3a831261	0.0009999984
219	0x3a831261	0.0009999984
220	0x3a831261	0.0009999984
221	0x3a831261	0.0009999984
222	0x3a831262	0.0009999985
223	0x3a831264	0.0009999988
224	0x3a831263	0.0009999987
225	0x3f1db408	0.6160283
226	0x3a831264	0.0009999988
227	0x3a831263	0.0009999987
228	0x3a831263	0.0009999987
229	0x3a831264	0.0009999988
230	0x3a831263	0.0009999987
231	0x3a831263	0.0009999987
232	0x3a831263	0.0009999987
233	0x3a831264	0.0009999988
234	0x3a831265	0.0009999989
235	0x3a831265	0.0009999989
236	0x3a831263	0.0009999987
237	0x3a831263	0.0009999987
238	0x3a831263	0.0009999987
239	0x3a831262	0.0009999985
240	0x3a83125f	0.0009999982
241	0x3a83125e	0.0009999981
242	0x3a83125e	0.0009999981
243	0x3a83125e	0.0009999981
244	0x3a83125d	0.000999998
245	0x3a83125f	0.0009999982
246	0x3a831260	0.0009999983
247	0x3a831261	0.0009999984
248	0x3a831262	0.0009999985
249	0x3a831262	0.0009999985
250	0x3f1db408	0.6160283
251	0x3a831261	0.0009999984
252	0x3a831260	0.0009999983
253	0x3a831261	0.0009999984
254	0x3a831261	0.0009999984
255	0x3a831260	0.0009999983

bias f4 [24]
0	0xbf5965d8	-0.84921026
1	0xbf5965d8	-0.84921026
2	0xbf5965d8	-0.84921026
3	0xbf5965d8	-0.84921026
4	0xbf5965d8	-0.84921026
5	0xbf5965d8	-0.84921026
6	0xbf5965d8	-0.84921026
7	0xbf58e2c6	-0.8472103
8	0xbf58e2c6	-0.8472103
9	0xbf58e2c6	-0.8472103
10	0xbf58e2c6	-0.8472103
11	0xbf58e2c6	-0.8472103
12	0xbf58e2c6	-0.8472103
13	0xbf58e2c6	-0.8472103
14	0xbf58e2c6	-0.8472103
15	0xbf58e2c6	-0.8472103
16	0xbf58e2c6	-0.8472103
17	0xbf58e2c6	-0.8472103
18	0xbf58e2c6	-0.8472103
19	0xbf58e2c6	-0.8472103
20	0xbf58e2c6	-0.8472103
21	0xbf5965d8	-0.84921026
22	0xbf5965d8	-0.84921026
23	0xbf5965d8	-0.84921026

weight f4 [24, 96]
0	0xbdbdd769	-0.09269602
1	0xbcbf53cb	-0.023355385
2	0xbd653720	-0.055960774
3	0x3d6d3551	0.057912175
4	0xbd767f46	-0.06017997
5	0xbd82efc7	-0.0639339
6	0x3da82b0e	0.08211337
7	0x3dcdceb2	0.100491896
8	0xbc09823b	-0.008392866
9	0x3d49672c	0.049170658
10	0xbc127cfa	-0.00894093
11	0xbcc41fd5	-0.02394096
12	0x3d74ec4b	0.05979566
13	0xbd720e88	-0.05909589
14	0x3b8ad252	0.004236498
15	0xbdcdb003	-0.10043337
16	0xbc36f613	-0.011167067
17	0xbdc08b9b	-0.09401628
18	0x3d6ac8ce	0.05732041
19	0x3d5ee16c	0.054414198
20	0x3d80773f	0.062727444
21	0x3da25a0d	0.07927332
22	0x3d984916	0.07435815
23	0xbcd05a62	-0.025433723
24	0x3d57e75f	0.052710887
25	0x3dcfcb94	0.10146251
26	0x3d257704	0.040396705
27	0xbda9a6d7	-0.08283775
28	0xbdb5f77c	-0.088850945
29	0x3d402ce1	0.0469178
30	0xbd034af1	-0.03205389
31	0xbc96bd08	-0.018400684
32	0xbd352bee	-0.044231348
33	0x3db30bef	0.087425105
34	0x3d9bf521	0.07615114
35	0x3ce6feaa	0.028197605
36	0xba96c01f	-0.0011501348
37	0xbd381bd9	-0.044948433
38	0xbd9ff148	-0.078096926
39	0xbd1afd45	-0.037839193
40	0x3d33f2de	0.043932788
41	0x3d4ee1cc	0.050508305
42	0xbd052ff1	-0.032516424
43	0xbd55e7a5	-0.052222867
44	0xbdc52a7d	-0.096272446
45	0xbd9a082d	-0.07521091
46	0xbca87ffa	-0.020568836
47	0xbdb40048	-0.08789116
48	0xbaa06810	-0.0012238044
49	0x3ce5c212	0.028046641
50	0x3d6bd914	0.05758007
51	0xbbb9b3cd	-0.005667186
52	0xbdafc4ab	-0.08582433
53	0x3d1d85a2	0.03845752
54	0xbbab5752	-0.0052289153
55	0x3c3f551f	0.011678009
56	0x3da35375	0.079749025
57	0x3d1a33f1	0.03764719
58	0x3d46a99c	0.048501596
59	0x3be74326	0.0070575653
60	0xbd8167df	-0.0631864
61	0xbd02db95	-0.03194769
62	0xbc7a3a7f	-0.015272736
63	0xbd8d88c5	-0.06910852
64	0xbdc9e351	-0.0985781
65	0xbcb0134f	-0.021493582
66	0xbd1e561f	-0.03865635
67	0xbac86891	-0.0015289952
68	0xbdabbed0	-0.08386004
69	0x3dbb5354	0.09146753
70	0xba84e21b	-0.0010138185
71	0xbda7c007	-0.08190923
72	0x3da8f3a0	0.08249593
73	0x3c190812	0.009340303
74	0xbdcd334d	-0.100195505
75	0xbd59929b	-0.05311833
76	0x3d8ec52a	0.069712
77	0xbdac560e	-0.08414851
78	0xbcb15df7	-0.021651251
79	0xbd9f5c34	-0.07781258
80	0x3d25b631	0.040456954
81	0xbdc161fd	-0.09442518
82	0xbd88def2	-0.066831484
83	0x3a3e0a22	0.0007249435
84	0xbd6b656e	-0.057469778
85	0xbd84322a	-0.064548805
86	0x3d6a046c	0.057133123
87	0x3db86582	0.09003736
88	0x3cd4283b	0.02589809
89	0x3d138fe4	0.036025897
90	0x3d3ac107	0.04559424
91	0x3dcb8da9	0.09939129
92	0x3cc3ba62	0.023892585
93	0xbda7ea7c	-0.08199021
94	0x3d532cee	0.05155652
95	0xbc8e8e84	-0.017401941
96	0xbdc64ec3	-0.09682991
97	0xbd8a14f5	-0.067422785
98	0xbd9e48df	-0.07728743
99	0x3d9d013a	0.076662496
100	0x3bb6f620	0.0055835396
101	0xbce19f82	-0.02754188
102	0xbbd98355	-0.0066379705
103	0x3d503de5	0.050840277
104	0xbda4f027	-0.08053618
105	0x3ce05f0f	0.027389077
106	0x3dcf880d	0.101333715
107	0xbc0c9f49	-0.008582898
108	0x3d69705f	0.05699193
109	0xbcac8440	-0.021059155
110	0xbc81f9ff	-0.015866278
111	0x3db4b453	0.088234566
112	0xbd4ef38e	-0.05052524
113	0x3be5eae5	0.007016527
114	0x3d9ea2a1	0.07745863
115	0x3cbecd0c	0.023291133
116	0xbdccedec	-0.100063175
117	0xbda32c96	-0.079674885
118	0xbd98a4e5	-0.07453326
119	0xbcf596cd	-0.029979134
120	0xbd909b67	-0.07060891
121	0x3d97c90c	0.074113935
122	0xbc895d1b	-0.016768029
123	0x3caf5354	0.021402039
124	0xbd76994c	-0.06020479
125	0xbd886894	-0.06660572
126	0xbd62547a	-0.055256344
127	0xbd2ab229	-0.041673813
128	0x3c058f41	0.00815183
129	0xbd9bb784	-0.07603362
130	0x3d477dbf	0.048703905
131	0xbdbb7d57	-0.09154766
132	0xbdb475ef	-0.088115565
133	0x3caca150	0.021073014
134	0xbc61467b	-0.013749714
135	0xbd864083	-0.065552734
136	0xbd2fe526	-0.042943142
137	0x3d9872ed	0.07443795
138	0xbd5d75f7	-0.05406758
139	0x3dc5d6d5	0.096601166
140	0xbc30ef0c	-0.010799181
141	0xbdb4af48	-0.08822495
142	0xbcd6b2e1	-0.026208343
143	0x3d519640	0.05116868
144	0xbc2285cf	-0.009919598
145	0xbd9d4c5b	-0.07680579
146	0x3dce73f4	0.1008071
147	0x3cc7d5fa	0.024394024
148	0x3c8c6056	0.01713578
149	0x3d0dc7c6	0.034614347
150	0xbc1bebf8	-0.009516709
151	0xbd8db778	-0.069197595
152	0xbd049fff	-0.032379147
153	0x3d8119e8	0.06303769
154	0xbdb2fd1a	-0.087396815
155	0x3d354d13	0.044262957
156	0x3db3048c	0.087411016
157	0xbd03b7ff	-0.032157894
158	0x3d1c9d71	0.038236085
159	0xba8ecfdc	-0.0010895687
160	0x3d1cffe1	0.038329963
161	0xbdb585cf	-0.088634126
162	0x3da76d93	0.081751965
163	0x3d11007a	0.035400845
164	0xbd8da852	-0.0691687
165	0x3d56d0ae	0.052445106
166	0x3d248882	0.040169246
167	0xbdc5b279	-0.096531816
168	0x3dcb5e12	0.09930052
169	0x3d615d9d	0.055020917
170	0x3d3537ae	0.044242553
171	0xbcc41276	-0.023934584
172	0x3da2f6b4	0.07957211
173	0xbda76b7c	-0.08174798
174	0x3dbbb8cc	0.091661066
175	0x3d8ca5b5	0.068675436
176	0x3dbc5cba	0.09197374
177	0xbcd07e34	-0.025450803
178	0xbd3a2d86	-0.04545357
179	0x3d7cab6c	0.06168692
180	0x3d32d4d3	0.043659996
181	0xbc3c179d	-0.011480239
182	0xbdb6a1e9	-0.08917601
183	0xb9847ee7	-0.00025271552
184	0x3cf47cce	0.029844668
185	0x3db63272	0.088963404
186	0x3cd1eb83	0.025624996
187	0xbd1f090c	-0.038826987
188	0x3d5c17e4	0.05373372
189	0xbdb38752	-0.08766045
190	0x3dbf5044	0.09341481
191	0xbd725ad2	-0.059168644
192	0x3db9911b	0.0906088
193	0x3d98257a	0.07429023
194	0xbcf2941b	-0.029611638
195	0xbd036127	-0.032075074
196	0x3d6cd969	0.057824526
197	0x3d8f127b	0.06985947
198	0xbd915db2	-0.07097949
199	0x3ca9f010	0.020744354
200	0x3da5bbf2	0.08092488
201	0xbd8a1e59	-0.067440696
202	0xbd87d566	-0.066324994
203	0xbd708e8f	-0.058729704
204	0xbd5a3b77	-0.053279366
205	0x3acb308d	0.001550214
206	0xbdb17225	-0.086643495
207	0x3cd75d0a	0.026289482
208	0xbd6cc1b8	-0.057801932
209	0x3da2edaf	0.07955491
210	0xbd4ecce0	-0.050488353
211	0x3dac3dd4	0.0841023
212	0xbd8a7414	-0.067604214
213	0xbdacbdc5	-0.08434633
214	0xbda9a95c	-0.08284256
215	0x3d06dfff	0.032928463
216	0x3d1fc6b7	0.03900787
217	0xbd899177	-0.06717198
218	0xbc77abd2	-0.015116649
219	0x3d87e799	0.066359706
220	0xbd23d839	-0.040001128
221	0x3d34624b	0.044039052
222	0xbdcb808a	-0.09936626
223	0xbd99ad2e	-0.075037345
224	0x3dc47765	0.09593085
225	0x3dbc1811	0.09184278
226	0xbc6618d2	-0.014044004
227	0x3dce68ce	0.10078584
228	0xbcbc8b0b	-0.02301552
229	0xbd1c2c17	-0.038127985
230	0xbd7415e9	-0.059591208
231	0x3ac7eba4	0.0015252721
232	0xbd8d6bd0	-0.06905329
233	0xbcb0b82a	-0.021572191
234	0x3d07db39	0.03316805
235	0x3a2be6b8	0.0006557512
236	0xbda1a4d4	-0.078927666
237	0xbd4460cb	-0.04794387
238	0x3b607661	0.0034250247
239	0xbd7ccac8	-0.061716825
240	0xbd931982	-0.071825996
241	0xbd87da70	-0.066334605
242	0x3cf03939	0.02932416
243	0xbdb0a887	-0.08625894
244	0x3d2bce95	0.04194506
245	0x3bf26f70	0.0073985383
246	0xbbd58f7e	-0.0065173497
247	0xbd462563	-0.0483755
248	0xbd9684ab	-0.07349523
249	0x3d755c72	0.059902616
250	0x3da58b1c	0.08083174
251	0xbd134ac2	-0.035959966
252	0xbd91483b	-0.07093855
253	0xbdb4ab48	-0.08821732
254	0xbc98d6ac	-0.018657051
255	0x3dce6c89	0.10079295

bias f4 [24]
0	0xbd7f3262	-0.06230391
1	0x3dcf61ba	0.10126062
2	0xbd73203c	-0.059356913
3	0x3ae50be3	0.0017474856
4	0x3c83f9f7	0.016110403
5	0x3c85bee4	0.016326375
6	0x3d94bd0d	0.07262621
7	0xbc8f5f90	-0.017501622
8	0xbdce6c5e	-0.10079263
9	0x3bb02616	0.005375634
10	0x3d541d25	0.051785607
11	0x3dc0df32	0.09417571
12	0xbdaa85c8	-0.08326298
13	0xbd599be8	-0.0531272
14	0xbda20f13	-0.079130314
15	0x3d177eb9	0.036986087
16	0xbc2e73dd	-0.010647741
17	0x3dba6ce9	0.09102804
18	0x3da13859	0.078720756
19	0x3d8cfaca	0.06883772
20	0x3d4c91c3	0.049943697
21	0xbc0f822a	-0.008759061
22	0xbd7163c5	-0.05893304
23	0xbd4c2e3a	-0.049848773
