training/train_output_old/20230815_scaled_softplus_warmStart_gamma_long_patience100/config_9.pt (torch, 85925 bytes, 4 tensors)

weight f4 [24, 24]
0.61447406 0.0003620566 0.00035882118 0.0003519661 0.00035172756 0.00035162567 0.00036749413 0.0003924979
0.00038944843 0.00038507744 0.00037629256 0.00037041213 0.00037100163 0.00036406762 0.00035768797 0.0003592707
0.00036011633 0.00037174427 0.0003763529 0.0003826309 0.00037163225 0.00036221973 0.00036757957 0.00034947504
-0.00030714375 0.61344546 -0.00030184223 -0.00029151008 -0.00029104244 -0.0002910476 -0.00031427172 -0.00034263803
-0.00034987068 -0.00034361274 -0.00033182316 -0.00032285982 -0.00031466354 -0.00031337095 -0.00030402845 -0.0003074072
-0.00030831626 -0.00032485937 -0.000331612 -0.0003406211 -0.000321356 -0.00030781896 -0.000314633 -0.00028908838
0.0002158288 0.00021571884 0.6126827 0.00021557561 0.00021554013 0.00021563479 0.00021588488 0.00021613855
0.00021623484 0.00021624421 0.0002162187 0.00021621144 0.0002161505 0.00021609104 0.00021609274 0.00021616198
0.0002162533 0.00021638218 0.00021640502 0.00021637249 0.00021622657 0.0002160941 0.00021604437 0.00021585736
-3.5080718e-06 -3.5076387e-06 -3.5070752e-06 0.61200994 -3.501557e-06 -3.5153935e-06 -3.552155e-06 -3.595284e-06
-3.606218e-06 -3.592333e-06 -3.5872913e-06 -3.5799399e-06 -3.575024e-06 -3.5784392e-06 -3.5832286e-06 -3.5941523e-06
-3.6018473e-06 -3.6145832e-06 -3.6141596e-06 -3.597162e-06 -3.5584994e-06 -3.5421945e-06 -3.536656e-06 -3.521161e-06
4.981289e-07 -1.5103814e-05 3.604223e-07 -1.6187252e-05 0.61200994 -4.8230363e-06 1.0566664e-06 -1.3866152e-05
-1.2786375e-05 -1.6044534e-05 4.7994927e-06 1.3562415e-05 1.1994634e-05 1.354242e-05 1.573047e-05 1.6344207e-05
1.4076845e-05 1.6550977e-05 1.3506831e-05 1.7577346e-05 -3.1956363e-06 1.6535121e-05 -7.899124e-06 -2.901981e-06
-0.00024071331 -0.00024032562 -0.00024034499 -0.00024036449 -0.00024039314 0.6125085 -0.0002407205 -0.00024094584
-0.00024071717 -0.00024065147 -0.00023993771 -0.00024012188 -0.00024033233 -0.0002400643 -0.00023996437 -0.00023942077
-0.00023966598 -0.00024016306 -0.00024016542 -0.00024034694 -0.00024032948 -0.0002400552 -0.00024076176 -0.00023965226
1.2965957e-05 1.2980142e-05 1.2996121e-05 1.3013093e-05 1.3017729e-05 1.3009088e-05 0.61200994 1.288195e-05
1.28509355e-05 1.283911e-05 1.2839055e-05 1.2853083e-05 1.2861504e-05 1.287441e-05 1.2881337e-05 1.2866905e-05
1.2844629e-05 1.2797385e-05 1.27790045e-05 1.2799846e-05 1.28613465e-05 1.292068e-05 1.2932405e-05 1.2933028e-05
1.2605746e-05 1.2627894e-05 1.26577925e-05 1.2679286e-05 1.2682041e-05 1.2669151e-05 1.257905e-05 0.61200994
1.2413337e-05 1.2422406e-05 1.2447514e-05 1.2489386e-05 1.2497432e-05 1.25194365e-05 1.2549118e-05 1.2565088e-05
1.2539857e-05 1.2446904e-05 1.2410092e-05 1.2429995e-05 1.25075185e-05 1.2574088e-05 1.2565424e-05 1.2583256e-05
1.3229583e-05 1.3239787e-05 1.3261104e-05 1.3246803e-05 1.32488985e-05 1.3230821e-05 1.3211682e-05 1.3195002e-05
0.61200994 1.32034975e-05 1.3216299e-05 1.3237599e-05 1.3242368e-05 1.32602745e-05 1.3258916e-05 1.3273344e-05
1.3275612e-05 1.327727e-05 1.3289973e-05 1.3286095e-05 1.3269291e-05 1.3269066e-05 1.3230724e-05 1.3225297e-05
-1.3351235e-05 -1.334156e-05 -1.3352749e-05 -1.3361345e-05 -1.3352968e-05 -1.3348045e-05 -1.3326167e-05 -1.3295121e-05
-1.3303376e-05 0.61200994 -1.3314834e-05 -1.3319501e-05 -1.3322837e-05 -1.3334584e-05 -1.3336229e-05 -1.3333581e-05
-1.3308996e-05 -1.3281355e-05 -1.3290075e-05 -1.3312406e-05 -1.3353982e-05 -1.3360535e-05 -1.33747735e-05 -1.3401489e-05
6.20375e-05 6.333178e-05 6.257677e-05 6.136566e-05 6.16321e-05 5.9986938e-05 5.774568e-05 5.5692086e-05
5.5423687e-05 5.6214645e-05 0.6136775 5.6629193e-05 5.6830722e-05 5.6713237e-05 5.5830602e-05 5.5022996e-05
00000000: 2c4e 1d3f 6ad2 bd39 2a20 bc39 1788 b839
00000010: 1368 b839 665a b839 3aac c039 2dc8 cd39
00000020: e22e cc39 38e4 c939 2249 c539 e033 c239
00000030: ff82 c239 54e0 be39 1188 bb39 7f5c bc39
00000040: ffcd bc39 ace6 c239 3b51 c539 da9b c839
00000050: a3d7 c239 4fe8 bd39 b2b7 c039 bf39 b739
00000060: 2308 a1b9 c30a 1d3f 9440 9eb9 d2d5 98b9
00000070: 0e97 98b9 bf97 98b9 d6c4 a4b9 19a4 b3b9
00000080: d96e b7b9 ec26 b4b9 8df8 adb9 8345 a9b9
00000090: 6df9 a4b9 f04b a4b9 0266 9fb9 7f2b a1b9
000000a0: 82a5 a1b9 e351 aab9 36dc adb9 6495 b2b9
000000b0: ac7b a8b9 c362 a1b9 54f5 a4b9 c990 97b9
000000c0: 1a50 6239 9632 6239 c6d8 1c3f 230c 6239
000000d0: 9d02 6239 061c 6239 285f 6239 40a3 6239
000000e0: 19bd 6239 9dbf 6239 c4b8 6239 d1b6 6239
000000f0: 75a6 6239 7f96 6239 f496 6239 8aa9 6239
00000100: 0ec2 6239 a6e4 6239 c8ea 6239 0ce2 6239
00000110: e1ba 6239 5197 6239 f889 6239 c557 6239
00000120: 376c 6bb6 c664 6bb6 185b 6bb6 afac 1c3f
00000130: 4bfc 6ab6 00ea 6bb6 8f61 6eb6 8246 71b6
00000140: 5a02 72b6 d013 71b6 32bd 70b6 e63e 70b6
00000150: 72ea 6fb6 1e25 70b6 6677 70b6 1133 71b6
00000160: 44b7 71b6 1192 72b6 ca8a 72b6 c666 71b6
00000170: 8ece 6eb6 70b6 6db6 4a57 6db6 164d 6cb6
00000180: 28b7 0535 6366 7db7 1080 c134 dcc9 87b7
00000190: afac 1c3f 91d5 a1b6 c8d2 8d35 aba2 68b7
000001a0: 1085 56b7 6097 86b7 540b a136 218a 6337
000001b0: 903c 4937 4034 6337 edf4 8337 eb1a 8937
000001c0: 972b 6c37 f4d6 8a37 669b 6237 1073 9337
000001d0: 9d74 56b6 e7b4 8a37 7b86 04b7 a7bf 42b6
000001e0: fd67 7cb9 ebff 7bb9 1e05 7cb9 5a0a 7cb9
000001f0: 0b12 7cb9 5bcd 1c3f eb69 7cb9 68a6 7cb9
00000200: 0669 7cb9 6357 7cb9 ca97 7bb9 3ac9 7bb9
00000210: b801 7cb9 c5b9 7bb9 f29e 7bb9 060d 7bb9
00000220: d94e 7bb9 48d4 7bb9 ead4 7bb9 a405 7cb9
00000230: f400 7cb9 54b7 7bb9 fe74 7cb9 2a4b 7bb9
00000240: 5c88 5937 49c5 5937 ea09 5a37 cf52 5a37
00000250: b866 5a37 9c41 5a37 afac 1c3f 8e1f 5837
00000260: 599a 5737 8f67 5737 5267 5737 92a3 5737
00000270: bdc7 5737 2bff 5737 ec1c 5837 f0de 5737
00000280: 437f 5737 5ab4 5637 6865 5637 ecbe 5637
00000290: 10c7 5737 e6c5 5837 42f8 5837 effa 5837
000002a0: 447d 5337 64dc 5337 ce5c 5437 1eb9 5437
000002b0: f4c4 5437 978d 5437 9c0a 5337 afac 1c3f
000002c0: e042 5037 d469 5037 aad5 5037 8189 5137
000002d0: 10ac 5137 920a 5237 0d8a 5237 a4ce 5237
000002e0: 4762 5237 0cd3 5037 f034 5037 6c8a 5037
000002f0: 62d7 5137 4cf5 5237 16d0 5237 ac1c 5337
00000300: a0f4 5d37 7420 5e37 027c 5e37 963e 5e37
00000310: 9647 5e37 f2f9 5d37 bea7 5d37 1a60 5d37
00000320: afac 1c3f 9784 5d37 92bb 5d37 0e17 5e37
00000330: 8a2b 5e37 7278 5e37 9c72 5e37 94b0 5e37
00000340: 52ba 5e37 71c1 5e37 00f8 5e37 58e7 5e37
00000350: 2c9f 5e37 349e 5e37 87f9 5d37 38e2 5d37
00000360: 1eff 5fb7 90d5 5fb7 9f05 60b7 8a2a 60b7
00000370: 9006 60b7 6bf1 5fb7 7493 5fb7 1c0e 5fb7
00000380: 9131 5fb7 afac 1c3f c762 5fb7 d276 5fb7
00000390: 2685 5fb7 9ab7 5fb7 abbe 5fb7 4bb3 5fb7
000003a0: b449 5fb7 fcd2 5eb7 70f8 5eb7 5958 5fb7
000003b0: ea0a 60b7 1027 60b7 3764 60b7 f5d6 60b7
000003c0: 211a 8238 fed0 8438 a63b 8338 70b1 8038
000003d0: 7b40 8138 7c9a 7b38 f433 7238 ec96 6938
000003e0: bb76 6838 04c8 6b38 f819 1d3f 2285 6d38
000003f0: 865d 6e38 60df 6d38 a72b 6a38 7ec8 6638

bias f4 [24]
-0.8480281 -0.84849596 -0.8467614 -0.84873897 -0.8476079 -0.8480778 -0.8501837 -0.84984297
-0.8485951 -0.84884393 -0.84886473 -0.84750766 -0.84872687 -0.8491186 -0.8498427 -0.8486093
-0.8470949 -0.8463662 -0.8458265 -0.8461452 -0.8479371 -0.8481948 -0.8489547 -0.84832174
00000000: 5f18 59bf 0837 59bf 5bc5 58bf f546 59bf
00000010: d5fc 58bf a01b 59bf a4a5 59bf 4f8f 59bf
00000020: 873d 59bf d64d 59bf 334f 59bf 43f6 58bf
00000030: 2a46 59bf d65f 59bf 4b8f 59bf 763e 59bf
00000040: 36db 58bf 75ab 58bf 1688 58bf f99c 58bf
00000050: 6812 59bf 4b23 59bf 1855 59bf 9d2b 59bf

weight f4 [24, 96]
0.016947404 -0.032822184 0.017240316 -0.0755029 -0.08926709 -0.01760599 -0.009401254 -0.021379143
0.046061933 0.032146484 0.024493143 0.025333777 -0.0057813004 0.01901856 -0.06984739 -0.06510858
0.011983551 0.06396584 0.004324436 0.09278914 0.0824402 -0.10187786 -0.047015317 0.035492823
-0.004893832 0.0342526 -0.05603892 0.054554477 -0.058728147 0.006991975 -0.08146192 -0.029386446
0.065170154 0.05276808 -0.07362718 0.058464915 -0.0150000155 -0.0784009 0.09252253 0.034676015
0.010756552 0.032422096 0.045189127 -0.09203357 0.058275685 0.07452606 0.0125629455 -0.029008947
0.014376193 0.006979868 0.017265297 -0.06340054 0.06448166 0.006249763 0.0059728175 -0.037733234
0.08848785 -0.07315627 -0.034529135 -0.06883848 0.0765699 -0.040944476 0.0017117262 -0.0070578307
0.07695168 -0.08641806 -0.052541453 -0.099218406 -0.022150196 -0.08797085 -0.0021348745 0.03929189
0.010029733 0.0098632425 -0.021262936 -0.07324484 -0.015683353 0.08307047 0.019227065 0.01831542
-0.030549891 0.06856611 0.0678509 0.02186986 0.07217497 0.007860355 0.0019624755 0.028000236
-0.09815359 0.06515825 -0.053164892 -0.044432998 -0.006117955 -0.07673663 -0.06569819 0.082586244
-0.016685687 0.037439093 0.020380825 0.10003747 -0.04783482 -0.052252654 0.09773281 -0.067992605
-0.100469716 -0.017930388 0.05770895 0.04556197 -0.0684562 -0.07903641 0.032776907 -0.066855
0.056586504 -0.023117237 -0.04132163 -0.018341482 0.08308329 -0.061382886 -0.07837327 0.04133159
0.043005392 -0.01959458 0.06145349 -0.024609804 -0.042791985 -0.07761511 -0.05104066 -0.05673347
0.027142525 -0.018725917 0.0736516 -0.049482103 0.0594296 0.08279593 -0.02326855 -0.0570382
0.05081652 -0.09715216 0.067550525 0.078338444 -0.0059551 -0.06325878 0.012981154 0.073860034
0.013663806 0.01909154 0.04448527 0.057724014 0.02226863 -0.055625167 0.002850607 -0.04352699
0.051357344 -0.052482907 0.08920972 0.042951077 -0.101955034 -0.04275153 -0.015342571 -0.033090696
-0.0034108981 -0.054608416 0.0717438 0.046504587 -0.00966984 -0.044537608 -0.07800641 -0.05882204
-0.05634365 0.0959077 -0.00010835379 -0.058225054 -0.007874809 -0.0040008053 0.02481331 0.033235237
0.06400986 -0.050833218 -0.022057205 -0.0875922 -0.036698975 -0.08973357 -0.008847341 -0.06169479
-0.034940213 0.09549977 0.09240195 0.013282716 0.05193478 0.06594384 0.004488565 0.020327047
-0.006861642 -0.08140793 0.08129771 -0.075619265 -0.030520663 -0.0849546 -0.060465705 0.10160887
-0.009417564 0.031953543 0.024694383 0.07973385 0.021363154 0.0036075413 -0.04683907 0.01872252
0.022167034 -0.070292115 -0.073816314 -0.044129927 0.08780594 0.04054807 0.057136968 0.06802237
-0.0010180622 -0.06814907 0.09779203 0.016812988 -0.036713928 0.041075453 -0.07166292 0.0035973787
0.09477475 0.03364657 -0.09566289 0.08899236 0.021775045 -0.02727691 0.08028178 0.045330897
0.059626147 0.04992391 -0.057162654 -0.0737421 0.07329756 -0.00630562 0.08288258 0.050710678
-0.098388314 0.05578153 0.050897077 -0.09825998 0.0060305074 -0.08154555 0.049980566 0.05432646
0.031067148 0.06388496 -0.056630846 -0.003560342 -0.0276528 0.078007 0.07285482 -0.036008216
00000000: 48d5 8a3c 8e70 06bd 903b 8d3c 44a1 9abd
00000010: aad1 b6bd 703a 90bc b807 1abc 5023 afbc
00000020: 70ab 3c3d 08ac 033d d8a5 c83c c888 cf3c
00000030: 1071 bdbb d0cc 9b3c 260c 8fbd a657 85bd
00000040: a856 443c 8600 833d 00b4 8d3b 3c08 be3d
00000050: 68d6 a83d 57a5 d0bd 2293 40bd ec60 113d
00000060: 705c a0bb 744c 0c3d 1189 65bd 8474 5f3d
00000070: ed8c 70bd f01c e53b 82d5 a6bd d8bb f0bc
00000080: ee77 853d 5823 583d d9c9 96bd e878 6f3d
00000090: a0c2 75bc a790 a0bd 747c bd3d 7008 0e3d
000000a0: 403c 303c 08cd 043d 3c18 393d 197c bcbd
000000b0: 7cb2 6e3d 1ea1 983d d0d4 4d3c 2ca4 edbc
000000c0: 208a 6b3c 60b7 e43b f46f 8d3c 24d8 81bd
000000d0: f60e 843d d0ca cc3b a0b7 c33b 2a8e 1abd
000000e0: 1e39 b53d f4d2 95bd 6c6e 0dbd 30fb 8cbd
000000f0: aed0 9c3d 65b5 27bd 005c e03a 6045 e7bb
00000100: d898 9d3d f4fb b0bd b535 57bd 0533 cbbd
00000110: 5474 b5bc 102a b4bd 40e9 0bbb 88f0 203d
00000120: c053 243c 7099 213c 9c2f aebc 6401 96bd
00000130: 607a 80bc da20 aa3d 1482 9d3c 380a 963c
00000140: c443 fabc 646c 8c3d 6af5 8a3d 6c28 b33c
00000150: 78d0 933d b8c8 003c e09c 003b c060 e53c
00000160: c004 c9bd b071 853d 6ec3 59bd 60ff 35bd
00000170: 2079 c8bb 1828 9dbd c68c 86bd fa22 a93d
00000180: 6cb0 88bc bc59 193d b0f5 a63c 72e0 cc3d
00000190: 72ee 43bd e106 56bd 2428 c83d b53f 8bbd
000001a0: 11c3 cdbd c0e2 92bc 3860 6c3d 309f 3a3d
000001b0: c432 8cbd d7dd a1bd 1441 063d 46eb 88bd
000001c0: 40c7 673d 5c60 bdbc df40 29bd e040 96bc
000001d0: 9227 aa3d 9f6c 7bbd 2a82 a0bd 504b 293d
000001e0: 6c26 303d d084 a0bc a8b6 7b3d 809a c9bc
000001f0: a646 2fbd acf4 9ebd 0310 51bd 5b61 68bd
00000200: 005a de3c 1867 99bc a6d6 963d bfad 4abd
00000210: 746c 733d ea90 a93d b09d bebc e3a0 69bd
00000220: fc24 503d b6f7 c6bd ee57 8a3d e86f a03d
00000230: 0023 c3bb d28d 81bd e8ae 543c ee43 973d
00000240: 28de 5f3c dc65 9c3c 3036 363d 0470 6c3d
00000250: b46c b63c 37d7 63bd 40d1 3a3b 5b49 32bd
00000260: 145c 523d 51f8 56bd 96b3 b63d 78ed 2f3d
00000270: cdcd d0bd 3a1c 2fbd 685f 7bbc 1c8a 07bd
00000280: 6089 5fbb 13ad 5fbd 6aee 923d 987b 3e3d
00000290: 406e 1ebc 116d 36bd d3c1 9fbd 61ef 70bd
000002a0: 99c8 66bd 426b c43d 003c e3b8 657d 6ebd
000002b0: 5805 01bc 3019 83bb 4845 cb3c ac21 083d
000002c0: 9a17 833d 7e36 50bd 50b1 b4bc 8a63 b3bd
000002d0: aa51 16bd 3cc6 b7bd 70f4 10bc adb3 7cbd
000002e0: 781d 0fbd 6295 c33d 3c3d bd3d c09f 593c
000002f0: 90b9 543d 900d 873d d014 933b e884 a63c
00000300: a0d7 e0bb 33b9 a6bd 6a7f a63d 46de 9abd
00000310: 7806 fabc adfc adbd e3aa 77bd 5018 d03d
00000320: 204c 1abc b8e1 023d e04b ca3c 804b a33d
00000330: c801 af3c 806c 6c3b 53da 3fbd f85f 993c
00000340: a497 b53c 50f5 8fbd 022d 97bd 95c1 34bd
00000350: 9ad3 b33d bc15 263d 7408 6a3d 504f 8b3d
00000360: 8070 85ba bd91 8bbd 3047 c83d 64bb 893c
00000370: 5861 16bd bc3e 283d 02c4 92bd 00c2 6b3b
00000380: 4419 c23d fcd0 093d e8ea c3bd a041 b63d
00000390: 9461 b23c d473 dfbc c66a a43d e4ac 393d
000003a0: 8c3a 743d 047d 4c3d 6323 6abd 1906 97bd
000003b0: 081d 963d 609f cebb 58be a93d 00b6 4f3d
000003c0: d07f c9bd 2c7b 643d 7479 503d 873c c9bd
000003d0: 909b c53b 5a01 a7bd 6cb8 4c3d 6c85 5e3d
000003e0: 8880 fe3c 1ed6 823d bff5 67bd a054 69bb
000003f0: 2088 e2bc 22c2 9f3d e834 953d 5a7d 13bd

bias f4 [24]
-0.06745814 0.005729288 -0.0888312 -0.008485176 0.08250569 0.052188694 0.05855383 -0.057377398
-0.09047454 -0.027761877 0.076832056 0.07943769 0.09999861 0.04447791 -0.005765602 -0.09723304
-0.0055359155 0.060277835 0.036477894 -0.03172814 -0.05137947 0.057661057 0.0051795766 0.006814413
00000000: 7e27 8abd c0bc bb3b 22ed b5bd 6805 0bbc
00000010: bef8 a83d d0c3 553d 24d6 6f3d 9004 6bbd
00000020: b74a b9bd e06c e3bc 205a 9d3d 3ab0 a23d
00000030: 12cc cc3d 782e 363d 60ed bcbb 1e22 c7bd
00000040: a066 b5bb e4e5 763d d869 153d 5ef5 01bd
00000050: 4773 52bd 002e 6c3d 70b9 a93b 704b df3b
