training/train_output_old/20230815_scaled_softplus_warmStart_gamma_long_patience100/config_4.pt (torch, 85925 bytes, 4 tensors)

weight f4 [24, 24]
0.61532444 0.0003078231 0.00031711752 0.00031916678 0.00031779395 0.00030719343 0.0002885021 0.0002733925
0.00027819935 0.00028341092 0.00029530027 0.00030851865 0.00031220383 0.00031442856 0.00031665625 0.00031992185
0.0003163596 0.00030458812 0.00031282345 0.0003238985 0.00033989255 0.0003453436 0.00033498954 0.00031126864
0.0001697943 0.61520296 0.00019160536 0.00019328321 0.00019657849 0.0001861131 0.00017135683 0.00016536846
0.00016603581 0.00016330446 0.00016450605 0.0001541227 0.0001577915 0.00016824041 0.00016739154 0.00016256428
0.0001550377 0.00014424497 0.00015077271 0.00015082331 0.0001534165 0.00015172797 0.00015261176 0.0001766827
0.0004965451 0.0004991032 0.6155167 0.00049769407 0.0004987361 0.00049972365 0.0005031876 0.0005025227
0.00049955025 0.0004963707 0.0004910409 0.0004895779 0.0004918336 0.0004925107 0.0004909808 0.00048847625
0.00048793276 0.00049198495 0.00048662093 0.00047950103 0.0004697601 0.00047305948 0.00048295115 0.0004924358
-0.00035459912 -0.00035290964 -0.00035341148 0.6146665 -0.00035349853 -0.0003524337 -0.0003512291 -0.00034729892
-0.0003449631 -0.0003460094 -0.0003474574 -0.000349998 -0.00035221069 -0.00035202742 -0.00035092098 -0.00034965677
-0.00035031952 -0.00035100145 -0.0003519956 -0.00035225938 -0.0003556911 -0.0003587617 -0.00035834248 -0.00036056153
-0.0003923664 -0.00039397427 -0.0003959919 -0.00039521404 0.6146239 -0.00039035332 -0.00038836978 -0.0003830353
-0.00038019498 -0.0003859206 -0.0003870531 -0.00039066654 -0.00039414092 -0.00039216853 -0.00039191556 -0.0003920753
-0.0003917124 -0.00039117972 -0.0003884424 -0.00038833736 -0.0003919477 -0.00039284633 -0.000397407 -0.00038351
7.3001764e-05 6.721515e-05 5.987321e-05 6.1602375e-05 5.8910664e-05 0.61508405 6.832591e-05 7.3079085e-05
7.267593e-05 7.5405354e-05 7.4323536e-05 7.321358e-05 6.790643e-05 6.4586464e-05 6.654148e-05 7.099611e-05
7.320716e-05 7.4464304e-05 7.1843795e-05 7.202834e-05 7.0836744e-05 6.893313e-05 6.7725814e-05 4.962373e-05
0.0004652229 0.0004582103 0.00045325182 0.0004489027 0.00044470528 0.00044757893 0.6154799 0.0004883126
0.0005046548 0.00050101744 0.00049383467 0.00048525102 0.00048094033 0.0004845427 0.00048233618 0.0004816359
0.0004947565 0.0005007708 0.0005078267 0.0005133332 0.00051350106 0.0005070973 0.0005015213 0.00049122755
0.00040791548 0.00040928225 0.0004106604 0.0004092826 0.00041415833 0.00042462832 0.00044122364 0.6154745
0.00045644227 0.00045064415 0.00044488156 0.00043501458 0.0004278113 0.00042484514 0.00042702415 0.0004237479
0.00043250382 0.0004385657 0.000432876 0.00042638768 0.00041157068 0.00039760087 0.0003976207 0.00041880782
0.0003384599 0.00032340465 0.0003159215 0.0003135806 0.0003075086 0.00031682334 0.0003490592 0.00046647017
0.6154967 0.0004731717 0.00047403283 0.0004770513 0.00047206535 0.00046830185 0.00046905156 0.00046834213
0.00048173915 0.0004948211 0.0004972705 0.00049209985 0.00047920507 0.00038097752 0.00037558272 0.00034904553
7.254138e-05 7.411992e-05 6.99278e-05 6.941564e-05 6.6014385e-05 7.272322e-05 5.20052e-05 3.4783654e-05
3.4215158e-05 0.61505526 3.9573268e-05 4.5251585e-05 4.0108633e-05 4.146573e-05 3.7171256e-05 3.1378084e-05
2.4462199e-05 1.2475844e-05 1.7354334e-05 1.6134974e-05 2.3223227e-05 4.6941343e-05 4.5815632e-05 5.2142063e-06
0.00027287522 0.00028214933 0.00029675453 0.00029542772 0.00030725216 0.00028722637 0.00024115453 0.00020037613
0.00018352635 0.00019285856 0.61521834 0.00021217615 0.00022068406 0.00022113866 0.00021538598 0.0001989402
00000000: e785 1d3f 5163 a139 cb42 a639 d755 a739
00000010: 959d a639 ce0e a139 1942 9739 1f56 8f39
00000020: 49db 9139 c596 9439 88d2 9a39 acc0 a139
00000030: 4aaf a339 e3d9 a439 e204 a639 2fbb a739
00000040: 11dd a539 20b1 9f39 7402 a439 ecd0 a939
00000050: 9b33 b239 3c0f b539 89a1 af39 c531 a339
00000060: cf0a 3239 f17d 1d3f ace9 4839 11ac 4a39
00000070: a320 4e39 5b27 4339 40ae 3339 c266 2d39
00000080: e619 2e39 b53c 2b39 427f 2c39 ff9b 2139
00000090: d574 2539 b169 3039 d385 2f39 0476 2a39
000000a0: 9e91 2239 7740 1739 be18 1e39 5326 1e39
000000b0: 6ede 2039 2b19 1f39 6806 2039 e743 3939
000000c0: 942a 023a 40d6 023a 8192 1d3f af77 023a
000000d0: 9dbd 023a e3ff 023a 59e8 033a babb 033a
000000e0: 40f4 023a e01e 023a 32b9 003a 0457 003a
000000f0: 65ee 003a d51b 013a 2ab5 003a 160d 003a
00000100: 3ad1 ff39 8df8 003a 2821 ff39 8a65 fb39
00000110: 224a f639 f804 f839 9b34 fd39 cf16 013a
00000120: 7de9 b9b9 bb06 b9b9 164a b9b9 c95a 1d3f
00000130: c555 b9b9 dac6 b8b9 2c25 b8b9 ac15 b6b9
00000140: 2adc b4b9 9868 b5b9 f12a b6b9 f07f b7b9
00000150: eba8 b8b9 5290 b8b9 d1fb b7b9 2352 b7b9
00000160: 17ab b7b9 9e06 b8b9 0d8c b8b9 74af b8b9
00000170: 0d7c bab9 2e18 bcb9 eadf bbb9 c009 bdb9
00000180: 87b6 cdb9 558e ceb9 229d cfb9 bb34 cfb9
00000190: fe57 1d3f 56a8 ccb9 1c9e cbb9 21d2 c8b9
000001a0: e854 c7b9 6355 cab9 63ed cab9 60d2 ccb9
000001b0: b3a4 ceb9 f89b cdb9 047a cdb9 758f cdb9
000001c0: c05e cdb9 4117 cdb9 dba7 cbb9 c299 cbb9
000001d0: 547e cdb9 f1f6 cdb9 115b d0b9 d711 c9b9
000001e0: 8618 9938 dcf5 8c38 5f20 7b38 8630 8138
000001f0: d816 7738 2676 1d3f 324a 8f38 0942 9938
00000200: 9869 9838 f122 9e38 25de 9b38 3e8a 9938
00000210: fd68 8e38 9872 8738 2f8c 8b38 bfe3 9438
00000220: cb86 9938 b829 9c38 d8aa 9638 ec0d 9738
00000230: 308e 9438 3190 9038 0508 8e38 1323 5038
00000240: 29e9 f339 f23b f039 6ea2 ed39 b35a eb39
00000250: 5527 e939 07a9 ea39 1790 1d3f 1b02 003a
00000260: cf4a 043a b656 033a af74 013a 4a69 fe39
00000270: b826 fc39 380a fe39 11e2 fc39 1484 fc39
00000280: 8cb2 013a 2946 033a ac1f 053a 3591 063a
00000290: 799c 063a b9ee 043a 8678 033a b9c5 003a
000002a0: 7ddd d539 ef94 d639 e84d d739 fb94 d639
000002b0: 6423 d939 a6a0 de39 0954 e739 bd8f 1d3f
000002c0: a54e ef39 6f44 ec39 fe3e e939 ab12 e439
000002d0: dc4b e039 c0bd de39 36e2 df39 7b2a de39
000002e0: aec1 e239 4bef e539 a2f3 e239 c98c df39
000002f0: 15c8 d739 1675 d039 bf77 d039 6f93 db39
00000300: 5273 b139 a38e a939 44a2 a539 1368 a439
00000310: 1b39 a139 4f1b a639 ef01 b739 9190 f439
00000320: 3191 1d3f 0814 f839 9c87 f839 be1c fa39
00000330: 8a7f f739 6986 f539 09eb f539 d18b f539
00000340: ef91 fc39 e2b6 013a 425b 023a 4300 013a
00000350: d13d fb39 f0bd c739 dce9 c439 1900 b739
00000360: 5b21 9838 d470 9b38 34a6 9238 3d93 9138
00000370: 3471 8a38 fb82 9838 2920 5a38 aae4 1138
00000380: 3f82 0f38 4374 1d3f 79fb 2538 85cc 3d38
00000390: 513a 2838 7deb 2d38 55e8 1b38 f69b 0338
000003a0: 2c34 cd37 584f 5137 2694 9137 9859 8737
000003b0: 80cf c237 e2e2 4438 292a 4038 b1f5 ae36
000003c0: b110 8f39 71ed 9339 b895 9b39 a3e3 9a39
000003d0: b016 a139 df96 9639 6dde 7c39 0f1c 5239
000003e0: fb70 4039 133a 4a39 f37e 1d3f 9a7b 5e39
000003f0: 6d67 6739 75e1 6739 3cd9 6139 9a9a 5039

bias f4 [24]
-0.8477575 -0.8479507 -0.84787154 -0.8485484 -0.8485608 -0.8482243 -0.8475302 -0.84776497
-0.8478818 -0.84800667 -0.847712 -0.8476663 -0.8481288 -0.84859794 -0.8483635 -0.848291
-0.84814185 -0.84818584 -0.84801877 -0.8486163 -0.84823275 -0.84832746 -0.8485645 -0.8486369
00000000: a306 59bf 4c13 59bf 1c0e 59bf 783a 59bf
00000010: 483b 59bf 3a25 59bf bdf7 58bf 2007 59bf
00000020: c80e 59bf f716 59bf a703 59bf a900 59bf
00000030: f81e 59bf b73d 59bf 5a2e 59bf 9929 59bf
00000040: d31f 59bf b522 59bf c217 59bf eb3e 59bf
00000050: c825 59bf fd2b 59bf 863b 59bf 4540 59bf

weight f4 [24, 96]
-0.039732266 -0.02378565 -0.052238308 0.07498591 0.0095410645 -0.025849596 -0.045727212 -0.09086728
0.0073230565 0.089716434 0.067108765 0.080893084 0.06973268 0.042947665 -0.0029390082 -0.07550297
0.07504021 -0.07181956 -0.06137343 0.040954307 0.05605191 -0.05311187 0.064591095 -0.095516644
0.024321496 0.045057014 0.01895751 -0.05743104 -0.06892706 0.0815725 0.022484854 -0.043846525
0.09830533 -0.021303587 -0.018873304 0.026270106 0.084971845 -0.045432936 0.00051454455 -0.04582031
-0.046228167 -0.013912335 -0.00010514259 0.054725647 -0.07623418 0.059227124 0.07973811 -0.0116351545
-0.009142511 0.025169 -0.09343984 0.0750992 -0.01785414 0.0041046813 0.048386842 0.042497993
-0.047224514 -0.07496625 -0.09845995 -0.08522482 -0.021455318 -0.07923317 -0.0103055015 -0.05392096
0.057831794 0.06981146 0.08634506 -0.06692746 -0.072026454 0.03540504 -0.023307048 0.077401936
-0.09363145 0.09464589 -0.07079214 -0.08184514 -0.010822833 -0.04521402 -0.0643391 0.05826807
0.07882485 0.05682397 0.012457773 -0.01468683 -0.0556865 0.097277775 -0.055588603 -0.0894857
0.086591735 -0.008231156 0.06857769 -0.033875644 0.079493195 -0.07197129 0.061419293 0.07943617
-0.0014268905 0.067683935 0.0036217347 -0.09344589 0.044712827 -0.079343036 0.00320746 -0.091807455
-0.048593566 -0.030410662 -0.03966317 -0.10053691 -0.050692827 -0.094568126 -0.08532541 -0.1018251
-0.058794565 -0.022870466 0.09194523 -0.07180202 -0.07761171 -0.08308491 0.095482975 -0.013052218
-0.027154602 0.05595985 -0.06030328 -0.026973315 0.09354752 0.05435969 -0.07917281 -0.028051034
0.010022469 0.03687565 -0.04695553 0.071463004 0.0015960857 -0.08824519 0.027348474 -0.099077575
0.0071054995 -0.1009423 -0.029112667 -0.023719765 -0.091679074 -0.028868422 0.0034273267 -0.05750331
0.014483981 0.053895324 0.012045436 -0.10017998 -0.00032250583 -0.047830805 0.02909188 -0.08189097
-0.07059988 -0.0033881813 0.058853373 -0.027266264 -0.005381964 -0.010107681 -0.0798582 -0.008074902
-0.0028725117 0.01689364 0.045680568 0.030395135 0.056917056 -0.019457065 -0.044089813 0.08667652
0.08137652 0.055645525 0.07434854 0.049987108 0.0902202 0.08878365 -0.08298284 -0.09618
-0.052952155 0.07803494 0.092154145 0.006657876 -0.075462304 -0.04796902 0.048518464 0.09507036
0.019768253 -0.06712336 0.09683631 0.089620546 -0.044774104 -0.055147912 0.058676377 -0.07375335
0.08519313 -0.020602867 -0.0013890862 -0.054525025 -0.10089947 0.023091063 -0.036363237 -0.05984356
0.0813549 0.018925823 -0.027366117 -0.094120175 -0.057454593 -0.033315666 0.042904362 -0.09302111
0.05894482 0.09283723 0.031582862 -0.10133477 0.0133153945 -0.041187447 0.03228481 -0.0038150772
0.04993719 -0.008303747 0.018409297 0.040662527 -0.07561749 0.017020658 0.09094913 0.071265906
0.0063529164 -0.017947726 0.042201355 -0.08975018 -0.030740067 0.08852543 0.013134308 -0.0013203993
-0.08033448 -0.06614924 0.014114849 -0.076719195 -0.029513478 -0.050278623 0.031453118 0.015591763
-0.098544255 0.03368613 -0.009201989 -0.04944503 0.075185835 -0.06719134 -0.09309409 0.011127278
-0.055395324 -0.041446827 -0.089257486 -0.025365137 0.08108738 -0.09260161 -0.06901467 -0.022334583
00000000: 4dbe 22bd 20da c2bc d6f7 55bd 3692 993d
00000010: 2052 1c3c 88c2 d3bc 754c 3bbd a018 babd
00000020: 40f6 ef3b 40bd b73d 5270 893d 46ab a53d
00000030: 02d0 8e3d e4e9 2f3d 609c 40bb 4da1 9abd
00000040: aeae 993d 2216 93bd b562 7bbd b4bf 273d
00000050: b096 653d d58b 59bd 5648 843d 3b9e c3bd
00000060: e03d c73c b48d 383d c84c 9b3c cf3c 6bbd
00000070: a129 8dbd 7c0f a73d 2832 b83c 6a98 33bd
00000080: 4e54 c93d dc84 aebc 309c 9abc 6834 d73c
00000090: b805 ae3d e317 3abd 80e2 063a 14ae 3bbd
000000a0: bf59 3dbd 90f0 63bc 0080 dcb8 0028 603d
000000b0: aa20 9cbd 2498 723d bc4d a33d 60a1 3ebc
000000c0: 78ca 15bc 382f ce3c 635d bfbd 9ccd 993d
000000d0: d842 92bc 9080 863b 4831 463d 6012 2e3d
000000e0: 7e6e 41bd e887 99bd 5fa5 c9bd 5a8a aebd
000000f0: 10c3 afbc 0045 a2bd 68d8 28bc 39dc 5cbd
00000100: 08e1 6c3d 50f9 8e3d aed5 b03d 4411 89bd
00000110: 9b82 93bd e004 113d 6cee bebc e884 9e3d
00000120: d8c1 bfbd b4d5 c13d 78fb 90bd 6d9e a7bd
00000130: 4052 31bc 5632 39bd 38c4 83bd 80aa 6e3d
00000140: ec6e a13d 40c0 683d b01b 4c3c 08a1 70bc
00000150: 8717 64bd 9239 c73d e0b0 63bd 4744 b7bd
00000160: 0257 b13d f8db 06bc 7672 8c3d 30c1 0abd
00000170: 54cd a23d af65 93bd cc92 7b3d 6eaf a23d
00000180: 8006 bbba e09d 8a3d a05a 6d3b 8f60 bfbd
00000190: cc24 373d 9a7e a2bd 4034 523b 8c05 bcbd
000001a0: 0c0a 47bd c81f f9bc d975 22bd 4ce6 cdbd
000001b0: 48a3 4fbd efac c1bd 17bf aebd ae89 d0bd
000001c0: 92d2 70bd d85a bbbc c84d bc3d f00c 93bd
000001d0: e3f2 9ebd 6c28 aabd 948c c33d f8d8 55bc
000001e0: 5473 debc 2836 653d 9200 77bd 24f7 dcbc
000001f0: d895 bf3d 44a8 5e3d 5b25 a2bd 48cb e5bc
00000200: 4835 243c ec0a 173d 7154 40bd 325b 923d
00000210: c033 d13a e5b9 b4bd e809 e03c 2fe9 cabd
00000220: 40d5 e83b d6ba cebd b07d eebc f44f c2bc
00000230: 3dc2 bbbd 787d ecbc 009d 603b 9788 6bbd
00000240: 384e 6d3c 58c1 5c3d 385a 453c 292b cdbd
00000250: 0016 a9b9 3cea 43bd 1852 ee3c 74b6 a7bd
00000260: ab96 90bd 400c 5ebb 3c10 713d 805d dfbc
00000270: 305b b0bb b09a 25bc b28c a3bd 984c 04bc
00000280: c040 3cbb 8864 8a3c 8c1b 3b3d 38ff f83c
00000290: dc21 693d 6c64 9fbc 8597 34bd 7683 b13d
000002a0: bca8 a63d 90ec 633d 0c44 983d 48bf 4c3d
000002b0: 5ec5 b83d 34d4 b53d e8f2 a9bd 05fa c4bd
000002c0: 5ce4 58bd c8d0 9f3d 50bb bc3d 502a da3b
000002d0: fb8b 9abd 2a7b 44bd 4cbb 463d 40b4 c23d
000002e0: 08f1 a13c f977 89bd 1e52 c63d fa8a b73d
000002f0: 0d65 37bd c7e2 61bd a456 703d ff0b 97bd
00000300: bc79 ae3d 58c7 a8bc 0012 b6ba a255 5fbd
00000310: 62a4 cebd 7829 bd3c 9ef1 14bd 851e 75bd
00000320: 669d a63d 540a 9b3c e82e e0bc 14c2 c0bd
00000330: 8255 6bbd 0276 08bd 7cbc 2f3d da81 bebd
00000340: 2070 713d 7221 be3d 085d 013d 9b88 cfbd
00000350: d028 5a3c 2bb4 28bd 143d 043d 6006 7abb
00000360: f08a 4c3d 700c 08bc 18cf 963c c08d 263d
00000370: 58dd 9abd e86e 8b3c 8a43 ba3d dcf3 913d
00000380: 202c d03b 1c07 93bc 54db 2c3d f1ce b7bd
00000390: 98d2 fbbc d24c b53d 4831 573c 4011 adba
000003a0: 6786 a4bd 4179 87bd f841 673c f41e 9dbd
000003b0: 40c6 f1bc f5f0 4dbd fcd4 003d 9874 7f3c
000003c0: 92d1 c9bd 78fa 093d f0c3 16bc df86 4abd
000003d0: 08fb 993d 9d9b 89bd 1da8 bebd 304f 363c
000003e0: 35e6 62bd 26c4 29bd a1cc b6bd 8cca cfbc
000003f0: 2411 a63d eaa5 bdbd 9057 8dbd 04f7 b6bc

bias f4 [24]
0.00055062026 -0.016439207 0.07945995 0.0061109215 -0.061350375 0.011433035 -0.075490445 0.01523751
0.026961446 -0.09622436 -0.069814935 -0.051262476 -0.03568659 -0.018542863 0.042800754 -0.080558404
0.052786484 -0.07074855 0.08962394 -0.058250204 -0.07807805 0.07314767 0.0830161 -0.03457909
00000000: 8057 103a 84ab 86bc e6bb a23d 203e c83b
00000010: 884a 7bbd a051 3b3c bc9a 9abd c0a6 793c
00000020: 40de dc3c 4711 c5bd 22fb 8ebd 9af8 51bd
00000030: 1a2c 12bd 34e7 97bc d84f 2f3d cefb a4bd
00000040: a436 583d 9ee4 90bd c28c b73d c497 6ebd
00000050: 62e7 9fbd 72ce 953d 5804 aa3d cea2 0dbd
