training/train_output/ID_Q_softplus_cold/config_6.pt (torch, 80741 bytes, 4 tensors)

weight f4 [24, 24]
00000000: fae4 003e 235e 5b3e a9e7 11be 8296 a73d
00000010: 671e 473c 30e9 aebc fbaa cfbd 6b71 82bc
00000020: 22b7 bcbd 8379 c4bc 1b6c e7bd 17dc 753d
00000030: f265 6bbd ea6b 533d 140b 4e3e 1e6e bdbd
00000040: 4755 9d3c 805f fc3d baeb f03d dcbb 6c3d
00000050: ce0c 173e a32b 88bc 8235 2abe 3f12 ef3d
00000060: 46ad ce3d 2c40 103e 5e8d 223e afdb d1bd
00000070: 90ed 933d f977 8e3c b7ec 7e3d 1dad 0dbe
00000080: 27fd 27be e06f 38be 00e5 f43d 04c5 e8bd
00000090: fdd1 50be 1157 91bd 8e20 21bd 6d83 ddbd
000000a0: d1fe 293e 13b6 203e 9344 023e e556 2fbe
000000b0: 1a5d 243e 393f 8ebd 6fd5 3ebe 7778 f5bd
000000c0: 795e 2d3e c19a e8bd 6042 5abd 7850 063e
000000d0: 5792 ff3d 90d8 15be d812 203e 064a eb3d
000000e0: b2b3 ab3c 2984 16be 6d89 233e 36fc 863d
000000f0: 907a a8bc f0e7 7e3d 2985 2fbe 7850 0dbd
00000100: a876 c03d f97e 44be 9ef9 0d3e d337 193d
00000110: 7cf2 35bd 94f9 843b c7a6 cf3d 49b0 3fbe
00000120: 58bb 933c a9bc eabd 4faa dd3d 5193 92bc
00000130: 631f abbd 2e71 3cbe dfb1 93bd 831c 41bd
00000140: 9768 3abe 5733 bd3b af54 6dbc cff1 c33d
00000150: 0c49 20be ddc6 f73d 8fb7 173d 5a8b 24bd
00000160: b210 5b3d cbe3 03bc a62a 39bd 173a 343c
00000170: 2f12 423e 12c5 7f3d 7510 09be d14a c0bd
00000180: 6037 fa3d 1915 ba3d adea 323d 9c30 29be
00000190: f2b0 0bbd 52ea d4bd fa42 e53d bb85 99bd
000001a0: 7ede 1e3d 50ca 5c3c d637 a5bd 7a51 4abe
000001b0: a878 2abe 1543 24be e12c 9bbd f518 113e
000001c0: d40c d73a 45ed 023e e7b5 533d b148 81bd
000001d0: 67ce 98bc 093d b0bd f36a 10be 0237 f2bd
000001e0: 1f89 6abd 3d22 2dbe f565 49be dd09 183c
000001f0: 2eeb db3d f74b e73c dfd2 7d3d dd4e 9ebd
00000200: 31b7 cbbd 549a 053e d870 f0bd f86f 2f3e
00000210: 83ac 333e 95dd 4bbd 23a7 1cbe f330 e9bd
00000220: 62bb d43d 040a adbd 0169 3abe 664f e33d
00000230: c1a5 5fbe 25fd 383e 2664 113e eefb c33d
00000240: 96d8 74bd 36d4 073d d869 103e cbba 15be
00000250: 3a25 0d3e 45bc 2d3e 627e d1bc 8c3d 1abe
00000260: 98b7 453c 28d0 07be adce c13c 1b0b 973b
00000270: 6fc1 7dbd 38ff 033e acfe 3fbd a35b 8bbd
00000280: 5266 3b3e bc00 453d c05f 0b3e d298 b33d
00000290: 4638 9ebd ea7a 073d 4859 ccbc 24b5 353e
000002a0: 93ef 3f3e 2954 3abe dabb 9a3d e56c ffbb
000002b0: 3900 bfbb fde2 86bd e9a4 0cbe e51f 0bbe
000002c0: 2543 a23d 4a4d 34be bc55 01be a893 2e3e
000002d0: c67b e0bd 3434 813d a613 e0bd c005 183e
000002e0: 805d cabc dd72 443d a0d2 0dbe 5cc3 433e
000002f0: 551d 3dbe da83 3d3e 15d4 6cbd a7b6 4d3e
00000300: 9235 3c3e 8344 4b3e 5459 0abe fdd6 673e
00000310: b67a 253d 93b3 bd3c d7cd fdbd f7c6 463e
00000320: 6adc 383e 8dc2 ab3c 958b 483e 2c7d e8bd
00000330: f4d6 5c3e e810 243e a5ae 8bbc 0237 2fbe
00000340: a840 1ebd b7c0 6a3e ea48 ec3d 68d6 893c
00000350: 9570 fc3d d683 adbd f14d f23d e92e d23d
00000360: e653 9bba e908 d33d 2007 26be a8d7 3c3e
00000370: 9d92 583d 81c1 453e db6d eabb 10ac bf3d
00000380: 92d0 27be ce50 c4bb 2818 c8bd e6b2 33bd
00000390: 4829 703d 35ae a8bc 006a a53d 5e9d 00be
000003a0: a254 e9bc 76b2 93bd 5292 553d 8c5e 0b3e
000003b0: 0456 233e aeb7 8c3d ebe7 35be e24d a53d
000003c0: 1a39 3a3e 9dc9 22be 0e80 bb3d 6201 983d
000003d0: c242 8cbd 4516 b5ba 91bc 2dbd 1f53 3fbe
000003e0: dcbe 04be db89 32be 676c a5bd 1579 7d3d
000003f0: 6f00 413c 2f92 5b3d b479 1abd 5eab 81bb
0.12587348 0.21422629 -0.14248528 0.08183004 0.012153245 -0.021351427 -0.10140034 -0.015923223
-0.09214617 -0.023983723 -0.11299916 0.060024347 -0.05747027 0.051616587 0.20121413 -0.09249519
0.019205702 0.12322903 0.11763711 0.057796344 0.14750978 -0.01662237 -0.16621974 0.11673402
0.10091643 0.1408698 0.1587424 -0.102469794 0.07223046 0.017391192 0.062237468 -0.13835569
-0.16405164 -0.18011427 0.11957741 -0.11365703 -0.20392604 -0.07096685 -0.039337687 -0.10816083
0.16601111 0.15694456 0.12721471 -0.17122991 0.1605114 -0.069456525 -0.18636106 -0.119858675
0.1693057 -0.11357642 -0.053285956 0.13116634 0.12479084 -0.14633393 0.15632188 0.11488728
0.020959709 -0.14698853 0.15970393 0.06591074 -0.020566255 0.06223291 -0.1714064 -0.03450057
0.09397632 -0.19189061 0.13864753 0.037406754 -0.044420704 0.0040580723 0.10139232 -0.18719591
0.018033668 -0.11461765 0.108234994 -0.017892512 -0.08355596 -0.1840255 -0.072116606 -0.04714633
-0.1820396 0.0057739425 -0.014485522 0.09567606 -0.15652865 0.12098477 0.03704029 -0.04017196
0.05348272 -0.008049916 -0.04520669 0.011000178 0.18952249 0.0624438 -0.13385184 -0.0938927
0.12217593 0.09086055 0.043680836 -0.1652245 -0.034104295 -0.103962556 0.111944154 -0.0749621
0.038786404 0.013475969 -0.080672905 -0.19757643 -0.16647589 -0.16041215 -0.07576919 0.14169677
0.0016407021 0.12785824 0.051687147 -0.06312693 -0.018653108 -0.086053915 -0.14103298 -0.11826898
-0.057259675 -0.16907592 -0.196678 0.009279695 0.10738216 0.028234465 0.06196868 -0.07729886
-0.0994705 0.13047153 -0.11740273 0.17132556 0.17546277 -0.049771864 -0.15298133 -0.113862894
0.10387303 -0.08449176 -0.18204118 0.110991284 -0.21840574 0.18065317 0.1419836 0.09569536
-0.059776865 0.033161364 0.14102876 -0.14622037 0.13783732 0.1696635 -0.02557296 -0.15062541
0.012067698 -0.13262999 0.023658121 0.004609478 -0.06195205 0.12890327 -0.046873733 -0.06804588
0.18300751 0.048096403 0.13610744 0.087693825 -0.07725577 0.033076204 -0.024944916 0.17744881
0.18743734 -0.18196167 0.07555361 -0.0077949637 -0.005828884 -0.06586263 -0.13734783 -0.13586386
0.07922963 -0.17607608 -0.12630361 0.17048514 -0.10961108 0.06308785 -0.10941248 0.14845943
-0.024702787 0.047961105 -0.13849878 0.19117492 -0.1846822 0.18507329 -0.057819445 0.20089208
0.1837981 0.19850354 -0.13510638 0.22640605 0.04040023 0.023156917 -0.123927765 0.19411837
0.18052831 0.020966792 0.19584496 -0.11352 0.21566373 0.16022074 -0.01705105 -0.17110828
-0.03863588 0.22925077 0.11537345 0.01682587 0.12326161 -0.08472411 0.118312724 0.10262854
-0.0011850565 0.10304434 -0.16213655 0.18441641 0.052874196 0.19312097 -0.007154209 0.0935899
-0.16388157 -0.005991078 -0.097702324 -0.043871783 0.05863312 -0.02059088 0.080768585 -0.12560031
-0.028482739 -0.07211773 0.052141495 0.13610286 0.15950781 0.068709716 -0.17764251 0.080714956
0.18185845 -0.15897222 0.09155284 0.07422139 -0.068486705 -0.0013815841 -0.04241616 -0.18684052
-0.12963432 -0.174354 -0.08077317 0.06188305 0.0117798885 0.05360621 -0.03771372 -0.003957196

bias f4 [24]
00000000: fdc3 1dbe c13d 533d ea1d 6f3d eb8b 153e
00000010: 2b3f 0b3e 8760 d8bd 8c43 41be 46e0 21be
00000020: 760b 86bd beb1 ea3d 2330 23be f085 6d3d
00000030: 4986 be3c 8fb1 babd dbf4 78bd d929 603d
00000040: 8294 63bd 3321 4c3e 787a 393e e67d 16be
00000050: 3ab4 fa3c e11d e63d a106 25be 2349 aebd
-0.15406795 0.051572565 0.058378138 0.14604156 0.13598315 -0.10565286 -0.18873423 -0.1580821
-0.06545155 0.11459683 -0.15936331 0.05798906 0.023257392 -0.09115898 -0.060780387 0.05472741
-0.05556155 0.1993454 0.18113124 -0.14696464 0.030603517 0.11236168 -0.1611581 -0.085100435

weight f4 [24, 96]
00000000: d00e 1ebc 64c0 873c b4e5 593d f3ea 6dbd
00000010: 18a5 2d3d e65b 7abd c4eb 443d 7486 983d
00000020: 9804 7abd 28b0 2e3d 74fd b33c f0e1 893c
00000030: 66d6 943d 7896 8ebd 1a9b ca3d 5046 cf3d
00000040: b0bd 293d 3023 c83d e6a4 b23d c079 04bd
00000050: ea2c 84bd e693 2abd 0b45 4ebd 00c4 a13b
00000060: 70e1 ca3c 9077 be3b 2aff c33d 10e7 31bc
00000070: b990 cebd 388f aa3d 2dcc 29bd 9677 4bbd
00000080: ea16 ac3d 6081 1b3b 5465 c4bd 60da 3bbd
00000090: a09e eebb 9693 803d b0eb 3d3d 0052 323d
000000a0: f082 873d ace3 073d e9f5 22bd 0417 dbbc
000000b0: 3aed a93d 36b2 b43d 309f 9bbc d8db bf3c
000000c0: 1200 6fbd dcec 913d 1030 383d f649 8b3d
000000d0: 108f ddbc b439 d0bd 383c b53d 20ea c93d
000000e0: d0d5 233c 606e 743c 749e a2bd 35ce 31bd
000000f0: f2ec bbbd a86c 473d 1065 a23b c422 053d
00000100: 07fe c2bd 1165 89bd 30c8 e73c 9cec 4e3d
00000110: 3f93 a1bd 965a bd3d 7095 5c3d 2aec 85bd
00000120: 5843 963d ecb7 a7bd 640e 343d 506e a13c
00000130: 287e 01bd b26d b2bd 10c2 473c 70a0 2abc
00000140: b0b6 c23d 3181 92bd 769e bebd 20cd cfbb
00000150: 0a3f 9fbd 209f fe3c d33b babd d46c 163d
00000160: 28be af3d b060 653d c6cd 16bd 80f2 c9bb
00000170: d8aa 7e3d 6448 893c 97a0 bdbd f001 cabc
00000180: 306d 42bd 5c24 543d 629e cdbd ac8a 393d
00000190: 4c0e 593d d0f2 c33c 6b74 48bd a8f2 f13c
000001a0: a050 58bc 6018 e1bb 547e 9d3c 44ca 283d
000001b0: 853a 5bbd 10e8 5fbc 7a60 c23d 5474 2c3d
000001c0: 1154 82bd d3b6 c0bd f0d6 1f3d 080d c13d
000001d0: 0287 b33d 6082 8dbc 89cc 51bd f021 cc3c
000001e0: a040 313d 559e babd 017c 3bbd b8cf 073d
000001f0: b6af a53d 2afb a4bd 88d1 c83d 105f 9abd
00000200: 34a2 283d 4afd 41bd cb16 94bd bcf8 5f3d
00000210: 281c 613d 7061 5f3d 2075 b23d 60f7 d23c
00000220: deda a83d e80b a33d 3829 703d 9019 0e3d
00000230: f2e8 cb3d a801 25bc 4203 08bd 44ce 3a3d
00000240: bc03 7e3d 04eb 173d 98f8 c23c 7326 a7bd
00000250: e064 9e3b b8ec 60bc 62fe 6bbd 500b 3cbc
00000260: 24fd 1d3d a0d5 273c 83cd 8abd 74e8 9a3d
00000270: 97c5 a3bd 4466 82bd c431 1b3d 00bc e6bc
00000280: f06f 11bc 20e0 113d f87b 7cbc 2a46 66bd
00000290: e8dd 503d 8c3d 50bd 1a34 9bbd c0f8 f33a
000002a0: b432 f3bc f84d 50bc c0c6 b73b e4fb 9d3c
000002b0: 8d45 b8bd 092f 41bd 00fb 7b3d e9b5 83bd
000002c0: d2e2 ba3d 209a 84bb 40a9 db3c e8a6 ed3c
000002d0: fab8 963d 672b c9bd c0a3 92ba 40e0 d6bc
000002e0: 5c13 8d3d 76d7 c33d 548c a4bc 30dd ed3b
000002f0: a834 c5bc 4b69 c5bd 28eb aa3c c0e8 1bbc
00000300: 7453 92bd c8e3 ce3c e651 62bd c6ad 87bd
00000310: c46e 923d 2026 99bc 987a a6bc 1898 6dbc
00000320: 6000 833c 002e 76ba e427 5a3d 54e1 813d
00000330: b449 3f3d 00ee 703c e0ef eebc c46e 803d
00000340: 527a b5bd f63d 813d d4a0 2d3d a4fb 913c
00000350: b0aa b03d 065a ad3d 8816 bc3c 40aa c9bb
00000360: a493 61bd c08f e9ba 82ef 853d ae38 b03d
00000370: 08f8 82bc afa5 37bd 90fd 93bc 38d8 443d
00000380: b66a abbd 8a81 33bd da23 c93d e063 8a3d
00000390: 8085 b63d 9b56 34bd 3e49 a0bd b01a 88bb
000003a0: c4d8 3a3d 4070 a53d 0065 973a 55bf 67bd
000003b0: 8ecb bf3d 400d 20bb 90ea c03c c0ec 12bb
000003c0: 2824 ae3d 54eb 883d 3031 703c cb40 6ebd
000003d0: 0cfa b1bd b051 943d c69f abbd 3afb adbd
000003e0: ae80 c13d 995e 8ebd e17f bbbd 0897 c43d
000003f0: 4c45 92bc 7005 e83c 4874 bf3d 84fb a23d
-0.009647086 0.016571231 0.053197578 -0.058085393 0.042393774 -0.061122797 0.048076406 0.0744752
-0.061039537 0.042648464 0.021971442 0.016831368 0.07267456 -0.069622934 0.098928645 0.10120833
0.041440666 0.097723365 0.08722858 -0.032342672 -0.06453879 -0.041644953 -0.050358813 0.004936695
0.0247657 0.005812593 0.09570153 -0.010858312 -0.100861974 0.08328098 -0.041454483 -0.049674593
0.08402808 0.0023728237 -0.09589639 -0.045862556 -0.007282093 0.0627815 0.046367347 0.043535233
0.06616771 0.03317611 -0.0397853 -0.026744373 0.082972005 0.088230535 -0.018996805 0.02342026
-0.058349676 0.071252555 0.04496771 0.06801216 -0.027045757 -0.10167256 0.088493764 0.09859109
0.009999707 0.014918894 -0.07940379 -0.043409545 -0.09176053 0.048687607 0.0049558952 0.03250386
-0.09521108 -0.0670873 0.028293699 0.050518617 -0.07889413 0.092457935 0.053853452 -0.06539185
0.073370636 -0.08189377 0.043959036 0.019705921 -0.031614453 -0.08712329 0.012192264 -0.010414228
0.09507501 -0.071535476 -0.09307568 -0.0063415915 -0.077756956 0.031081736 -0.09093442 0.03672488
0.08581191 0.05600041 -0.036817335 -0.0061629415 0.062174648 0.016758151 -0.09259146 -0.024659127
-0.04746741 0.051792488 -0.10039975 0.045298263 0.05299215 0.023919493 -0.04893915 0.029534653
-0.013202816 -0.006869361 0.019225277 0.04120852 -0.053522605 -0.013666168 0.09491058 0.042103127
-0.06363691 -0.09409871 0.03902334 0.09426314 0.08765985 -0.017274082 -0.05122045 0.024918526
0.04327452 -0.09112231 -0.045772556 0.03315708 0.08090155 -0.08055718 0.0980559 -0.07537663
0.041170314 -0.047360696 -0.0723091 0.05468057 0.054958493 0.054536283 0.08713746 0.025752723
0.082448706 0.07961255 0.05863306 0.034692347 0.0995654 -0.010071196 -0.033206232 0.045606866
0.06201528 0.037089363 0.02380018 -0.081616305 0.0048338026 -0.013728313 -0.057615645 -0.0114773065
0.03857149 0.010243803 -0.067774795 0.07563868 -0.07996672 -0.06367162 0.037889257 -0.028165817
-0.008876786 0.035614133 -0.015410416 -0.056219257 0.050992876 -0.050839946 -0.07578297 0.0018613562
-0.029687263 -0.012713902 0.0056084096 0.01928515 -0.08997641 -0.047163997 0.06151867 -0.06431181
0.09125294 -0.0040466934 0.026814103 0.029010251 0.073595 -0.098227315 -0.0011187717 -0.026229978
0.06888458 0.0956258 -0.020086445 0.0072590336 -0.02407296 -0.09639224 0.020864084 -0.009515941
-0.07144824 0.025255099 -0.055253886 -0.066249415 0.07150033 -0.018694937 -0.02032213 -0.014501594
0.01599139 -0.000939101 0.0532607 0.06341806 0.04670115 0.014705181 -0.029167116 0.06271127
-0.088612214 0.06310646 0.042389706 0.017820187 0.08626306 0.08464436 0.022959962 -0.0061543286
-0.05507244 -0.001781933 0.06539823 0.08604561 -0.015987411 -0.044835743 -0.018065244 0.048057765
-0.08369963 -0.04382471 0.09821291 0.06757331 0.08912182 -0.044027906 -0.0782647 -0.004153572
0.04561688 0.080780506 0.0011550486 -0.056578953 0.09364997 -0.002442196 0.023549348 -0.0022418946
0.0850299 0.0668551 0.014660165 -0.05816726 -0.08690271 0.07242143 -0.08380084 -0.08495183
0.09448372 -0.06951637 -0.0915525 0.095991194 -0.017855309 0.028322905 0.09348351 0.07958129

bias f4 [24]
00000000: 78da 243c a884 17bd 48b4 a9bd e4c3 b73d
00000010: 4025 103d 4cb5 6fbd 7408 413d d78b 8dbd
00000020: 28c0 42bc fcae 773d 5283 50bd d8be 6b3c
00000030: 803e 7f3a 00d4 d3bc 5d59 9fbd 401b cd3d
00000040: f858 c43c 330d bfbd d7c0 90bd ba64 ad3d
00000050: ee21 97bd 6c57 50bd 2880 50bc e8e7 2a3c
0.010061853 -0.036991745 -0.08286339 0.0897291 0.035191774 -0.058522508 0.047127202 -0.06911438
-0.011886634 0.060469612 -0.050906487 0.014388762 0.0009736791 -0.025857925 -0.077807166 0.10014963
0.023968205 -0.093286894 -0.07068031 0.08466478 -0.073795184 -0.050864622 -0.012725867 0.010431267
