training/train_output/ID_Q_softplus_cold/config_30.pt (torch, 81003 bytes, 4 tensors)

weight f4 [24, 24]
00000000: f4d7 07b7 b0fb 7fb7 e1df f23b 094e b7bd
00000010: 0a7d ccbd 6ba4 77b6 c7bd c0bd e264 603b
00000020: 53e2 843d a383 46b8 a3d3 a93d d0b9 9fb6
00000030: 10ab 01b6 fac3 9cbd e47c b73c b3c3 bd3d
00000040: ce86 be3d 486b 8a3d be48 2a3d beab 46b7
00000050: be51 a13d 02c6 893d fc17 b03d bd10 253d
00000060: 17cf 8f3d 86fb b236 09eb 323d 166c ac3d
00000070: 4a7e 19bd 6d0f 9cbd cc5a b63d 800d 10b2
00000080: 7b32 1e3d df18 07bd ddae e73c 7abd 9dbd
00000090: 9806 34be efd5 d73d 1e3c 06be 1c09 d23c
000000a0: fe0f f6bd a80e f5bd bc79 6dbd 29b9 8ebd
000000b0: 1f58 06be 18f6 dcb5 0a6c 583d f07d 6e3d
000000c0: 3166 063d 14e6 9cbb a85c f13d 5b58 e03d
000000d0: 0ea4 cc3d 5d58 2bbd 7691 943d 6637 e93d
000000e0: b39f d4bd 2327 1039 61df 113d 2f40 a836
000000f0: 2b85 aa3d e273 3db6 38a8 9135 9155 0f35
00000100: d511 2db6 61e9 00b7 e166 6f3c 929c f3b6
00000110: 9e36 8c3d 8c1b fa3d 7411 5036 62d3 11b7
00000120: aed2 0dbe b5ca 1a3e d1d9 d1bd 8ce2 b83d
00000130: 0a19 f036 7667 88bd b4c8 4535 84f4 e0bd
00000140: 5c2c 233e eef5 1e3e 00ca 1a3e d357 aabd
00000150: 9225 f73d 7174 79bd fc8a 1dbd eb0e 01bd
00000160: fc7c 0abe df0a 6f3c 00e8 f434 6adc 8ebc
00000170: 0c59 4e3c 9b1a a63d 5989 52be 5350 08be
00000180: 4f60 72bc f72c 233e a1e8 b73d b616 3cbe
00000190: cdca 883d c5b2 0e3e 8f31 0f3e 0352 533d
000001a0: b011 a3bd 26b4 fbb7 bb9e 87bd 1a63 3cbe
000001b0: 16b2 45be c897 f7bd 7894 f23d 3828 013e
000001c0: ed8b 07be 5fce d83d 8c76 063d f425 083d
000001d0: a1bd 6abd 47a4 06be 9460 3735 c20f c0bc
000001e0: 44ec ab3d bdda 163d 22bf f73d 148d 8d36
000001f0: a70e 9b3d 2b6f c83a d8e0 3b36 d0ab c9b6
00000200: 1921 163d a138 0cbe 8daf b63d d380 b73d
00000210: dffc 8e3c b840 3abd 9198 bd3c 36c8 99bd
00000220: d95e d63d bc70 4db5 51b8 863d 4e9d 8135
00000230: 4d6b 503d e5d0 b33d 1a08 e9bc 5d3a 64b7
00000240: 465c 3cb7 cf58 1137 01d9 c2bd 153d 85bd
00000250: 8201 b4b6 1c47 a7bd 0242 f1bd b709 03bb
00000260: fbeb acbd 246e 21b6 8555 a73a 64eb 94bd
00000270: 558b 08b8 603d ed36 3169 c6bd b6bc d4bd
00000280: 8ce2 b4bd bfad cd3d ff82 c43b e001 5436
00000290: aed9 253d ee44 1ab7 b4fd a636 cf82 c33d
000002a0: f4f2 2436 a5a5 e9bc 1f8c bdbd b102 96bd
000002b0: 5816 0c3e 4048 db3c 0984 67bc 014f 0bbe
000002c0: 99f8 f7bd f0ef 0abe 0d88 0c37 6b4b b13d
000002d0: 4b9a dbbd b7ea 69b6 c324 efbc 2bd4 ee3d
000002e0: 95e5 913d a6b2 f9bc 09a9 82bd b94a 7f3d
000002f0: 92f8 cabd 18bf 1637 855e 09b6 edfa a936
00000300: b07a 9fbb 4757 2b3e 8221 ab3b 6eb2 a0b6
00000310: 6b1b ccbd 8acc 3fbd d36d e43d 0513 8e3d
00000320: 7ea3 dfbd 9c31 c83d b6eb ae3d 5660 f33d
00000330: 2865 183e 8b92 21be d520 113e 6a89 15be
00000340: 44bc 323d 7055 ca36 76db ddbb aad4 a436
00000350: d875 1dbe 686e a537 d5b2 ebbc ab17 293e
00000360: fabf 2a35 58d6 c13d 3dcb e4bd 4583 bf3d
00000370: 6a9a 92bd 1411 ef3d efac e03d 6ed4 75b6
00000380: 6aca 0236 be43 d13c 2992 a73b e269 973d
00000390: 8568 2ebc 1cfd b33d cb24 003d 723c eb3d
000003a0: bd69 693c 925a c13d b5cd 16b7 b328 c13d
000003b0: c89c ebbd a8b7 4a3c 5c2a 7135 dcef 03be
000003c0: 17a3 9cb6 c27b e1bd b51d d2bd 250b 0ebd
000003d0: 96fe eabd 76da eabd 2617 313e 582c 0c3e
000003e0: 7c46 093e 2ac8 233e a832 063e be6b d43b
000003f0: 01bd 383d 2ba5 c03d a826 503e 27d8 e3bd
-8.096908e-06 -1.5257785e-05 0.0074119424 -0.08950431 -0.09984787 -3.6901572e-06 -0.09411197 0.0034239818
0.064884804 -4.7329475e-05 0.082923196 -4.7602007e-06 -1.932207e-06 -0.07654567 0.02239842 0.09265842
0.09303056 0.067587435 0.04157328 -1.18417065e-05 0.07876919 0.0672722 0.08598325 0.040299166
0.07021921 5.3340946e-06 0.04368118 0.08419053 -0.037473954 -0.0762013 0.08904037 -8.384973e-09
0.03862236 -0.032982703 0.028281623 -0.077021554 -0.1758064 0.105388515 -0.1310887 0.02563911
-0.12014769 -0.11965686 -0.057977423 -0.0696891 -0.13119553 -1.64629e-06 0.05283741 0.058225572
0.0328123 -0.0047881696 0.11785251 0.109543525 0.099922284 -0.041832317 0.07254307 0.113875195
-0.10382023 0.0001374749 0.03561342 5.014262e-06 0.08326181 -2.8230647e-06 1.08523e-06 5.3396167e-07
-2.5789388e-06 -7.683732e-06 0.014611931 -7.2601915e-06 0.06846355 0.122122854 3.1004574e-06 -8.69189e-06
-0.13849899 0.15116389 -0.10246623 0.090275854 7.1554723e-06 -0.066603586 7.368028e-07 -0.10984138
0.1593489 0.15523502 0.1511612 -0.083175324 0.12067713 -0.060902063 -0.038462624 -0.031508368
-0.1352424 0.014589994 4.5617344e-07 -0.017439086 0.012594473 0.08110543 -0.20560206 -0.13311891
-0.01479347 0.15935121 0.08979917 -0.18368039 0.06679306 0.13935383 0.13983749 0.051591884
-0.07962358 -3.000542e-05 -0.06622072 -0.18397179 -0.19306216 -0.12089497 0.118447244 0.12612998
-0.13236971 0.10586237 0.0328279 0.03323932 -0.05730975 -0.13148604 6.831335e-07 -0.023445014
0.083946735 0.0368297 0.120970026 4.218551e-06 0.07571154 0.001529192 2.7996048e-06 -6.0102684e-06
0.036652658 -0.13693477 0.089202024 0.08960118 0.017454563 -0.045471877 0.023144038 -0.0750889
0.104673095 -7.65325e-07 0.06578124 9.657031e-07 0.05088358 0.08780078 -0.028446246 -1.3603448e-05
-1.1227157e-05 8.663351e-06 -0.095140465 -0.06505791 -5.3645936e-06 -0.0816786 -0.11780168 -0.0019994804
-0.08443447 -2.405498e-06 0.0012766576 -0.0727146 -3.255469e-05 7.0702954e-06 -0.096880324 -0.10387556
-0.08832273 0.10042905 0.0059970613 3.1591553e-06 0.0404908 -9.195164e-06 4.9767204e-06 0.09546434
2.4579322e-06 -0.028521368 -0.092552416 -0.07324732 0.13680398 0.02676785 -0.014130601 -0.13604356
-0.12107963 -0.13568091 8.376327e-06 0.08656963 -0.107227884 -3.4856328e-06 -0.029192334 0.116615616
0.071238674 -0.030480694 -0.06379897 0.06232712 -0.09910692 8.985189e-06 -2.0469608e-06 5.065804e-06
-0.0048669204 0.16732512 0.0052225003 -4.7891435e-06 -0.09966167 -0.046825923 0.1115376 0.069372214
-0.109198555 0.09775087 0.08541052 0.11883609 0.14882338 -0.15778558 0.1417268 -0.146032
0.043636575 6.0300154e-06 -0.0067705465 4.912338e-06 -0.15376985 1.9720945e-05 -0.028771797 0.16512935
6.36093e-07 0.09464711 -0.11171577 0.093512096 -0.071583584 0.11673179 0.109704845 -3.6631495e-06
1.948933e-06 0.025544997 0.005113859 0.073932424 -0.010645037 0.08788511 0.03128509 0.114861384
0.014246401 0.09441103 -8.988592e-06 0.09431591 -0.11504513 0.012372889 8.984114e-07 -0.12884468
-4.6681484e-06 -0.11009933 -0.102595724 -0.034678597 -0.1147434 -0.11467449 0.17293987 0.13688791
0.13405794 0.15994325 0.13105261 0.0064825704 0.045102123 0.09406503 0.20327246 -0.11125212

bias f4 [24]
00000000: 4583 8fbd e825 49be eb9c 28be 307e 58be
00000010: 6b32 1abe e026 1dbe 5ab1 183e 82a4 863c
00000020: 4248 eebd 84f2 9239 d47c 9e3d 6891 a2bd
00000030: 1d8e 11bd ae66 2bbb 9616 4fbe 8774 0d3e
00000040: 437e 613e 0425 1cbd d683 a63d 35c8 ab3d
00000050: c949 933c ed9e 8f3d a5be 39be d76f 87bd
-0.070074596 -0.19643366 -0.1646611 -0.21141887 -0.15058295 -0.15346861 0.14911404 0.016435865
-0.11634876 0.00028027978 0.07738653 -0.0793789 -0.03553592 -0.002615373 -0.2022346 0.13813983
0.22020821 -0.03812124 0.081306145 0.08387796 0.01797952 0.070127346 -0.18139131 -0.06613129

weight f4 [24, 96]
00000000: 94ba b33d 0004 d6bc d8b0 8a3d 8cfe ecbc
00000010: e521 a3bd ec8c 7d3d 7420 dabc ae9c 843d
00000020: 82a2 b4bd 7007 82bc 3835 dcbc 3b5e b8bd
00000030: 9c3a 193d 2838 483d d8be 9e3c d437 663d
00000040: 0896 193d 5932 b0bd 1c5b cbbd b82b aabc
00000050: 4f43 c4bd 5851 b53c d6aa 2fbd b8dc 693d
00000060: 1b66 b2bd f620 823d 09b4 c7bd c07c 1a3c
00000070: b0f2 a23b a031 283d f4fe 343d 5a30 05bd
00000080: cca8 65bd 808e 523a 209b 033b b472 1fbd
00000090: 52c3 863d 2408 6c3d 9c3f 693d c8fa 5b3d
000000a0: 6e1e bcbd 52eb a7bd e0c8 603b 245a 2b3d
000000b0: 1012 063d f01c 533d 3898 863d 803d 9b3d
000000c0: 4ca9 4a3d 9c8f 243d a840 e33c 1036 fa3b
000000d0: f033 c73d 6286 1abd 4c1b 8a3c 9025 12bd
000000e0: d4b6 7f3d 0042 0dbb d5df 45bd 08ac b53d
000000f0: 25f4 72bd 66d8 823d 9067 3dbd bc27 c63d
00000100: 0cae 02bd 84e2 633d 47c0 ccbd f0d7 72bc
00000110: 5cdc 4a3d 68ba 4c3c 522a 07bd a00f 4d3b
00000120: 7071 603d 6d4c d0bd 58a8 5d3d 9012 183d
00000130: d4f3 193d 9dbc 9cbd f0fd 7f3d 746e 893d
00000140: 6c29 c23d 1290 77bd 7c7a 1a3d 50da 20bc
00000150: a055 65bc 6cd1 43bd 8476 9dbd 002b 59bc
00000160: 64f4 333d 1bdc aabd cb36 73bd 0a59 68bd
00000170: 20c7 c03d 40a7 f3bb 539d cfbd b2db a63d
00000180: 1098 bb3d 1e61 02bd 6245 903d a92b c7bd
00000190: 60bc 3e3c d0cb d83c 9c06 51bd a07f debc
000001a0: 6082 babd e84d 483d d4b2 403d a67e cf3d
000001b0: dc06 a73d 7557 cfbd 08ab 9abc 60f4 2bbb
000001c0: 20d3 13bd 8d38 b6bd 5d27 bebd 42f3 cdbd
000001d0: d033 ee3c e0f2 ca3d 4165 73bd a641 b5bd
000001e0: e061 63bb f432 b53c c089 4dbc 031a 9cbd
000001f0: e458 c33d 18b3 c8bc be62 33bd 843a 3e3d
00000200: 8210 77bd b047 bfbd 2bd0 c2bd f0e4 753c
00000210: 143c 423d 8062 7c3d cdaa a6bd 2bcd 45bd
00000220: 184d 45bc 58e1 6b3c 386d 3fbc a86a 07bc
00000230: 440c 9f3c 204f 863d 6b9a 2ebd c81e 9b3d
00000240: c4de c4bd e2ca bf3d afb3 7abd 0024 0bbd
00000250: 1b56 a5bd 1027 1cbc 7495 5d3d 8706 cbbd
00000260: 5cbb 463d 6984 65bd b28e 883d 98d1 c73c
00000270: 705d 383c 5883 14bc a64e 13bd 2a6c 93bd
00000280: a069 353d 1c4a fcbc e1ad 70bd 2478 953c
00000290: b034 05bc e241 883d 0044 2bbb e81d 283c
000002a0: 80fb 53ba f8b0 443d 087e c53c e8c8 623d
000002b0: 1204 b8bd babd bebd fc59 a83d 0015 03bc
000002c0: 601b 283d b758 aebd f700 38bd 0cd8 c13d
000002d0: d82d f13c 105e f3bc d8a9 683c 50f6 a03d
000002e0: 1686 c5bd 600a a4bd 80a6 693b 7716 95bd
000002f0: 562c d03d 9076 613d 0ca7 eebc 3674 12bd
00000300: 109b 2abc 1a3c 00bd 340f 933d 9780 63bd
00000310: b0c3 86bc 7a6c 2abd 1826 ca3d 26ee c9bd
00000320: b891 343d 2c3f 683d 0563 99bd 54c9 3f3d
00000330: aefd 99bd ca26 50bd 801c ca3d 589e 6fbd
00000340: 7c84 b2bd b1e8 3fbd a45a a8bc d8b5 59bc
00000350: 9a40 c1bd 7e9d bf3d cc52 0fbd 446d cc3d
00000360: c877 85bd 4c94 1a3d e4b9 aa3d 4479 a63d
00000370: 51a0 96bd 508a a0bd f0a0 643d b01e 923d
00000380: 0461 053d 786c 653d 9cdc 2f3d 40e9 203d
00000390: 5439 363d 80c2 c03d c8a1 113d a992 c8bd
000003a0: 7d1d cebd be97 76bd 4815 ff3c 36bd b1bd
000003b0: 90ad ef3c 0876 a23d a02a cdbc b04c e23b
000003c0: 08a0 ca3d a8e9 b03c a08f 3fbb 803b 29bb
000003d0: 4e72 9e3d bb20 c4bd 0e3a c8bd 50f8 9c3c
000003e0: e0b0 913c 6e42 933d 5086 55bc d4e9 3e3d
000003f0: 6066 bb3b 903d c63d d806 80bc f0c3 7fbc
0.08775821 -0.026124954 0.067720115 -0.028929971 -0.07965449 0.06190197 -0.026626803 0.06475197
-0.088200584 -0.015872687 -0.026880845 -0.09002348 0.03740941 0.04888168 0.01937811 0.056205586
0.037496597 -0.08603353 -0.09929487 -0.0207728 -0.095831506 0.022133514 -0.04288753 0.05709526
-0.08710881 0.06353943 -0.09751136 0.009429157 0.0049727783 0.04106295 0.044188455 -0.032516815
-0.05606918 0.00080320984 0.0020081475 -0.03892775 0.06580223 0.05762495 0.05694543 0.05370596
-0.091854915 -0.08199181 0.0034299418 0.04183401 0.03273207 0.05154127 0.06572002 0.075800896
0.04947786 0.04017602 0.027740791 0.0076358393 0.09726703 -0.037725814 0.01685872 -0.035680354
0.062430218 -0.0021554232 -0.048309166 0.08870703 -0.059314866 0.06388931 -0.046241343 0.096755475
-0.031904265 0.055635944 -0.099976115 -0.014821991 0.049526557 0.012495615 -0.032999344 0.003128983
0.054795682 -0.10170827 0.054115623 0.037127078 0.03758605 -0.07653163 0.062498033 0.067105204
0.09480557 -0.06044013 0.037714466 -0.009817675 -0.013997465 -0.047807142 -0.07688621 -0.013254881
0.04393424 -0.08342763 -0.059378427 -0.05672554 0.0941298 -0.0074357092 -0.10137429 0.08147372
0.09159863 -0.0318309 0.07044484 -0.097251244 0.011641592 0.026464373 -0.051031694 -0.027160466
-0.09106898 0.048902422 0.047045544 0.10131578 0.08155605 -0.10124103 -0.018880382 -0.0026238188
-0.036090016 -0.08897505 -0.09284852 -0.10056163 0.02907744 0.09909606 -0.059422735 -0.08850412
-0.003469579 0.022119023 -0.012545049 -0.07622149 0.09538439 -0.024499461 -0.04379534 0.046442524
-0.060318477 -0.09339845 -0.09512361 0.015008196 0.047420576 0.061617374 -0.081380464 -0.048291367
-0.012042306 0.014396988 -0.011683755 -0.008265175 0.019415028 0.06558061 -0.042627733 0.075742304
-0.09612802 0.09364869 -0.061206516 -0.03396988 -0.08073064 -0.009530798 0.054097608 -0.09913354
0.048518524 -0.05603448 0.06667842 0.024391934 0.011252746 -0.009064518 -0.035963677 -0.07198365
0.044290185 -0.030797057 -0.058759574 0.018245764 -0.008130237 0.06653191 -0.002613306 0.010261036
-0.00080864877 0.048020333 0.024107948 0.05536738 -0.08985151 -0.09313531 0.08220288 -0.008000612
0.04104173 -0.08513015 -0.044922795 0.09465036 0.029440805 -0.029707938 0.01420065 0.078594804
-0.096447155 -0.080097914 0.003565222 -0.072796755 0.101647064 0.05504471 -0.029132389 -0.03575536
-0.010412946 -0.031307317 0.07180634 -0.055542555 -0.016450733 -0.041607358 0.09870547 -0.09859876
0.04408428 0.05670087 -0.074895896 0.04682286 -0.07519089 -0.050818242 0.09868717 -0.058500618
-0.08716676 -0.04685277 -0.020551033 -0.013287984 -0.0943615 0.09356211 -0.03499107 0.09981778
-0.06516987 0.037739083 0.08336237 0.08128598 -0.07354797 -0.07838881 0.055817544 0.071347594
0.032563224 0.056011647 0.042935 0.039284945 0.044488266 0.09412098 0.035554677 -0.09793598
-0.10064218 -0.060203306 0.031138077 -0.08678667 0.029257566 0.07932669 -0.02504474 0.0069061145
0.09893805 0.021595791 -0.0029229894 -0.0025822818 0.07736646 -0.09576555 -0.09776698 0.019161373
0.017784536 0.07190405 -0.013032511 0.046609715 0.005718991 0.09679711 -0.015628263 -0.01561068

bias f4 [24]
00000000: b4e4 b3bc b802 adbd 758b 9dbd 4031 293d
00000010: e024 40bb aeb8 81bd 3073 533d f78f 80bd
00000020: 70b8 1cbd f224 44bd e47b 8c3d fcbf 79bd
00000030: f2de 55bd 9981 62bd f086 8dbd f057 9dbb
00000040: 584e 963d 20dd 953d 14d0 b5bd d4f4 abbd
00000050: 4689 8f3d 0071 f739 c8dd 69bd b8d9 e23c
-0.02195964 -0.08447784 -0.07692615 0.041306734 -0.0029318854 -0.06334053 0.051623523 -0.06277459
-0.03826183 -0.047886796 0.06859568 -0.060974106 -0.05221457 -0.055299375 -0.06910503 -0.0048017427
0.07339162 0.07317567 -0.088775784 -0.08396307 0.07008605 0.00047195703 -0.057096273 0.027691707
