training/train_output/ID_Q_softplus_cold/config_13.pt (torch, 80939 bytes, 4 tensors)

weight f4 [24, 24]
000000 cd 5a 22 3e 86 69 b1 3d 02 cd 9a bd 2d 01 3e 3d
       0.1585495 0.08662705 -0.075586334 0.04638784
000010 25 f1 6d 3d 51 b9 3d be 9d f0 20 bd db af 96 3c
       0.0580913 -0.18527724 -0.039291967 0.018394401
000020 bd b1 54 bd 48 41 54 3c 55 e2 6f bd ce 4e cb bb
       -0.051927317 0.012955017 -0.058565456 -0.0062044626
000030 7f c2 db bd 07 21 0c be 2f 0c 11 3e c1 3f 0b 3e
       -0.107304566 -0.13684474 0.14164804 0.13598539
000040 9b 38 fc bd 23 f5 30 3e b5 97 1c 3e a9 48 16 3e
       -0.12315484 0.17281012 0.15292247 0.14676155
000050 17 01 01 3e 6f e5 01 be e2 03 00 3d c9 d7 00 3d
       0.12598072 -0.12685178 0.031253703 0.03145579
000060 0a d0 ef bc f2 69 ff 3d 42 ab e1 3b 12 38 9d bd
       -0.029274005 0.12471379 0.0068868706 -0.0767671
000070 5b 9e 42 bc e2 89 7d 3d 3a 82 00 be 9c 75 4a 3e
       -0.011878575 0.061899073 -0.12549677 0.19771427
000080 ed 6b 09 bc 8c a5 f7 bd ed 79 50 be 8d 97 22 be
       -0.008387548 -0.120921224 -0.20359011 -0.15878125
000090 18 35 09 3e 32 39 03 be a2 68 e0 bd 8b 74 39 be
       0.1339916 -0.12814787 -0.10957457 -0.18110864
0000a0 50 b0 2e 3d a2 a6 99 3d 66 b5 05 be f8 1b 04 be
       0.042648613 0.07502486 -0.1305748 -0.12901294
0000b0 9f 93 0f 3d 44 7e 5e 3d 16 4b 05 be c8 7e 24 3e
       0.03505289 0.054319635 -0.13016924 0.16063988
0000c0 e6 6b 02 3e d0 75 2e be bf 84 f3 bb ba 44 ce bd
       0.12736472 -0.1703713 -0.007431596 -0.10071702
0000d0 d2 c2 c0 3d 48 db 48 bd 1f 55 e4 bd 6e 5c 3f bb
       0.09412159 -0.049037248 -0.11149048 -0.002919938
0000e0 79 b0 cc 3d 22 6b e8 bd 81 6c 89 3d 12 fb a7 3d
       0.09994597 -0.11348559 0.067101486 0.08202185
0000f0 b2 4f 47 3e cc 37 64 3d 8f af c4 bc 69 3e 6f bd
       0.19463995 0.055717275 -0.024009494 -0.05840913
000100 79 26 c8 3d 78 72 32 3e 91 41 8e 3d c2 e9 b6 3d
       0.09772963 0.17426479 0.069460995 0.089313045
000110 77 f5 e6 bc 7f b9 51 bd 91 1f ed 3d 9e a7 f2 bd
       -0.028193219 -0.051202293 0.115782864 -0.11848377
000120 98 f7 8c bd c9 9f 4b 3e 69 2a f1 bd 50 d2 c7 3d
       -0.06883162 0.19885172 -0.11775667 0.09756911
000130 e1 72 50 3e 69 a9 26 be ca 0a 1b be 05 76 06 3d
       0.20356323 -0.16275562 -0.15140834 0.032827396
000140 15 a2 44 3e 08 f0 a4 3d 36 ff 0c be 7f 8c 30 be
       0.19202454 0.08053595 -0.1376923 -0.17241095
000150 be 1d 45 be 0b 02 c4 bd 71 45 4d 3e c0 70 f5 3d
       -0.19249627 -0.09570702 0.20046021 0.11984396
000160 68 d7 aa 3d 15 9a 22 3e 41 95 5d 3d 9a 41 2f be
       0.08341867 0.1587909 0.054097418 -0.17114869
000170 3d 1c 02 be a1 64 3f 3e 2a d5 91 bd d0 95 96 3d
       -0.12706085 0.1869073 -0.07120736 0.07352793
000180 ea 5f 66 bd ad 83 ca bd 28 ef 38 be 61 1a 4e bc
       -0.056243815 -0.098883964 -0.18059981 -0.012579531
000190 6a 05 b6 bd b3 dd f1 3d 3a 7e 0d be 69 fe 1e be
       -0.088877514 0.11809864 -0.13817683 -0.15526737
0001a0 8d 0c 44 bc d0 ab 60 bc 28 d7 2c be f8 e4 af bd
       -0.011965883 -0.013712838 -0.1687895 -0.08588594
0001b0 d5 22 5e bc 5e e0 48 3d d3 b3 1a be 1e fe 9c 3d
       -0.013558109 0.0490421 -0.1510766 0.076656565
0001c0 a3 63 fa bd 3f 3e e6 3d f2 e7 64 bc bb f9 6c bd
       -0.122260354 0.11242341 -0.013971316 -0.05785535
0001d0 05 ea d8 bb 95 56 1e be 1b ae 83 3d 6b c6 9b 3c
       -0.006619694 -0.15462716 0.06429692 0.019015511
0001e0 06 ad 3a 3e 78 d4 a2 bd 67 74 43 3d 2d 61 8d bd
       0.18230066 -0.079506814 0.04771843 -0.069033004
0001f0 8d d8 41 3e 12 39 bd 3d c4 f6 0d bd 0e de 8e 3c
       0.18930264 0.09239401 -0.034659162 0.017439868
000200 19 ec 3c 3e 9e e9 0c be 03 64 21 3e 4e f0 2e be
       0.18449439 -0.13760993 0.15760808 -0.17083856
000210 bd 47 28 3e d6 3e e7 3d b4 e5 f5 3d 3e e5 94 3d
       0.16433616 0.11291282 0.12006703 0.07270287
000220 6f 01 4b be b7 0b 4a be e1 b8 4f bd 7e 3b 0e 3e
       -0.19824766 -0.19731031 -0.050713424 0.13889882
000230 61 9a 13 be 15 6e 63 3c 7f d1 11 be 48 3d d8 bd
       -0.1441436 0.013881226 -0.14240073 -0.105585635
000240 5c da 3e bd f4 be 88 3c be 5e 0f 3b f7 fe 27 be
       -0.046594962 0.016692616 0.002187654 -0.16405855
000250 38 af e9 3d 1a 60 d4 3d 92 aa 39 3e c9 94 d0 bc
       0.114103734 0.103698924 0.18131474 -0.025461571
000260 87 87 2e 3d 09 d8 f8 bd 70 3f 4c 3e 59 5a 75 3d
       0.042609718 -0.121505804 0.19946074 0.059900615
000270 ff 87 b7 bd 7e d1 13 3d 33 dd 8a bd c4 dc 24 3e
       -0.08961486 0.03608846 -0.06780472 0.1609984
000280 14 a9 c7 ba 6a d1 2f 3e 1a 50 1a 3e a5 ba 3b bd
       -0.0015232884 0.17169729 0.15069619 -0.045832295
000290 5f fa f3 bc 1c d4 48 be 31 a1 53 bc 09 77 ad 3d
       -0.029782472 -0.19612163 -0.012916849 0.0846997
0002a0 49 43 37 be 3a f3 52 3d 4f bc c6 bd c6 88 11 be
       -0.17896761 0.05150149 -0.09703886 -0.14212331
0002b0 51 3a 86 3d a2 c5 e5 3d 5c a0 4f 3e f2 bd 31 3e
       0.06554092 0.11219336 0.20276016 0.17357615
0002c0 4a 3d 1a 3e 38 51 46 be ee 0d 33 3d 41 f0 5f 3d
       0.15062442 -0.1936692 0.043714456 0.054672483
0002d0 38 17 30 3e 5c a3 37 bd 95 13 c3 3d 48 fe 88 3d
       0.17196357 -0.044833526 0.09525219 0.06689125
0002e0 a1 4d d9 3d 58 d6 22 3e e8 58 23 bd f4 59 3b be
       0.1061051 0.15902078 -0.03987971 -0.18296033
0002f0 bc 68 4b 3e ee d3 b6 bd 9e 0a 17 be 57 a9 6e bd
       0.19864172 -0.08927141 -0.14750144 -0.058266964
000300 97 95 43 3e 3e b5 05 3e 08 90 ec bc 79 46 83 3d
       0.19100033 0.1305742 -0.028877273 0.06409926
000310 e0 98 13 3e 16 55 5c bd 8a 1c 24 3e 70 e2 b2 bd
       0.14413786 -0.05379208 0.16026512 -0.08734596
000320 a6 c3 1f 3e 6e 3e 9a bd c4 e2 65 3a 10 23 a4 3b
       0.15601978 -0.07531439 0.00087694474 0.0050090626
000330 12 e8 3c be bc 86 ea 3d 3f 78 9e bc 3a 3a cc bc
       -0.18447903 0.1145148 -0.019344447 -0.024930108
000340 49 43 92 3d 44 20 ed bd 2e b8 f7 bd 54 e9 01 3e
       0.0714174 -0.1157842 -0.12095676 0.12686664
000350 2e 3a 04 3d 62 5b 34 3e ec 07 a4 bd 4f 7d 23 3d
       0.032282047 0.17612985 -0.080093235 0.039914425
000360 63 1a 1f be 88 6c b3 bc fa 3a 08 be 03 b4 37 bd
       -0.1553741 -0.021902338 -0.13303748 -0.044849407
000370 de a3 2c bd ba 5d 4c be 33 5c 4e bd e4 48 d5 3b
       -0.042148463 -0.19957629 -0.050380897 0.0065089334
000380 e0 e6 2f 3e cc aa 17 bd 58 85 67 bc d3 6f 83 bd
       0.17177916 -0.03702812 -0.014130913 -0.06417813
000390 b6 93 f2 3c a3 96 12 bd 54 54 48 3e 70 b8 25 3e
       0.02961145 -0.03578819 0.19563419 0.16183639
0003a0 ad 9e 82 bd ce 53 bb bd 51 33 e8 3d 03 c1 4b 3d
       -0.06377921 -0.09146844 0.11337913 0.049744617
0003b0 2e 88 41 be 8c 3d cf bd 37 ae 23 be 3b 19 e1 bd
       -0.18899605 -0.10119161 -0.15984426 -0.109911405
0003c0 9b b6 dc 3c 99 bc 28 be c2 12 1b be 38 7b 97 bd
       0.026942542 -0.16478194 -0.15143874 -0.07396549
0003d0 8f 72 3b 3e 10 10 a3 3b 09 28 08 3e 49 4d 2d 3e
       0.1830542 0.00497628 0.13296522 0.16924013
0003e0 93 39 88 3c a7 10 0f 3e 0b 97 3d be 74 18 2b be
       0.016629016 0.13971196 -0.1851465 -0.16708547
0003f0 09 66 0e bd f9 30 4b bd a9 bf dc bd 35 ac 15 bd
       -0.034765277 -0.04960725 -0.10778744 -0.036541183

bias f4 [24]
000000 7a 8a a6 3d d2 ed 90 3c 9a e7 01 3e 65 27 0e 3e
       0.08131881 0.017691527 0.12686005 0.13882215
000010 90 08 04 3c 30 f8 b0 bd 42 bb a2 bc 1c 47 b8 bd
       0.008058682 -0.08641088 -0.019864682 -0.08997938
000020 9e 8d 11 3e 2e 63 ad 3c fd 4a 2f bd c6 01 0d be
       0.14214179 0.021165457 -0.042796124 -0.13770208
000030 13 c4 f7 3c 21 45 eb bd 1d 5a fe 3d 30 b3 80 bd
       0.030244863 -0.11487795 0.124195315 -0.06284177
000040 46 28 87 3d c3 d9 2c be 6e 07 4a bd 26 12 7e bc
       0.065994784 -0.16879945 -0.04932349 -0.015507257
000050 92 a5 4e be 79 c8 3f be a0 af 93 bd 29 e6 33 3e
       -0.20180348 -0.18728818 -0.07211232 0.17568268

weight f4 [24, 96]
000000 69 d7 bd bd cc 53 bf bc 20 37 65 bd 50 35 6d 3d
       -0.09269602 -0.023355387 -0.055960774 0.05791217
000010 46 7f 76 bd c6 ef 82 bd 0e 2b a8 3d b2 ce cd 3d
       -0.06017997 -0.063933894 0.08211337 0.100491896
000020 38 82 09 bc 2c 67 49 3d f8 7c 12 bc d4 1f c4 bc
       -0.008392863 0.049170658 -0.008940928 -0.023940958
000030 4c ec 74 3d 88 0e 72 bd 50 d2 8a 3b 03 b0 cd bd
       0.059795663 -0.05909589 0.004236497 -0.10043337
000040 10 f6 36 bc 9b 8b c0 bd cc c8 6a 3d 6c e1 5e 3d
       -0.011167064 -0.09401628 0.0573204 0.054414198
000050 3e 77 80 3d 0c 5a a2 3d 16 49 98 3d 60 5a d0 bc
       0.06272744 0.07927331 0.07435815 -0.02543372
000060 60 e7 57 3d 94 cb cf 3d 04 77 25 3d d7 a6 a9 bd
       0.05271089 0.10146251 0.040396705 -0.08283775
000070 7c f7 b5 bd e0 2c 40 3d f2 4a 03 bd 08 bd 96 bc
       -0.088850945 0.046917796 -0.032053895 -0.018400684
000080 ee 2b 35 bd ee 0b b3 3d 20 f5 9b 3d a8 fe e6 3c
       -0.044231348 0.0874251 0.07615113 0.028197601
000090 00 c0 96 ba d9 1b 38 bd 48 f1 9f bd 46 fd 1a bd
       -0.0011501312 -0.044948433 -0.078096926 -0.037839197
0000a0 dc f2 33 3d cc e1 4e 3d f2 2f 05 bd a5 e7 55 bd
       0.04393278 0.050508305 -0.032516427 -0.052222867
0000b0 7d 2a c5 bd 2d 08 9a bd f8 7f a8 bc 48 00 b4 bd
       -0.096272446 -0.07521091 -0.020568833 -0.08789116
0000c0 00 68 a0 ba 10 c2 e5 3c 14 d9 6b 3d d0 b3 b9 bb
       -0.0012238026 0.028046638 0.05758007 -0.0056671873
0000d0 ab c4 af bd a0 85 1d 3d 50 57 ab bb 20 55 3f 3c
       -0.08582433 0.038457513 -0.0052289143 0.01167801
0000e0 76 53 a3 3d f0 33 1a 3d 9c a9 46 3d 20 43 e7 3b
       0.07974903 0.037647188 0.048501596 0.0070575625
0000f0 de 67 81 bd 94 db 02 bd 80 3a 7a bc c6 88 8d bd
       -0.06318639 -0.031947687 -0.015272737 -0.06910853
000100 51 e3 c9 bd 50 13 b0 bc 1e 56 1e bd 80 68 c8 ba
       -0.0985781 -0.021493584 -0.038656346 -0.0015289932
000110 d0 be ab bd 54 53 bb 3d 00 e2 84 ba 07 c0 a7 bd
       -0.08386004 0.09146753 -0.0010138154 -0.08190923
000120 a0 f3 a8 3d 10 08 19 3c 4d 33 cd bd 9b 92 59 bd
       0.08249593 0.009340301 -0.100195505 -0.05311833
000130 2a c5 8e 3d 0e 56 ac bd f8 5d b1 bc 34 5c 9f bd
       0.069712 -0.08414851 -0.021651253 -0.07781258
000140 30 b6 25 3d fd 61 c1 bd f2 de 88 bd 00 0a 3e 3a
       0.04045695 -0.09442518 -0.066831484 0.0007249415
000150 6e 65 6b bd 2a 32 84 bd 6c 04 6a 3d 82 65 b8 3d
       -0.057469778 -0.064548805 0.057133123 0.09003736
000160 38 28 d4 3c e4 8f 13 3d 08 c1 3a 3d aa 8d cb 3d
       0.025898084 0.036025897 0.045594245 0.0993913
000170 60 ba c3 3c 7c ea a7 bd ec 2c 53 3d 84 8e 8e bc
       0.023892581 -0.08199021 0.051556513 -0.017401941
000180 c3 4e c6 bd f5 14 8a bd df 48 9e bd 3a 01 9d 3d
       -0.09682991 -0.067422785 -0.07728743 0.076662496
000190 20 f6 b6 3b 80 9f e1 bc 50 83 d9 bb e4 3d 50 3d
       0.0055835396 -0.027541876 -0.006637968 0.050840273
0001a0 27 f0 a4 bd 10 5f e0 3c 0c 88 cf 3d 48 9f 0c bc
       -0.08053618 0.02738908 0.10133371 -0.0085828975
0001b0 60 70 69 3d 40 84 ac bc 00 fa 81 bc 54 b4 b4 3d
       0.056991935 -0.021059155 -0.01586628 0.08823457
0001c0 8e f3 4e bd e0 ea e5 3b a0 a2 9e 3d 10 cd be 3c
       -0.05052524 0.0070165247 0.07745862 0.02329114
0001d0 ec ed cc bd 96 2c a3 bd e6 a4 98 bd cc 96 f5 bc
       -0.100063175 -0.079674885 -0.07453327 -0.029979132
0001e0 66 9b 90 bd 0c c9 97 3d 1c 5d 89 bc 54 53 af 3c
       -0.0706089 0.074113935 -0.01676803 0.021402039
0001f0 4c 99 76 bd 94 68 88 bd 7a 54 62 bd 29 b2 2a bd
       -0.06020479 -0.06660572 -0.055256344 -0.041673813
000200 40 8f 05 3c 84 b7 9b bd c0 7d 47 3d 57 7d bb bd
       0.008151829 -0.07603362 0.04870391 -0.09154766
000210 ef 75 b4 bd 50 a1 ac 3c 78 46 61 bc 83 40 86 bd
       -0.088115565 0.021073014 -0.013749711 -0.065552734
000220 26 e5 2f bd ec 72 98 3d f7 75 5d bd d4 d6 c5 3d
       -0.042943142 0.074437946 -0.05406758 0.09660116
000230 10 ef 30 bc 48 af b4 bd e0 b2 d6 bc 40 96 51 3d
       -0.010799184 -0.08822495 -0.026208341 0.05116868
000240 d0 85 22 bc 5b 4c 9d bd f4 73 ce 3d f8 d5 c7 3c
       -0.009919599 -0.07680579 0.1008071 0.02439402
000250 58 60 8c 3c c8 c7 0d 3d f8 eb 1b bc 78 b7 8d bd
       0.017135784 0.034614354 -0.009516709 -0.069197595
000260 fe 9f 04 bd e8 19 81 3d 1a fd b2 bd 14 4d 35 3d
       -0.032379143 0.06303769 -0.087396815 0.04426296
000270 8c 04 b3 3d fe b7 03 bd 70 9d 1c 3d c0 cf 8e ba
       0.087411016 -0.03215789 0.03823608 -0.0010895655
000280 e0 ff 1c 3d cf 85 b5 bd 94 6d a7 3d 78 00 11 3d
       0.03832996 -0.088634126 0.08175197 0.035400838
000290 52 a8 8d bd b0 d0 56 3d 84 88 24 3d 79 b2 c5 bd
       -0.0691687 0.052445114 0.040169254 -0.096531816
0002a0 12 5e cb 3d 9c 5d 61 3d ac 37 35 3d 74 12 c4 bc
       0.09930052 0.055020913 0.044242546 -0.02393458
0002b0 b4 f6 a2 3d 7c 6b a7 bd cc b8 bb 3d b6 a5 8c 3d
       0.07957211 -0.08174798 0.091661066 0.06867544
0002c0 ba 5c bc 3d 34 7e d0 bc 86 2d 3a bd 6c ab 7c 3d
       0.09197374 -0.025450803 -0.04545357 0.06168692
0002d0 d4 d4 32 3d a0 17 3c bc e9 a1 b6 bd 00 7f 84 b9
       0.04366 -0.011480242 -0.08917601 -0.00025271624
0002e0 d0 7c f4 3c 72 32 b6 3d 80 eb d1 3c 0c 09 1f bd
       0.029844671 0.088963404 0.02562499 -0.038826987
0002f0 e4 17 5c 3d 52 87 b3 bd 44 50 bf 3d d2 5a 72 bd
       0.05373372 -0.08766045 0.09341481 -0.059168644
000300 1c 91 b9 3d 7a 25 98 3d 1c 94 f2 bc 28 61 03 bd
       0.090608805 0.07429023 -0.02961164 -0.032075077
000310 68 d9 6c 3d 7c 12 8f 3d b2 5d 91 bd 10 f0 a9 3c
       0.057824522 0.069859475 -0.07097949 0.020744354
000320 f2 bb a5 3d 59 1e 8a bd 66 d5 87 bd 8f 8e 70 bd
       0.08092488 -0.067440696 -0.066324994 -0.058729704
000330 77 3b 5a bd 80 30 cb 3a 25 72 b1 bd 08 5d d7 3c
       -0.053279366 0.0015502125 -0.086643495 0.026289478
000340 b8 c1 6c bd ae ed a2 3d e0 cc 4e bd d4 3d ac 3d
       -0.057801932 0.0795549 -0.050488353 0.0841023
000350 14 74 8a bd c5 bd ac bd 5c a9 a9 bd 00 e0 06 3d
       -0.067604214 -0.08434633 -0.08284256 0.032928467
000360 b8 c6 1f 3d 76 91 89 bd d0 ab 77 bc 98 e7 87 3d
       0.039007872 -0.067171976 -0.015116647 0.0663597
000370 39 d8 23 bd 4c 62 34 3d 8a 80 cb bd 2e ad 99 bd
       -0.040001128 0.044039056 -0.09936626 -0.075037345
000380 64 77 c4 3d 10 18 bc 3d d0 18 66 bc ce 68 ce 3d
       0.095930845 0.09184277 -0.014044002 0.10078584
000390 0c 8b bc bc 16 2c 1c bd e9 15 74 bd c0 eb c7 3a
       -0.023015521 -0.03812798 -0.059591208 0.0015252754
0003a0 d0 6b 8d bd 28 b8 b0 bc 38 db 07 3d 80 e6 2b 3a
       -0.06905329 -0.021572188 0.033168048 0.00065574795
0003b0 d4 a4 a1 bd cb 60 44 bd 60 76 60 3b c8 ca 7c bd
       -0.078927666 -0.04794387 0.0034250244 -0.061716825
0003c0 82 19 93 bd 70 da 87 bd 38 39 f0 3c 88 a8 b0 bd
       -0.071825996 -0.066334605 0.029324159 -0.08625895
0003d0 94 ce 2b 3d 70 6f f2 3b 80 8f d5 bb 63 25 46 bd
       0.041945055 0.0073985383 -0.0065173507 -0.0483755
0003e0 ab 84 96 bd 74 5c 75 3d 1c 8b a5 3d c2 4a 13 bd
       -0.07349523 0.059902623 0.08083174 -0.035959966
0003f0 3b 48 91 bd 48 ab b4 bd ac d6 98 bc 88 6c ce 3d
       -0.07093855 -0.08821732 -0.018657051 0.100792944

bias f4 [24]
000000 62 32 7f bd ba 61 cf 3d 3c 20 73 bd 00 0c e5 3a
       -0.06230391 0.10126062 -0.059356913 0.001747489
000010 f8 f9 83 3c e4 be 85 3c 0e bd 94 3d 90 5f 8f bc
       0.016110405 0.016326375 0.07262622 -0.017501622
000020 5e 6c ce bd 10 26 b0 3b 24 1d 54 3d 32 df c0 3d
       -0.10079263 0.005375631 0.051785603 0.09417571
000030 c8 85 aa bd e8 9b 59 bd 13 0f a2 bd b8 7e 17 3d
       -0.08326298 -0.0531272 -0.079130314 0.036986083
000040 e0 73 2e bc e8 6c ba 3d 58 38 a1 3d ca fa 8c 3d
       -0.010647744 0.091028035 0.07872075 0.06883772
000050 c4 91 4c 3d 28 82 0f bc c5 63 71 bd 3a 2e 4c bd
       0.0499437 -0.008759059 -0.05893304 -0.049848773
