training/train_output/ID_Q_softplus_cold/config_37.pt (torch, 81003 bytes, 4 tensors)

weight f4 [24, 24]
-0.18052153 -0.08691552 0.160797 0.070636034 -0.18577749 0.15554574 0.06022443 -0.115492485
-0.07529484 -0.060444266 0.2013525 0.07669443 -0.038514465 0.11550045 0.15474597 0.07543254
-0.048376992 0.11419645 -0.090797275 -0.17056248 0.0040315203 0.0932031 0.06328088 -0.1081454
0.11701667 0.06430915 -0.13706684 0.201482 -0.00015984732 -0.04816398 0.12889314 -0.044250637
-0.1879227 -0.15801021 -0.08556084 -0.097947 -0.049271077 0.20187321 -0.10106979 0.15166757
0.13235468 -0.009252876 -0.1470892 -0.121260636 0.04523401 0.18186972 -0.20075415 -0.0758007
-0.19946888 -0.07940683 -0.19435172 -0.16932409 -0.08439162 -0.16405547 0.13297665 -0.1604149
0.112353176 -0.14123622 0.12979206 -0.0632468 0.17468369 0.20273241 0.048629418 0.14124173
-0.15401685 0.01765611 0.13625488 0.05540766 -0.16288418 0.06999862 0.021715693 0.14283273
0.07953027 0.06051193 -0.011284418 -0.042796567 -0.1472904 0.098820895 -0.09983646 -0.20097701
-0.1252186 -0.09894882 0.17322934 -0.00018866085 0.124319196 0.18665698 0.1830135 0.15816957
-0.02417875 -0.076373056 0.1420914 0.14102641 0.06734699 0.1583376 -0.07585886 0.11246273
-0.034280047 -0.18864897 0.09015885 0.06304896 -0.06990081 0.0029920898 0.13069922 -0.0052538924
0.093711734 -0.075623974 -0.012649767 -0.15130101 -0.18335609 -0.16780686 0.10690749 -0.083774164
0.15231186 0.13227549 -0.19816905 -0.01683826 -0.038069114 -0.18008053 -0.1473852 -0.054579794
-0.13046692 -0.17348267 -0.14770015 0.19205257 0.123890996 0.16013291 -0.14427651 0.13920933
-0.13762389 0.17111862 0.012784429 0.01640921 -0.1488007 -0.1364763 -0.07149245 -0.17436644
0.12533242 -0.054230824 0.10004404 -0.010536686 -0.014188632 0.14393616 0.1352705 -0.023512907
0.022957869 -0.17530817 0.11053401 -0.13615526 0.10093245 0.08862391 0.08897284 0.079292655
-0.08819392 -0.1398341 -0.065477625 0.04305242 -0.11288293 0.0035335384 -0.039377615 -0.1512109
-0.02072855 -0.04696095 -0.034934655 0.06797072 0.13872501 -0.053371444 0.046433672 0.16807267
0.089004755 -0.026780732 -0.09075607 -0.1883054 -0.054168105 0.091136485 0.12294325 0.013039045
-0.107809596 0.16053176 0.027512513 -0.11115942 0.14268488 0.09202951 0.0360305 -0.19043757
-0.12700117 0.004782433 0.13689992 -0.16828 -0.14907615 -0.10926248 -0.054085374 -0.19919087
-0.08122813 -0.11482692 -0.075463966 -0.03413689 0.17756617 -0.18161052 0.18730444 -0.13283631
0.17775688 -0.016896836 -0.048397124 -0.095627226 -0.035886005 0.09539154 -0.098042935 0.18783337
-0.020214759 0.035105616 0.035526544 -0.10548721 -0.18348338 -0.07534018 -0.103513986 0.06771067
-0.06515573 0.03339085 -0.09408908 0.14021927 -0.10848191 -0.114649035 0.16694748 0.059171602
-0.089606054 0.03869523 0.03983894 0.111374676 0.007765617 -0.17351732 0.028003074 -0.12733608
0.12967178 -0.021205105 -0.11890173 0.12376872 0.13373524 0.1771177 0.1588414 0.12942049
0.048951134 -0.08988267 -0.14825378 -0.11163755 -0.013677813 -0.07792717 0.008699469 0.14749184
0.0312953 -0.14304064 0.0055692 -0.0016843348 -0.17223653 -0.09047094 -0.15165056 -0.09123206
00000000: a3da 38be c400 b2bd f8a7 243e a0a9 903d
00000010: 743c 3ebe 6247 1f3e e4ad 763d 5387 ecbd
00000020: 2e34 9abd 6894 77bd 5a2f 4e3e f811 9d3d
00000030: 58c1 1dbd 808b ec3d ba75 1e3e 607c 9a3d
00000040: f426 46bd d4df e93d ecf3 b9bd eea7 2ebe
00000050: d81a 843b 44e1 be3d 6899 813d 567b ddbd
00000060: 70a6 ef3d 84b4 833d 405b 0cbe 4c51 4e3e
00000070: b09c 27b9 9847 45bd 90fc 033e 2840 35bd
00000080: cf6e 40be 6ecd 21be 863a afbd 7098 c8bd
00000090: 78d0 49bd dab7 4e3e aefd cebd be4e 1b3e
000000a0: fc87 073e 6099 17bc 8d9e 16be 7f57 f8bd
000000b0: 4c47 393d 0e3c 3a3e 7f92 4dbe 663d 9bbd
000000c0: 9241 4cbe 0ca0 a2bd 2304 47be 4b63 2dbe
000000d0: 83d5 acbd 28fe 27be 082b 083e ce43 24be
000000e0: 6c19 e63d 3aa0 10be 36e8 043e 8a87 81bd
000000f0: 48e0 323e 1699 4f3e a42f 473d aca1 103e
00000100: 98b6 1dbe 8ca3 903c 6686 0b3e 24f3 623d
00000110: 1ccb 26be 705b 8f3d 1ce5 b13c be42 123e
00000120: c4e0 a23d 5cdb 773d 48e2 38bc 744b 2fbd
00000130: 4bd3 16be 9c62 ca3d 0f77 ccbd ebcc 4dbe
00000140: 4e39 00be aea5 cabd 0863 313e 43d3 45b9
00000150: 109b fe3d 0223 3f3e e467 3b3e 34f7 213e
00000160: 8412 c6bc 7a69 9cbd 6880 113e 3a69 103e
00000170: 38ed 893d 4023 223e e45b 9bbd dc52 e63d
00000180: 3c69 0cbd 322d 41be 34a5 b83d d01f 813d
00000190: 2828 8fbd f016 443b 04d6 053e d828 acbb
000001a0: f0eb bf3d bee0 9abd f840 4fbc a7ee 1abe
000001b0: b3c1 3bbe 90d5 2bbe 50f2 da3d ca91 abbd
000001c0: a4f7 1b3e 3a73 073e d4ec 4abe 64f0 89bc
000001d0: 5cee 1bbd 0867 38be 25ec 16be 108f 5fbd
000001e0: 1f99 05be 71a5 31be b53e 17be 6ea9 443e
000001f0: 90ba fd3d e2f9 233e 39bd 13be e48c 0e3e
00000200: 47ed 0cbe b839 2f3e c875 513c 9c6c 863c
00000210: 365f 18be 71c0 0bbe a26a 92bd 1e8d 32be
00000220: 2457 003e 2421 5ebd e4e3 cc3d 10a2 2cbc
00000230: 7077 68bc 0064 133e 5a84 0a3e 249e c0bc
00000240: 2412 bc3c fc83 33be a85f e23d 496c 0bbe
00000250: acb5 ce3d 7480 b53d 6437 b63d 3064 a23d
00000260: 049f b4bd ac30 0fbe 2219 86bd bc57 303d
00000270: 2a2f e7bd f092 673b 6c4a 21bd 08d7 1abe
00000280: ecce a9bc 205a 40bd a417 0fbd 3c34 8b3d
00000290: ee0d 0e3e 049c 5abd 3c31 3e3d 3e1b 2c3e
000002a0: 2048 b63d 4463 dbbc 52de b9bd 21d3 40be
000002b0: 60df 5dbd c4a5 ba3d acc9 fb3d b8a1 553c
000002c0: 47cb dcbd 7062 243e ec61 e13c 8da7 e3bd
000002d0: fc1b 123e f879 bc3d b894 133d 1102 43be
000002e0: 980c 02be f5b5 9c3b 7e2f 0c3e 9851 2cbe
000002f0: 6ba7 18be 02c5 dfbd a088 5dbd b1f8 4bbe
00000300: ef5a a6bd 602a ebbd da8c 9abd 20d3 0bbd
00000310: e8d3 353e 1cf8 39be bccc 3f3e 3e06 08be
00000320: e605 363e 3c6b 8abc 103c 46bd 35d8 c3bd
00000330: 34fd 12bd a45c c33d bcca c8bd 6457 403e
00000340: 6c99 a5bc e8ca 0f3d 4884 113d ae09 d8bd
00000350: 11e3 3bbe f44b 9abd 24ff d3bd e4ab 8a3d
00000360: 5e70 85bd d8c4 083d c7b1 c0bd a495 0f3e
00000370: c32b debd 1dcd eabd 48f4 2a3e ec5d 723d
00000380: 6183 b7bd e47e 1e3d 282e 233d 6818 e43d
00000390: b876 fe3b 86ae 31be b466 e53c 6464 02be
000003a0: aec8 043e 54b6 adbc c082 f3bd 747a fd3d
000003b0: e4f1 083e 585e 353e 52a7 223e ce86 043e
000003c0: fc80 483d 6814 b8bd d7cf 17be 3aa2 e4bd
000003d0: e818 60bc 4898 9fbd 3888 0e3c 1a08 173e
000003e0: 802f 003d 3f79 12be d67d b63b e6c4 dcba
000003f0: c65e 30be d448 b9bd 494a 1bbe e0d7 babd

bias f4 [24]
0.1563116 -0.06968571 0.06222482 -0.041368723 -0.15985967 -0.19616792 0.035396934 0.16325009
0.07674995 -0.082723044 -0.16503036 0.060919497 -0.09362913 0.1643212 0.019152962 0.16449857
-0.15848427 -0.09646372 -0.18450677 -0.18705365 -0.028832562 0.20195697 0.054851696 -0.12914619
00000000: 2610 203e 62b7 8ebd 74df 7e3d 4072 29bd
00000010: 41b2 23be 3ee0 48be 60fc 103d 082b 273e
00000020: 142f 9d3d b36a a9bd b8fd 28be b986 793d
00000030: a1c0 bfbd d143 283e ace6 9c3c 5072 283e
00000040: b349 22be c58e c5bd 58ef 3cbe fe8a 3fbe
00000050: 4432 ecbc cfcd 4e3e 2cac 603d e63e 04be

weight f4 [24, 96]
0.029119238 0.015041515 0.056323737 -0.034574524 0.074576735 0.091465816 0.06849298 0.036796927
0.064384595 -0.08659711 -0.01174701 -0.004711911 0.013075359 0.09060566 -0.0930489 0.038171172
0.08955994 -0.031942055 0.036599725 0.10083483 0.08535406 -0.072695844 -0.029842027 -0.057289734
0.04669094 0.024465218 -0.054947563 0.029510662 -0.037252344 -0.03821318 -0.023688897 -0.08676687
0.010137983 0.0774934 -0.07153678 -0.010774255 0.061182857 -0.040202014 -0.05014672 0.009100676
0.0317896 -0.03696818 -0.069560945 0.07376322 0.056782886 -0.05540845 0.07299335 0.10038628
0.070571855 -0.07417718 -0.015232161 -0.011335149 0.024512231 0.030586973 -0.05408577 0.09763284
0.027911156 0.028288454 0.014920376 -0.0941692 0.07918039 -0.052937943 0.09539047 -0.07743237
-0.006761782 0.0759837 0.010933027 0.036431596 -0.03846284 -0.048958726 -0.09683927 0.0839753
0.009799197 0.033758417 0.013217725 -0.021629497 0.029434219 0.028738111 -0.008340813 -0.029733874
-0.057014123 -0.07626582 -0.006852396 0.02388598 -0.08886698 0.050231516 -0.051989436 0.07148562
0.043916315 0.023900837 -0.09596061 0.04912272 0.03383529 -0.07027592 0.013944745 0.09690471
-0.007170506 -0.09354264 -0.08670434 -0.07276122 0.08086075 -0.10076649 -0.08649315 0.072213545
-0.0025183856 0.0693209 0.05270599 -0.09581472 -0.06582746 -0.05719318 -0.056206577 0.07503079
-0.03516163 0.07371184 0.044359952 0.036257535 0.0290353 -0.03088411 0.09501919 -0.08566858
-0.09532209 0.02194988 -0.033343397 0.08770825 0.056931734 -0.016481355 -0.023536041 -0.047564402
0.037266493 -0.04143685 0.05435738 -0.07398734 0.096771166 0.0054532364 -0.047279727 -0.06366881
0.038519487 -0.07248193 0.018888295 0.005697347 0.05091989 0.05922441 -0.019837394 -0.0812469
-0.083473 0.09994881 -0.09651898 -0.06514181 0.08983666 -0.033893064 0.049975157 -0.088356905
-0.0283707 -0.046003215 -0.053629003 0.020286448 0.012133315 -0.03531406 0.0025793016 -0.0904066
0.04330851 -0.0043822527 -0.08697874 -0.0799431 -0.015150912 -0.05909933 -0.06146895 0.02877216
-0.08012418 -0.003660731 -0.035295628 -0.0685667 -0.04819822 0.02213268 -0.08212066 -0.00041825324
-0.004614167 -0.043931607 -0.025696084 0.01935777 -0.07416926 -0.09121612 -0.051739264 -0.04879322
0.039823562 -0.09532922 0.062235907 -0.056344986 0.054947823 -0.013713844 -0.09281726 -0.033113115
0.0750206 0.02948013 0.09565616 0.0714103 -0.06586946 0.011109687 0.10070847 0.06022924
0.05485931 -0.061036557 -0.04451768 0.06839083 -0.04187123 0.06463143 -0.04300079 0.07562554
0.0024392009 0.006313786 -0.09364512 0.0007623583 0.011152893 -0.051881958 -0.060498837 -0.0058204755
0.052215472 -0.028500706 -0.012614787 -0.09196837 -0.09223548 0.040970027 -0.017031938 0.038934365
-0.015776515 0.013486303 0.011822633 -0.02784776 -0.025305785 0.07052013 0.038977727 0.012701504
0.07101925 0.020243496 -0.032311097 -0.07479516 -0.007248096 0.085685745 -0.025636151 0.02725169
-0.03356819 -0.023854941 -0.017099716 0.06178151 0.03596878 -0.0239003 0.099418774 -0.052981965
-0.035564594 0.0025797188 0.054581285 -0.008223027 0.043320477 0.011005968 -0.06493281 -0.012082249
00000000: 788b ee3c b070 763c b8b3 663d 049e 0dbd
00000010: b0bb 983d 6e52 bb3d 0c46 8c3d 60b8 163d
00000020: 12dc 833d d359 b1bd 8876 40bc 6066 9abb
00000030: 083a 563c 768f b93d 6c90 bebd 6059 1c3d
00000040: 346b b73d acd5 02bd 98e9 153d 7e82 ce3d
00000050: 1cce ae3d 8fe1 94bd 4477 f4bc a4a8 6abd
00000060: 003f 3f3d 486b c83c b210 61bd 58c0 f13c
00000070: ea95 18bd 6c85 1cbd 380f c2bc d4b2 b1bd
00000080: c819 263c dcb4 9e3d e081 92bd 8086 30bc
00000090: e09a 7a3d deaa 24bd a666 4dbd 001b 153c
000000a0: d035 023d f26b 17bd f875 8ebd 2c11 973d
000000b0: 2c95 683d f9f3 62bd 8a7d 953d 5297 cd3d
000000c0: fa87 903d 35ea 97bd 5090 79bc 10b7 39bc
000000d0: e0cd c83c 8891 fa3c 0a89 5dbd baf3 c73d
000000e0: f0a5 e43c 30bd e73c 9874 743c c8db c0bd
000000f0: 5429 a23d 75d5 58bd 145c c33d dd94 9ebd
00000100: f091 ddbb 589d 9b3d 7020 333c 4c39 153d
00000110: 368b 1dbd f288 48bd ab53 c6bd 3efb ab3d
00000120: d08c 203c 4446 0a3d 288f 583c 5830 b1bc
00000130: 0820 f13c 306c eb3c e8a7 08bc 7494 f3bc
00000140: a487 69bd 4131 9cbd 108a e0bb 88ac c33c
00000150: e4ff b5bd 90bf 4d3d e0f2 54bd 0e67 923d
00000160: 98e1 333d b0cb c33c ff86 c4bd e834 493d
00000170: e096 0a3d d2ec 8fbd 8078 643c fa75 c63d
00000180: 90f6 eabb 4993 bfbd 0c92 b1bd d603 95bd
00000190: 529a a53d a95e cebd 5223 b1bd b2e4 933d
000001a0: 800b 25bb 1ef8 8d3d 3ce2 573d 823a c4bd
000001b0: 8cd0 86bd 6543 6abd de38 66bd bea9 993d
000001c0: a405 10bd 3cf6 963d c8b2 353d c882 143d
000001d0: 70db ed3c ac00 fdbc 6c99 c23d 0273 afbd
000001e0: 3a38 c3bd 3cd0 b33c 1693 08bd 62a0 b33d
000001f0: 4031 693d e803 87bc a8ce c0bc e4d2 42bd
00000200: c0a4 183d b0b9 29bd d8a5 5e3d ad86 97bd
00000210: f62f c63d 10b1 b23b 63a8 41bd cb64 82bd
00000220: 9cc6 1d3d 6871 94bd a0bb 9a3c d0b0 ba3b
00000230: 6091 503d 4c95 723d 0882 a2bc c664 a6bd
00000240: e4f3 aabd f6b1 cc3d beab c5bd 1269 85bd
00000250: 48fc b73d 74d3 0abd c0b2 4c3d 77f4 b4bd
00000260: ac69 e8bc de6d 3cbd 16aa 5bbd c42f a63c
00000270: d0ca 463c 7aa5 10bd 8009 293b 1827 b9bd
00000280: 4464 313d 0099 8fbb e921 b2bd 35b9 a3bd
00000290: 883b 78bc 2412 72bd dec6 7bbd 98b3 eb3c
000002a0: 2518 a4bd e0e8 6fbb 2692 10bd b36c 8cbd
000002b0: 7f6b 45bd 984f b53c e02e a8bd 0049 dbb9
000002c0: 7032 97bb a1f1 33bd 9880 d2bc 3094 9e3c
000002d0: 0ee6 97bd 84cf babd 8dec 53bd 66db 47bd
000002e0: 081e 233d f73b c3bd 14eb 7e3d 00ca 66bd
000002f0: f810 613d 08b0 60bc fa16 bebd 9ea1 07bd
00000300: 66a4 993d 5080 f13c 60e7 c33d 903f 923d
00000310: 91e6 86bd 6805 363c 3e40 ce3d f0b2 763d
00000320: 28b4 603d 7801 7abd 2c58 36bd 7e10 8c3d
00000330: 2b81 2bbd 7c5d 843d 9921 30bd 90e1 9a3d
00000340: 00db 1f3b e0e3 ce3b 03c9 bfbd 00d9 473a
00000350: a0ba 363c 2d82 54bd a1cd 77bd b0b9 bebb
00000360: e4df 553d 507a e9bc 40ae 4ebc ea59 bcbd
00000370: f5e5 bcbd 30d0 273d 9086 8bbc a479 1f3d
00000380: c03d 81bc a8f5 5c3c b8b3 413c fc20 e4bc
00000390: 144e cfbc dc6c 903d 1ca7 1f3d f819 503c
000003a0: 8a72 913d b0d5 a53c a458 04bd 342e 99bd
000003b0: 7081 edbb 027c af3d e802 d2bc f03e df3c
000003c0: cc7e 09bd 706b c3bc b414 8cbc 9c0e 7d3d
000003d0: 0054 133d 90ca c3bc 129c cb3d 9e03 59bd
000003e0: 2eac 11bd 8010 293b a090 5f3d e0b9 06bc
000003f0: d070 313d 6052 343c 7efb 84bd a0f4 45bc

bias f4 [24]
-0.012266889 -0.046523597 0.08400124 -0.08898613 0.0408324 0.020114757 0.018822141 -0.096754394
0.005756393 0.025828838 0.043419346 -0.062748775 -0.009626187 0.095329076 -0.06715625 -0.06365209
-0.10122497 -0.06556761 0.0969533 0.072564945 0.08285637 0.0251171 0.042403936 0.09081295
00000000: 10fb 48bc 878f 3ebd d808 ac3d 5c3e b6bd
00000010: e03f 273d b4c7 a43c e430 9a3c 2b27 c6bd
00000020: 20a0 bc3b 0097 d33c 7cd8 313d 6e82 80bd
00000030: 28b7 1dbc e43b c33d 3789 89bd 075c 82bd
00000040: 094f cfbd 5048 86bd 748f c63d ee9c 943d
00000050: 9ab0 a93d 60c2 cd3c c0af 2d3d 24fc b93d
