training/train_output_old/20230920_scaled_IDQ_softplus_cold/config_25.pt (torch, 81003 bytes, 4 tensors)

weight f4 [24, 24]
00000000: 4480 d2bc bf81 1a3e 1424 31be bf1d 4a3d
00000010: 1ac6 e33d f8aa 9dbd f823 e63d 4ac5 33be
00000020: bd39 4a3e 4bc9 f8bd 4582 2dbe 9e8b 4b3e
00000030: 57af 6c3d 06a6 a63d fc8d bcbd 93b2 d23d
00000040: b14b 3abe 752e 49be fbbc 483d ef7f cfbd
00000050: 8da2 24bd 028a b93c 42b3 13be 7345 27bc
00000060: 53c6 5c3d 803b ad3d 86ca aabd 7c17 44be
00000070: 6f91 083e d484 bf3d b49a 5a3d 7c34 ec3d
00000080: 11e9 1cbd a604 3dbd 6827 473e 5f68 1b3e
00000090: f0ed 453e d157 8dbd f713 303e 37d5 fc3c
000000a0: 6a50 23be 04ec 903d 648d 4bbe 2122 38be
000000b0: 4e3f 2c3e c0e0 03be a9dc 18be d28a ff3d
000000c0: d8cd 873d a47d 4a3c 3def f9bd f83e e83d
000000d0: 62e6 103e 58f6 bf3d ec35 37be 38cc 3f3d
000000e0: 1095 92bc 74ad 213e 60d2 0ebe 5f99 c1bd
000000f0: 90df 86bd 72e1 0abe 0a1d 89bd c8d7 ebbc
00000100: be45 7dbc c6a0 4e3e 0c56 2f3e 947b 3ebd
00000110: ce77 323e e015 453e e433 a53d b85d 2e3e
00000120: 2a90 3e3e ba18 473e e839 453d 38f0 6b3d
00000130: 44d3 13be d4c3 48bc d7fb adbd 85ba 04be
00000140: c480 2dbe 4a53 06be 700d 5f3d 1cea 53bd
00000150: 8a5c 27be e06e 86bd d28f fabd b448 0ebd
00000160: e6b6 fabd 8817 82bc 069a 1abe 7480 8bbd
00000170: 0a9f 4f3e 68ae 2ebd e63d 1dbe 5447 3ebd
00000180: e800 f73c e881 c6bd 1818 b13c 02fd e1bd
00000190: 70e4 0c3d 107e c33d b0bb 193e 927e a5bd
000001a0: bcc9 52bd 0b88 39be 841c c43d 349f 153e
000001b0: 5889 e6bc a072 afbd 0863 803d 68e2 0a3e
000001c0: ce38 a7bd e80f c3bc 99eb 35be 0061 493d
000001d0: 83d7 32be f8b8 103d 4e91 9abd 3831 ef3d
000001e0: 4ad1 143e a036 c1bd eca6 093d 88a4 483e
000001f0: be67 99bd f4da b73d 1c02 153d f091 0f3e
00000200: d452 d33d 5c72 9e3d 2c8f f53d 8882 dc3d
00000210: a476 1b3e 06db 29be b044 65bd 365b 053e
00000220: d21f b2bd 88b8 94bc 7c30 a33d ce05 4a3e
00000230: 988f de3c e2c6 273e 563a 48be 802f 6fbd
00000240: e0e1 703d 9666 88bd 5514 4abe d20b a2bd
00000250: 9823 c93c aed8 91bd c035 8e3c 2c46 8e3d
00000260: 8762 d2bd 546a cd3d e874 9dbd c0b7 8a3d
00000270: 087f ee3c e523 4bbe 74ba 743c 8e03 4b3e
00000280: f0ed 2b3e b7a0 37be 6da5 efbd 44cc 033e
00000290: 28e2 363e 3252 cabd 68e4 7bbd ee76 01be
000002a0: d4d1 1d3e d466 953d 5073 353e 6d5c 18be
000002b0: 00b9 a93c f0a1 593d d81b 9ebc 082b 493d
000002c0: 8cd7 14bd 46f0 383e 76ae 2bbe 24ab f33d
000002d0: d4b1 2d3d c874 7abd 3e22 06be 0e93 063e
000002e0: 44a2 163c d01a 4abe fc04 1e3e f4b0 2c3e
000002f0: ac10 ad3d 9ae4 3e3e 78fb 0c3e 2c04 4bbe
00000300: 3d7e a53d 9808 493e d260 923d 6588 903d
00000310: e55d 53bd ca4a 35be 03b1 813d 9d66 34be
00000320: 82c5 27be 7fb7 10be b8c4 b13d 9d23 8cbd
00000330: 27ed ce3d 337d 2a3e b3df f83a f383 35bd
00000340: ad97 393d bf91 b13c 0bcb 55bd 61d0 3fbe
00000350: 1b88 df3d eff5 233e ac79 f23c a88d 2f3d
00000360: 0c3c 483e f8c4 9a3c f23b 07be e0ea 403e
00000370: 7cd2 03be d6ae 3c3e 7840 c23c e485 2c3c
00000380: 249b 0a3e f424 173e f8f6 d83d 646e 953b
00000390: dfeb c2bd 9cfa 19be 287d dfbd 9477 873d
000003a0: ec80 293d 6810 553d ee58 81bd 926c 39be
000003b0: 0838 cf3d a434 62bd 784c 94bd 0e4d 4d3e
000003c0: db2a d1bd 44d1 893d 64c3 be3d ecb8 dd3d
000003d0: 5d37 1dbe 9811 9d3a 775b b0bd 54f5 1a3e
000003e0: 0e40 363e 6ae5 193e e2e5 3b3e 5e7e 18be
000003f0: 884f 78bd 8019 a8bc 954b c2bd 101d e73d
-0.025695927 0.15088557 -0.17298919 0.049344774 0.11121769 -0.07698625 0.11237329 -0.17555729
0.19748588 -0.121477686 -0.16944225 0.19877478 0.057784405 0.08137135 -0.09206769 0.102879666
-0.18192936 -0.19646628 0.04900835 -0.10131823 -0.040194083 0.022648815 -0.1442385 -0.010209429
0.053900074 0.08458614 -0.083394095 -0.19149584 0.13336729 0.09351507 0.053370193 0.11533448
-0.038308207 -0.04614701 0.19448626 0.15176533 0.19329047 -0.06901515 0.17195116 0.030863388
-0.15948644 0.070762664 -0.19878155 -0.17981769 0.16821024 -0.12878704 -0.14927925 0.1247765
0.066310585 0.012359057 -0.12203834 0.11340135 0.14150384 0.09373158 -0.17891663 0.046825618
-0.017893344 0.15788823 -0.13947439 -0.09453081 -0.0658561 -0.13562563 -0.06694992 -0.028789416
-0.015458522 0.20178518 0.17122668 -0.046504572 0.17428514 0.19246626 0.08066538 0.17027938
0.18609682 0.19443026 0.048150927 0.057602137 -0.1443606 -0.01225372 -0.084953 -0.12961777
-0.16943651 -0.1311771 0.054456174 -0.051736936 -0.16343895 -0.065641165 -0.12234463 -0.034737304
-0.12241916 -0.015880361 -0.15097818 -0.0681161 0.20275512 -0.042646796 -0.15355644 -0.046454743
0.0301518 -0.096927464 0.021617934 -0.110345855 0.034397542 0.09545529 0.15013003 -0.08080782
-0.05146192 -0.18118303 0.095757514 0.14611512 -0.028141662 -0.08566785 0.06268889 0.1356293
-0.081651315 -0.023811296 -0.17765655 0.049164772 -0.17465024 0.03533265 -0.07547246 0.116793096
0.14532962 -0.09434247 0.033606455 0.19594014 -0.074904904 0.08977309 0.036378965 0.14020514
0.103185326 0.07736656 0.119901985 0.10767084 0.15181977 -0.16587457 -0.05597371 0.13023075
-0.086974755 -0.018154398 0.07968232 0.19728777 0.02716808 0.16384462 -0.19553503 -0.05839491
0.05880916 -0.06660192 -0.19734319 -0.07912411 0.024553105 -0.071214065 0.017359614 0.06946978
-0.10272699 0.10030046 -0.07688314 0.06773329 0.029113308 -0.19837911 0.014937032 0.19825575
0.16789985 -0.17932402 -0.11701474 0.1287089 0.1785971 -0.09878959 -0.061497122 -0.12643024
0.15412074 0.072950035 0.1771977 -0.14879008 0.020718098 0.05313295 -0.019300386 0.049113303
-0.036338374 0.18060407 -0.1676577 0.11897877 0.04240592 -0.061146528 -0.13099 0.13142034
0.009193961 -0.1973679 0.15431589 0.16864377 0.084504455 0.18641892 0.13767803 -0.1982581
0.08080719 0.19632185 0.07147373 0.07057265 -0.051603217 -0.17704311 0.063325904 -0.17617269
-0.16383937 -0.14132498 0.08680099 -0.0684273 0.10103827 0.16649322 0.0018987566 -0.04431529
0.045310665 0.021675942 -0.05219559 -0.18731834 0.10914632 0.16011785 0.029599033 0.042859703
0.19554156 0.01889275 -0.13206461 0.18839598 -0.12873262 0.1842607 0.023712382 0.010529969
0.13535744 0.1476019 0.105939806 0.0045602787 -0.09517645 -0.15037006 -0.109125435 0.066146046
0.041382715 0.0520176 -0.0631579 -0.18107823 0.10118109 -0.055225983 -0.07241148 0.20048925
-0.10213252 0.067293674 0.093146116 0.10826287 -0.1535315 0.0011983393 -0.086111955 0.15132648
0.17797872 0.15028921 0.18349412 -0.14891955 -0.060622722 -0.020519972 -0.094870724 0.1128484

bias f4 [24]
00000000: e800 d53d b058 09be 8510 023d 28df afbd
00000010: c585 55bd 074b 08bc 5b58 173e 89b3 4fbe
00000020: c869 ccbd a3f8 be3d fcc2 363e ad30 443e
00000030: fdf6 30be 936c abbd 181b 64bd a1b4 72bd
00000040: 882c fe3c 684b a93d 0420 04bc 4d7d 313d
00000050: 5e4b 313e 75cc 3dbe 1b56 c13d c2bb c3bd
0.104005635 -0.13412738 0.031754036 -0.085874856 -0.052129526 -0.008318669 0.14779799 -0.20283331
-0.09981114 0.093247674 0.17847818 0.19159193 -0.17281719 -0.08370318 -0.0556899 -0.059254292
0.031027094 0.08266336 -0.008064274 0.043332387 0.17313907 -0.18535025 0.094402514 -0.09557296

weight f4 [24, 96]
00000000: 3069 043d bb68 2cbd 281c cdbd 98d7 fabc
00000010: b081 293d a074 463c b358 54bd a01c a8bb
00000020: 2c17 82bd 4c22 9c3c fb06 9fbd e42a 87bc
00000030: d01f cf3c ae66 80bd 044f c9bc ee4d 9dbd
00000040: 80f4 27ba 58f3 ec3c 8b7b 38bd 400b 763d
00000050: 2e45 85bd b8e1 6e3d 98ff 493d 7ce5 09bd
00000060: bce8 633d d626 973d 40c1 20bd b833 8b3c
00000070: fe64 cb3d b031 a23d 802e 4c3b 08ff 903d
00000080: 666c 823d dcd5 543d f4df 80bc d9a4 ccbd
00000090: 905d 283d f00b 8d3b 4d8d 46bd e3b7 b6bd
000000a0: 9cad 94bd 5672 71bd 0ce0 9bbc fe44 64bd
000000b0: 1659 69bd dc78 e5bc 800a 453b 5805 e43c
000000c0: 4647 913d f050 433d d387 62bd 140d 6b3d
000000d0: 7ae0 8b3d cca1 b13d 40c7 c43c f856 ba3d
000000e0: 246c 233d 886a 55bc 1ed0 c6bd b809 c2bc
000000f0: 8cbf 223d 5c85 733d cf47 74bd 00b8 c538
00000100: 40f7 b03d 364e 94bd bce8 3a3d 5c62 a63c
00000110: 34a0 8d3c 3472 5c3d acdd 6a3d 915c 3cbd
00000120: 08e0 473d f50f c1bd 90b1 3e3d 90a6 533c
00000130: b812 48bc b8fc 9a3d fc20 443d 0439 a0bc
00000140: 08d0 b5bc 9644 873d 4884 5f3d 1c3f 00bd
00000150: 64ea 003d 760a b0bd 12e5 af3d 7097 1ebd
00000160: e2a3 93bd 2249 a43d a229 3ebd 707f b93d
00000170: 184e 773d c358 79bd 302a 4c3c 40ab ad3d
00000180: 32c2 96bd 80de 9e3b 00af f3bb 4e06 b3bd
00000190: d069 ea3c 504c ae3d 08af 933d 74ee 353d
000001a0: 208a f13b 04d9 0abd 3cac a33c 0038 ed38
000001b0: fc3b 843d 14f6 85bd 9422 bebc 826b 9ebd
000001c0: 3a7a 8c3d 84a9 713d 9127 b2bd b0b4 f33b
000001d0: 9a2b 9e3d 709d 91bb 4a55 ce3d a4c9 bbbc
000001e0: 0c1e af3d c064 deba 1845 883d dc1b a3bd
000001f0: 2a8b cb3d 10cf ec3b c8c3 733d f8aa 2a3d
00000200: 140d 533d c489 e1bc 1b90 c6bd a487 803d
00000210: 74f7 8dbd 400f 2e3d 6c9c 963d 4038 e9bc
00000220: d474 c73d 9032 3abd 200e c4bd 54e8 9cbd
00000230: 245b 09bd 944f 043d 24d8 64bd 4044 e33a
00000240: 00f8 e5b8 0af4 a33d d75a 85bd 602d b13c
00000250: f808 b23d 68fc abbc 0030 cfba 50a3 ad3d
00000260: 7068 933d 1ce4 583d 7c90 bfbd 70c7 25bc
00000270: 2e7e c0bd 279c 37bd 0257 0dbd 300e be3c
00000280: eeab c83d 420a a73d 3035 b1bd f0a6 2f3d
00000290: fd81 52bd 8f89 a0bd be62 983d d61d b93d
000002a0: 9952 8ebd d050 c2bd 3074 383d 1a6e 9d3d
000002b0: d0b1 2d3d fcd8 6f3d 807d a3bd 0c36 503d
000002c0: b427 cabc bcf3 d5bc b31d c9bd 0a2a a43d
000002d0: 1c30 993d 4af0 45bd 0820 343d 9c20 743d
000002e0: a895 263c 9dd9 8ebd 50bd b83b d884 e8bc
000002f0: 3cab 9e3d 3dd7 2cbd 3eae b0bd 045b cabd
00000300: dc56 23bd 789d 64bd a101 25bd b042 07bd
00000310: cc4e b3bd 491d 47bd 00a3 c0b9 44af 593d
00000320: c612 af3d c08f 473b 00f1 ec3a 1eef 29bd
00000330: b029 623d dacb 853d 3973 78bd 0b32 42bd
00000340: b772 69bd ee97 06bd 6d19 24bd 0c55 443d
00000350: 9078 23bd 498e a0bd 00f9 e9ba f026 7e3c
00000360: 2807 6b3d a4bb 96bd c0c4 8f3a f8d5 b73d
00000370: d4b9 b33d f814 a03d 28e0 25bc f050 b8bc
00000380: a836 c13d 8c70 bb3d 807e 6f3d 18ee d93c
00000390: b021 683c e186 50bd e2f9 9a3d 6029 35bc
000003a0: 33b9 b4bd 8070 b83c ac6e 253d c024 5f3d
000003b0: c012 51bb 28d7 e83c 4884 ca3c d464 a6bc
000003c0: 1e8a a2bd 16bd c63d f845 2c3d 7063 d33c
000003d0: 3653 99bd 8400 b73c c8af 303c 0486 713d
000003e0: 0e71 cf3d c4ff d4bc c6fd cfbd ee17 a4bd
000003f0: 86ca 8d3d c0b1 2f3c fcb9 743d 80a3 45bd
0.032326877 -0.042092066 -0.10015136 -0.030620381 0.041383445 0.0121127665 -0.051842403 -0.0051303655
-0.06352076 0.019059323 -0.07765003 -0.016499944 0.025283724 -0.062695846 -0.02457381 -0.076808795
-0.0006406978 0.02892463 -0.045039695 0.060069323 -0.065073356 0.05832073 0.04931602 -0.03366612
0.055641875 0.07380454 -0.039246798 0.016992435 0.09931372 0.079196334 0.0031155646 0.07079893
0.063683316 0.051961765 -0.01573179 -0.0999238 0.041104853 0.0043044016 -0.0484746 -0.08921792
-0.07259676 -0.05894693 -0.019027732 -0.05572986 -0.056969725 -0.028011732 0.0030066073 0.02783458
0.070936725 0.04768461 -0.055305313 0.05738552 0.06829925 0.086734384 0.024020791 0.09098619
0.039898053 -0.013025887 -0.09707664 -0.023686275 0.039733455 0.059453353 -0.059638795 9.427965e-05
0.08640909 -0.0724148 0.04563211 0.020310573 0.017288305 0.05381985 0.05734031 -0.045986716
0.048797637 -0.09426872 0.046556056 0.01291813 -0.012211494 0.075677335 0.04788302 -0.019558437
-0.022193924 0.066048786 0.054569513 -0.031310186 0.031473532 -0.08595745 0.085886136 -0.03871864
-0.072089925 0.080217615 -0.046426423 0.0905751 0.06037721 -0.060875665 0.01246123 0.08479929
-0.073612586 0.0048483014 -0.007436633 -0.08741437 0.028614908 0.08510649 0.07211119 0.04441686
0.007371202 -0.03389837 0.019979589 0.000113114715 0.064567536 -0.06541076 -0.023209848 -0.07735349
0.0685925 0.058999553 -0.08698953 0.007437311 0.0772316 -0.004443817 0.10074861 -0.022923298
0.08550653 -0.0016967282 0.066538036 -0.07964298 0.09938653 0.007226832 0.059512883 0.041666955
0.051526144 -0.027531512 -0.09695455 0.062758714 -0.069319636 0.042495012 0.07354054 -0.028469205
0.0973908 -0.045458376 -0.09573007 -0.076615006 -0.033534184 0.032302454 -0.05587019 0.0017339066
-0.000109657645 0.08005531 -0.06511467 0.021628082 0.08693117 -0.02099438 -0.0015807152 0.08478415
0.07197654 0.052951917 -0.0935373 -0.01011835 -0.09399067 -0.044826653 -0.034506805 0.023200125
0.09798418 0.081562534 -0.08652723 0.042883813 -0.051393498 -0.07838737 0.074407086 0.09038894
-0.06949348 -0.0948807 0.04503268 0.07687016 0.042405903 0.05855654 -0.079829216 0.050832793
-0.024677135 -0.026117198 -0.09820118 0.08015831 0.07479879 -0.04832486 0.04397586 0.05960141
0.010167517 -0.069751 0.005637802 -0.028383657 0.07747504 -0.042197455 -0.08626984 -0.09880641
-0.039877757 -0.055814236 -0.040284757 -0.033022583 -0.08755264 -0.048611913 -0.00036742538 0.053145662
0.085485026 0.0030450672 0.0018077195 -0.041487806 0.055215538 0.06533022 -0.06065676 -0.047411006
-0.056994166 -0.032859735 -0.04006331 0.04793267 -0.0399099 -0.07839639 -0.0017850697 0.015512213
0.05737987 -0.07360008 0.001096867 0.08976358 0.08775678 0.078164995 -0.010124244 -0.022499532
0.09434253 0.09152326 0.05847025 0.02660279 0.014168188 -0.05090988 0.075671926 -0.011057228
-0.088243864 0.022514582 0.040388748 0.054478407 -0.0031902045 0.028422907 0.02472128 -0.02031175
-0.079365 0.09704034 0.042058915 0.025804251 -0.07486574 0.022339113 0.010784097 0.058965698
0.10128985 -0.026000865 -0.10155825 -0.08012377 0.06923394 0.010723531 0.05974768 -0.04825163

bias f4 [24]
00000000: 4a96 28bd e53f c3bd 3443 953c c666 b8bd
00000010: 777c c9bd 10be 69bc bf20 5cbd 68a6 c53d
00000020: c472 ccbc 1247 a23d bcbe 9b3d d8aa dd3c
00000030: ccab 98bc b809 aa3d 10fb 51bd 381d 0f3c
00000040: 40e4 063b 3e01 b3bd a2a5 983d 60ba 113d
00000050: f046 d93b eca9 24bd d35d 3abd 0421 ca3d
-0.04115895 -0.09533671 0.018220522 -0.090039775 -0.09838193 -0.014266506 -0.053742167 0.0965088
-0.024957068 0.07923712 0.07604739 0.027059004 -0.018636607 0.08302635 -0.051264822 0.008734994
0.0020582825 -0.08740471 0.07453467 0.03557813 0.006630771 -0.040201113 -0.045499634 0.098695785
